Weights/model_best_LSTM_Spatial_Temperature_interpol_latest.pth.tar (torch, 514074 bytes, 33 tensors)

encoder.LSTM.weight_ih_l0 f4 [280, 1]
000000 3f 08 55 be 1e fe 10 3e 27 15 8e bc 3b 91 2f 3d
       -0.20803927 0.14159438 -0.01734407 0.042863112
000010 7b 69 2d 3c 56 c7 cf 3d f9 46 fb 3d 13 03 6b 3d
       0.010584231 0.10145442 0.12269396 0.05737598
000020 7d b0 a6 bd 49 17 96 3d 67 46 1c 3e ce 45 07 3e
       -0.08139131 0.0732866 0.15261231 0.13210222
000030 8c be 6f bd 53 27 c3 3c 4b 67 da bd b0 18 6d 3d
       -0.05853133 0.023822462 -0.10664233 0.057884872
000040 13 af fa 3d de 84 cc bd f5 2e e9 3d 6f b3 3f bd
       0.12240424 -0.0998628 0.113859095 -0.04680198
000050 18 f1 0b bd 2b 68 4b 3b c8 32 c7 3d 53 90 c0 3c
       -0.03416547 0.003103743 0.09726483 0.02350632
000060 39 f0 f2 3d b2 c2 9f 3c 37 0e 91 bd 2b 66 30 3d
       0.11862225 0.019502018 -0.070827894 0.043066185
000070 e4 19 2d 3e 53 0b ed 3d 59 0a 11 3e a6 65 89 3c
       0.16904408 0.115744255 0.14164104 0.016772103
000080 a7 e5 29 bc ba 19 8c bc 82 1c 53 bd 11 9d 11 bd
       -0.010369695 -0.017102111 -0.05154086 -0.03555018
000090 92 74 22 3e de e3 91 bd 16 d5 0c 3c a3 c8 f2 bb
       0.1586478 -0.0712354 0.0085957255 -0.0074091717
0000a0 7a b2 a5 bd f1 95 41 3b 78 f2 9d bd 9f 0d 10 3e
       -0.08090682 0.0029538835 -0.07712263 0.14067696
0000b0 78 3b c0 bd fc 8f 38 3e e0 73 91 bd cf 8b 66 3d
       -0.09386343 0.18023676 -0.071021795 0.056285676
0000c0 53 68 42 bc f6 36 8d bd b7 cf ab 3d ea 5a cc bd
       -0.011865693 -0.068952486 0.08389228 -0.09978278
0000d0 84 6c dd 3b 10 52 fb bc dd 37 48 3d 22 9f 1c bd
       0.006757321 -0.030678779 0.0488814 -0.0382377
0000e0 dd 68 7b bd 5b dc 09 bd f0 c1 65 bd 4f c4 a5 bd
       -0.061379302 -0.033657413 -0.056093156 -0.080940835
0000f0 da f0 62 3e be 4e 5d bd bd ae 73 bd 1e e4 e3 3d
       0.2216219 -0.054030173 -0.059492815 0.11127494
000100 0d 61 ca bd 11 97 bd 3c c1 f9 1b be 47 d8 52 3e
       -0.09881792 0.023143323 -0.15231992 0.20590316
000110 e7 c6 c8 3d 8d 0e e6 3d 0e f6 0f be d2 c7 8f 3b
       0.098035626 0.11233244 -0.14058706 0.004387834
000120 38 d0 7b 3d 7c 4c 81 3d 62 de c8 bd 0c 82 a7 3c
       0.06147787 0.06313416 -0.09808041 0.020447753
000130 7c de 85 3e ef 35 11 3e ea f7 e8 3d 2f 90 c1 bd
       0.26146305 0.1418073 0.11375411 -0.09451329
000140 6f f6 35 3e c5 a4 b1 bd f1 74 00 bd 45 82 30 bc
       0.17769788 -0.086740054 -0.031361524 -0.010773246
000150 59 08 1a be 24 04 40 be 06 33 c0 3b 32 32 a5 bb
       -0.15042247 -0.1875158 0.0058654575 -0.005041384
000160 c1 f3 63 bd 4a ba 15 3d 2a 64 21 3e ec 4c 8e bd
       -0.055652384 0.036554612 0.15760866 -0.069482654
000170 f6 be fd bc d7 aa ff 3d 75 8e 18 bd f3 38 42 3d
       -0.030974846 0.12483757 -0.037245233 0.047417592
000180 91 90 c4 3c 51 98 0a bd 90 eb 35 3e cb 3b 8c 3c
       0.023994716 -0.033836666 0.17765641 0.017118355
000190 77 33 07 3e e1 7a 19 3e 9f 8c 86 bd 06 84 5c 3e
       0.13203226 0.14988281 -0.0656979 0.21534738
0001a0 f1 04 d4 3d 40 f8 ca 3d 6e e3 52 3e af 34 b0 bb
       0.10352505 0.09910631 0.2059457 -0.005377374
0001b0 69 4f a0 ba b0 c4 4c 3e c2 46 20 3e df 9e 23 3e
       -0.0012230697 0.19996905 0.15651992 0.15978573
0001c0 90 2b ff 3c 6d 79 40 3e 24 9c 05 3c 8f 9f 72 3e
       0.031148702 0.1879632 0.008154903 0.2369368
0001d0 a9 6d 0f 3e ec cb ef bd 7a 8e 0e 3e e2 3d 48 3e
       0.14006676 -0.11708817 0.13921538 0.19554856
0001e0 0b ff 2e 3d 62 e0 24 bd 8a c5 84 bd 2c 4f 03 3e
       0.042723697 -0.04025305 -0.0648299 0.1282317
0001f0 a4 4c 3c 3e bf cc 82 bd 9f a4 24 3e 95 26 4b 3d
       0.18388611 -0.063867085 0.16078423 0.04959734
000200 0a 56 be bd f5 00 1f 3e 39 f6 1d 3d 4a 21 c4 bd
       -0.092937544 0.15527709 0.038564894 -0.09576662
000210 be 29 88 bd 12 70 3b bd c0 b0 42 3e 19 9f 87 bd
       -0.06648587 -0.045761175 0.19012737 -0.06622142
000220 a8 fc 46 bd 44 f4 7f 3c e2 50 36 3d 60 24 5b 3e
       -0.048580796 0.015622202 0.04451073 0.21400595
000230 ba b9 f1 bc 37 61 c6 bd df 70 1a be 15 54 41 3e
       -0.029507507 -0.09686511 -0.1508212 0.18879731
000240 b2 e2 3f be 95 99 2a 3e 55 04 0f 3e 99 5b 89 3e
       -0.18738821 0.1666015 0.13966496 0.26827696
000250 38 d2 ab bd 2c da 41 3d e7 f4 0f bd a7 f8 14 be
       -0.083897054 0.047327206 -0.035145666 -0.14547978
000260 c2 28 19 3c 3b 00 44 be 29 69 bc bd 5f 40 01 bd
       0.009348096 -0.19140713 -0.09199745 -0.03155553
000270 e1 73 17 3e 3b 6d 3c 3e f8 cf 03 3a 67 e1 a5 bd
       0.14790298 0.18401043 0.0005028243 -0.08099633
000280 44 71 2c 3e 98 c7 0d be 2c 1d f2 3d 44 bc 74 3b
       0.16840082 -0.1384567 0.1182197 0.003734366
000290 1b 69 d5 3b 8e f4 e6 3d f9 24 20 bd 72 90 13 be
       0.0065127737 0.11277114 -0.03909776 -0.1441057
0002a0 83 06 00 3e 6e 30 50 3d 09 30 b0 3c 11 67 44 3e
       0.12502484 0.050827436 0.02150728 0.19179942
0002b0 d9 13 da bd ea 55 8d 3d 75 31 bc 3d e9 39 a8 bb
       -0.10648317 0.069011524 0.09189121 -0.0051338566
0002c0 80 8b 05 bd 6a 0a da bc de 71 b5 3d 8b 31 14 be
       -0.03260374 -0.026616294 0.08859609 -0.14472024
0002d0 0c c6 96 bd d0 8c bb bd 49 77 3a 3e 7b 9d 33 be
       -0.07361993 -0.09157717 0.18209566 -0.17540543
0002e0 63 a0 23 be 5f bd 09 be b4 a4 e3 bd e1 00 a0 3c
       -0.15979151 -0.13451146 -0.11115399 0.01953167
0002f0 f5 57 c2 bd 07 9d 01 3d f5 06 7a bd 4f 75 0f 3e
       -0.09489433 0.031643894 -0.06104179 0.14009593
000300 cf 71 c8 3d f9 fd 59 3e eb 67 34 3e 9b 1d 31 be
       0.09787332 0.21288289 0.17617767 -0.1729645
000310 e1 00 87 3d 52 c7 cb bd ca fe 13 3e ad ea 4d 3d
       0.065919645 -0.09950127 0.14452663 0.050272632
000320 90 5c d4 3d fe 59 07 3e b9 93 0f 3e 57 6b ef bd
       0.103692174 0.13217923 0.14021195 -0.11690395
000330 94 18 c7 3d 3e 53 36 be 75 65 35 38 09 28 05 3d
       0.09721485 -0.17805192 4.3248252e-05 0.032508884
000340 e8 a9 42 3e 3f 5b a5 bd 31 58 1d bd 23 d6 17 3e
       0.19010127 -0.080740444 -0.038414184 0.1482778
000350 cc 9a 46 3c 27 cc bc 3c 2f 5f fe ba 08 92 d4 bd
       0.012121867 0.023046566 -0.0019407029 -0.10379416
000360 06 75 09 3e 18 c6 7f 3e 05 f1 b3 bc 1c b0 a6 bd
       0.13423547 0.2497791 -0.021965513 -0.08139059
000370 8d 19 28 3e 84 4b ed bc 87 d0 cb bd e0 e1 25 bd
       0.16415997 -0.028966673 -0.09951883 -0.040498614
000380 8e 70 75 3d 50 4a eb bd 3e 30 f0 3d 2e f5 15 3e
       0.059921794 -0.11488783 0.117279515 0.1464431
000390 2e 6b cf bc 34 4c 7c 3d 20 cb 2c 3e dd b4 c7 3d
       -0.025319662 0.06159611 0.16874361 0.09751294
0003a0 6b cf 83 bd b5 de c8 3d d5 5a ca bd 4d 20 fe bd
       -0.06436046 0.09808103 -0.09880606 -0.12408505
0003b0 2e ca 86 3d f3 f2 15 3e 82 4d e1 39 a5 8f fd 3c
       0.065815315 0.14643459 0.00042973092 0.030952284
0003c0 30 a8 80 bd 3a 37 bc 3d af 12 73 bd 48 4a e5 3d
       -0.06282079 0.09190221 -0.05934399 0.11195809
0003d0 a6 fe 2f bd 18 a4 8b 3d a3 4e d1 3d 6a 8f c3 3b
       -0.04296746 0.06818408 0.10220077 0.005968024
0003e0 4e b3 c9 3c 55 d6 21 3e a0 37 2a be 92 80 2c bd
       0.024621632 0.15804417 -0.16622782 -0.0421148
0003f0 3a 3f 4c 3d 4f 54 de 3d 63 1c 1a bc 53 52 79 3e
       0.049864985 0.10855924 -0.009406182 0.2434781

encoder.LSTM.weight_hh_l0 f4 [280, 70]
000000 4a 56 1f 3e a6 a6 0e be e6 fb 70 3d 31 cb 04 bd
       0.1556026 -0.13930759 0.05883398 -0.03242034
000010 06 e4 e3 3d be db e1 bd 47 59 3e 3d d3 43 a7 3d
       0.111274764 -0.110282406 0.04647186 0.08167233
000020 e2 66 75 bc b2 27 e4 3d 7b ff 02 bd 7b 98 85 3d
       -0.014978142 0.11140384 -0.031981926 0.06523224
000030 89 a1 07 3e ea e4 b4 bd 5f ad db bd e6 de 98 3d
       0.13245215 -0.088327244 -0.10726427 0.074643895
000040 43 85 ba 3d 6f 7e 9c 3d 5e 6b 07 3e 2c 2d 89 3d
       0.09107449 0.07641303 0.13224551 0.06698069
000050 8a e9 21 bc 5d ef 8a bb 2f 1f ad bd 06 f6 b3 3d
       -0.00988234 -0.00423996 -0.084532134 0.087871596
000060 e3 42 80 bd d6 78 4b bd b6 7f 58 bd 5d 7f 14 3e
       -0.06262758 -0.049675785 -0.05285617 0.1450171
000070 96 bd 1f be cc eb 62 3d 3e 99 4a bd 85 67 1f bd
       -0.15599665 0.055400655 -0.04946255 -0.038917083
000080 b2 12 b6 bc cd a1 be 3d 07 b7 0c 3e 6a f6 8b 3d
       -0.022225711 0.09308205 0.13741694 0.06834109
000090 c2 9e 4f bc 72 60 1a be 68 f8 a4 3d b8 c6 10 3c
       -0.012672128 -0.15075853 0.08055192 0.008836441
0000a0 3c 9a 07 bd 52 37 8b bb 13 4c 79 bd 21 00 fd 3d
       -0.033106074 -0.004248538 -0.060863566 0.1235354
0000b0 09 02 a7 3d c6 8f 90 bd 25 18 78 3d 46 d4 51 3c
       0.08154685 -0.070586726 0.0605699 0.012806958
0000c0 e3 44 0b 3e 02 79 18 be 3b f5 96 3d a5 b9 24 be
       0.13600497 -0.14889911 0.07370993 -0.16086443
0000d0 8f dd 4b bd e9 03 d7 bd fb 9a 59 bd 86 4c a7 3d
       -0.04977184 -0.10498793 -0.053126317 0.081688926
0000e0 f1 58 4c bb 56 16 da bd ad 6b 01 be 8a 03 43 3c
       -0.0031180943 -0.106487915 -0.12638731 0.011902699
0000f0 36 1d 9b 3b 09 d8 5b bb 50 4e cb 3d b5 0c c8 bb
       0.004733707 -0.0033545515 0.09927046 -0.0061050304
000100 2c b9 6b 3d ea 1c b3 3d 52 f1 03 bd 2a cd 02 bd
       0.05754964 0.08745749 -0.032212563 -0.03193394
000110 b5 3b 38 bd 8b ef 22 3d 34 ef a0 bc 61 f9 05 be
       -0.044978816 0.039779227 -0.019645311 -0.13083412
000120 ae d8 fb 3d 63 2e e3 3d 76 52 76 bd b0 ef 09 3e
       0.12297188 0.11092832 -0.060137235 0.1347034
000130 6b 97 38 3d 80 9c 07 3e 87 a5 88 bd 57 2c b3 3d
       0.04506628 0.13243294 -0.06672197 0.087486915
000140 45 7d 98 bc 47 5a be 3d f9 00 f0 bd 6d d8 aa bd
       -0.01861442 0.09294563 -0.117189355 -0.08342061
000150 ab f8 07 3e 04 d7 aa 3d bb 51 c1 bd 21 88 f5 bc
       0.13278453 0.08341792 -0.09439417 -0.029972138
000160 d8 50 8e 3d 1d 85 c7 3c c2 3b 17 3d b0 e6 e5 3d
       0.069490135 0.024355466 0.036922224 0.11225641
000170 da 54 66 bd 57 54 64 bd 00 e2 2b 3b 59 65 b6 bd
       -0.056233265 -0.055744495 0.0026227236 -0.08906049
000180 7a 02 33 3d 97 84 ab bd bb 58 f3 bd a2 20 b6 bd
       0.043703534 -0.08374899 -0.11882158 -0.08892943
000190 97 29 b9 3d 31 9c 7a 3d 45 2e a4 3d 7a 7e c1 3d
       0.09041136 0.061184112 0.08016638 0.094479516
0001a0 23 90 a6 bd 6d f9 34 3d dc 85 c5 bd af bb 22 bd
       -0.08132961 0.044183183 -0.09644672 -0.03972977
0001b0 d2 2c 66 3b a3 6d a9 3d 92 01 a1 bd af e8 0d be
       0.003512193 0.08272865 -0.07861628 -0.13858293
0001c0 27 d4 3b bc af 01 ed 3d 07 30 a9 bd a7 e7 d8 bc
       -0.011464155 0.11572587 -0.082611136 -0.026477648
0001d0 e5 e2 3f 3d 2c 10 3c be f8 6a 0f 3e 72 b5 d5 3d
       0.046847243 -0.18365544 0.14005649 0.104349986
0001e0 7b cb fa bd 7e 52 bd bd b0 44 89 3c 48 aa 54 bd
       -0.12245842 -0.0924425 0.016756386 -0.051920205
0001f0 0a 1d de 3b 7c 45 47 3d 82 73 06 bd a5 b9 f4 bd
       0.006778364 0.04865025 -0.032825 -0.119494714
000200 dd 35 8d 3d d0 a8 07 bd 7a d2 f6 3d b0 ed 8d bd
       0.06895039 -0.033119977 0.12051864 -0.06930101
000210 91 dc 99 3d cb 7a f0 3c 65 ed 5d bc 4b 6b fb 3a
       0.07512773 0.029355427 -0.013545369 0.0019181756
000220 2f b9 1b be bd d3 f7 bd 2f c9 af 3d 9d 0e 13 be
       -0.1520736 -0.12100933 0.085832946 -0.14361043
000230 bb 56 ea bd 6e 79 8d 3d 15 93 fa 3c 49 7a 15 be
       -0.11442324 0.069079265 0.030587712 -0.1459743
000240 6e 85 91 3d 4c 22 68 be 74 cf 94 bc b2 3f b5 bc
       0.07105528 -0.22669333 -0.018165328 -0.022125099
000250 61 bb de bd 3e 77 30 bd e5 c9 0a be 35 fb 0a 3e
       -0.108755834 -0.04308247 -0.13553579 0.1357239
000260 08 96 cf bd 09 d1 60 bd 60 91 3e 3d 58 b9 bb bc
       -0.10136038 -0.05488685 0.04652536 -0.022915527
000270 7b f3 a3 3d 3d ea 06 be 37 07 0b be 29 f7 97 3e
       0.080054246 -0.13175292 -0.13576971 0.29680756
000280 7d 5b eb 3b e6 34 02 3e 69 75 c4 bd 6b 9d 85 bd
       0.007182537 0.12715492 -0.09592707 -0.06524166
000290 26 94 a6 bd 10 83 02 be 0e 1d 11 be 96 3b c4 bd
       -0.08133726 -0.12745309 -0.1417124 -0.095816776
0002a0 ff a7 66 3d 3a 0a 3f 3d 20 af 73 3d 4b 86 8b bd
       0.056312557 0.046640612 0.059493184 -0.06812724
0002b0 c8 57 1f 3d b3 24 a8 bd ca 48 23 bb 59 dd 86 3d
       0.038902074 -0.08210125 -0.0024915212 0.065851875
0002c0 9e fe 0c 3d 9c 77 e8 3d 19 a0 d8 3d 11 8d 21 3c
       0.03442251 0.11350939 0.10577411 0.009860293
0002d0 24 41 3e 3e 17 09 2e 3d 0c 20 04 3b 5d e7 d8 3d
       0.18579537 0.042489138 0.0020160703 0.10591004
0002e0 9d 88 7e 3e ac ca 1e ba ff c5 c6 3d 6f 8b 1d be
       0.24856801 -0.0006057422 0.097057335 -0.15385221
0002f0 f6 4c 24 bd 72 ef f8 3d 49 c3 76 3e b7 84 c2 3b
       -0.04011246 0.121550456 0.24097933 0.005936231
000300 d4 49 d6 bd 4d 4a 0e be 2d a1 48 3b 95 f3 33 3e
       -0.104633 -0.13895531 0.0030613646 0.17573388
000310 f9 a8 e8 3d 44 b4 ad bd bb 00 23 bd e8 66 86 3d
       0.11360354 -0.084816486 -0.03979562 0.065625966
000320 cc 7d af bd 86 92 72 be 4b 6e 06 3d 6f cd 06 be
       -0.08568916 -0.23688707 0.032820027 -0.13164304
000330 d8 6c fb 3c 76 a8 1d 3e 05 43 05 be 99 d8 9d be
       0.03069155 0.15396294 -0.13013847 -0.30829313
000340 42 92 ed bd 80 55 1c 3e 9f 31 7c 3d 85 dd ae 3d
       -0.11600162 0.1526699 0.06157076 0.08538345
000350 ed 1d b6 3d 99 0b c8 3d 9a 23 2b bc 6e 43 ab bd
       0.08892427 0.09767837 -0.0104455 -0.083624706
000360 da fe 1f 3e ed 01 bb bc 8c 17 f7 bd 89 63 b5 3c
       0.15624562 -0.022828067 -0.12065038 0.022142189
000370 60 bf 56 bd 21 3a 14 be c4 71 fd bd 3b d4 26 be
       -0.052428603 -0.144753 -0.12375215 -0.16291897
000380 85 dc 81 bc 2c 9f 18 3e 95 42 5d bc b3 da 5c bd
       -0.015852222 0.14904469 -0.013504644 -0.053919505
000390 fb 03 16 be e8 23 8a 3d d6 ff 03 3d d6 08 55 be
       -0.14649956 0.0674513 0.032226406 -0.20804152
0003a0 02 88 fd 3c 23 c4 17 bd 49 f6 9b bd f5 c8 b1 bd
       0.030948643 -0.037052285 -0.076153345 -0.08680908
0003b0 d5 51 ac bd e7 d0 e1 bd b8 ec 1a 3e 2c 92 11 3d
       -0.08414046 -0.11026173 0.15129364 0.03553979
0003c0 ff b2 7e bc f6 a0 87 3d 84 0d 29 be 96 17 02 bd
       -0.015545606 0.06622498 -0.16509062 -0.031760775
0003d0 c2 f8 13 3c 1b f3 67 3d 4c b3 23 3d bb 33 f8 3d
       0.009031476 0.056628328 0.039965913 0.12119242
0003e0 e7 d0 6b 3c 22 fd 40 3d 7b ec ce 3d 0c 85 95 3d
       0.014393068 0.047116406 0.10103699 0.07300767
0003f0 c3 4f e1 3d d5 59 f6 bd 09 81 ba 3d 29 27 8c 3c
       0.110015415 -0.12028853 0.09106643 0.017108517

encoder.LSTM.bias_ih_l0 f4 [280]
000000 3a 83 9e 3c 92 51 c4 3c 8f bf 88 3d dc cb dd 3c
       0.019349683 0.023964677 0.06677162 0.027074747
000010 47 90 56 3c 24 b1 4b bc 6f b7 25 3d 6a a1 c0 3d
       0.013095922 -0.01243237 0.04045814 0.09405787
000020 65 11 49 bd 9b df 6a bc f6 e5 7e 3c 47 c8 8b 3b
       -0.049088854 -0.014335538 0.015557757 0.0042658183
000030 2f 7a db 3b ab f1 1b 3d 2f d7 1c 3d 90 29 5b bd
       0.006697915 0.03807227 0.038291153 -0.053506434
000040 87 4a 82 3c 7b d6 2d 3c 48 46 2f 3d 63 5e 10 bc
       0.015904678 0.010610218 0.042791635 -0.008811566
000050 c5 95 d9 3c 7c 36 93 3c 84 26 53 37 50 c1 45 3d
       0.026560673 0.017970316 1.2585548e-05 0.04828006
000060 46 dc 9c bc ee 64 4b bc d2 08 36 bd b5 5b 2c 3d
       -0.019148003 -0.0124142 -0.044442005 0.042079646
000070 32 e3 3a bc 35 76 2c bd 8d d4 cc 3b 1f d4 0f 3d
       -0.011406707 -0.04210492 0.006250924 0.035114404
000080 45 91 d7 bb 7e a8 71 3d ae 18 9d 3d 92 80 03 bc
       -0.006578597 0.058998577 0.07670723 -0.008026259
000090 dc cf 1e bc ef 27 4a bd 68 b1 c7 bc c9 8f 28 3b
       -0.009693112 -0.04935449 -0.024376586 0.0025720468
0000a0 ba 7c 2a bd c2 06 7b 3c 20 b9 84 3c 71 9a 9e 3c
       -0.041622855 0.015321435 0.016201556 0.019360753
0000b0 9f 0b 19 3d 89 21 04 3e 70 a2 05 3d 18 72 9c bd
       0.0373646 0.12903418 0.032625616 -0.07638949
0000c0 5c 06 a5 3b 2e a3 86 bc be 1e d1 3c 22 4d 6c bb
       0.0050361585 -0.016435232 0.025527354 -0.0036056717
0000d0 9f 73 2b bd f6 af 8a 3c 32 de 23 3c 83 4b 25 3d
       -0.04185831 0.016929608 0.010001706 0.040355217
0000e0 5a 22 f2 bc 40 34 83 3b 90 12 af bc 4e 20 c9 3c
       -0.029557396 0.0040040314 -0.021371156 0.024551537
0000f0 42 a6 fc 3b 45 a4 1d 3d 2e 0d a4 3d 29 7e 06 3d
       0.007710249 0.038486738 0.08010326 0.03283516
000100 60 a7 32 3d 32 ba 9b 3c 04 da 48 3d d5 99 03 3e
       0.043616652 0.019009683 0.04903604 0.12851651
000110 f3 bf 55 3d 98 8a 5c 3d c3 7f c5 3c bd 55 44 3d
       0.05218501 0.05384311 0.024108773 0.04793333
000120 76 72 e2 3d 8c e3 0e 3d 4d 5e f6 3c 10 de 79 3c
       0.11056988 0.034884974 0.030074263 0.015250698
000130 00 7c 6e 3d f7 fc b7 3d e2 a2 b3 bc d5 7b d4 bb
       0.058223724 0.08983796 -0.021928255 -0.0064844885
000140 db 2f 59 3d fa 08 e9 3c 84 f1 0f 3d 31 7a 1a 3d
       0.053024154 0.028446663 0.035142437 0.037714187
000150 ed 59 49 3d b7 d6 6d bd 08 47 8c 3c af 50 8e 3c
       0.049158026 -0.058066096 0.017123714 0.017372457
000160 fd 55 76 3d 7e d3 05 3c 1c 96 ec 3c 69 91 c6 3c
       0.0601406 0.008168099 0.028880171 0.024239259
000170 85 b6 a0 3c 55 48 2c 3d 98 1d 91 bc 70 36 25 3b
       0.019618282 0.04206117 -0.017714307 0.002520945
000180 5a 57 2f bd 40 27 29 3d 9f ea 0d 3a f8 71 ae bc
       -0.042807914 0.041297197 0.00054136844 -0.021294579
000190 ed a3 73 3c a0 8e 2d 3d 7f d1 0f 3b 67 c5 58 3d
       0.014870626 0.042372346 0.0021944938 0.052922633
0001a0 be fa 90 3d ba 69 ec 3b bf 3b 78 3c 0d 38 26 bd
       0.07079075 0.007214752 0.015150963 -0.040580798
0001b0 8f 87 b1 bc f5 dc da 3c 1f 6d fb 3b 11 6d 72 3c
       -0.021671085 0.026716689 0.0076729204 0.014796511
0001c0 48 69 c3 3b a9 e4 dd 3c fd 48 13 3d 2c 7d f1 3d
       0.0059634782 0.027086573 0.03595828 0.11791453
0001d0 20 cd 7b 3c c7 4a 89 bd 6f 9e c9 3b d9 8b d2 3b
       0.01536873 -0.06703716 0.00615292 0.0064253625
0001e0 59 6b 23 3d e0 35 0c bc 61 d3 68 bd 03 66 d0 3c
       0.039897297 -0.008557767 -0.05684221 0.025439268
0001f0 0c fc 3d 3c 3d 11 ef 3c c6 21 8d bc ca 47 e1 3c
       0.011595737 0.029183025 -0.017228018 0.027500052
000200 dd d5 a2 bc 99 ee c4 3c b0 85 cb 3c 67 c3 3b 3d
       -0.019877369 0.024039553 0.02484402 0.045840647
000210 e5 5e c8 3d c0 30 a9 3c bb 17 66 3d dc 90 72 3c
       0.09783725 0.020653129 0.056174975 0.014805045
000220 55 77 87 3d 09 11 b6 3d 3b 41 18 3d aa fd 32 3d
       0.06614558 0.08889968 0.037171584 0.043698944
000230 46 fe a4 3b 6f 65 4f b9 1c 86 90 3d 82 67 1b bd
       0.0050351946 -0.00019778845 0.07056829 -0.03794051
000240 56 c4 09 3a 63 c6 e2 3c 64 fe 75 3d 15 3e 77 3d
       0.00052553916 0.027682489 0.06005706 0.06036194
000250 9d 38 ec bc 4f ba 52 3c 66 39 c6 3c 81 e3 83 3b
       -0.028835589 0.012861802 0.024197292 0.0040249233
000260 90 d1 20 bc ac a1 a2 bc 00 66 bd 3c e4 19 52 3c
       -0.009815589 -0.019852482 0.023119926 0.012823556
000270 a5 aa 02 bc 7d db 85 38 1d a0 d0 bc cb d6 5f 3c
       -0.007975255 6.382817e-05 -0.025466973 0.0136620505
000280 d3 79 a9 bc 3b e0 0c 3c 58 9d 99 bc 1d 86 84 3d
       -0.020687973 0.008598383 -0.018751785 0.064708926
000290 f9 27 b1 3c 4b 6c 03 bc 00 ac 35 bb ec 9e 0d 3d
       0.021625506 -0.0080214245 -0.0027720928 0.034575388
0002a0 79 9d 38 3c be ce 48 bc 10 d2 1c bc e6 17 e3 bc
       0.011268013 -0.012256322 -0.009571567 -0.027721357
0002b0 b6 ef 14 bd 12 6a 87 bd d9 7c 87 3c ff c1 68 3d
       -0.03636142 -0.06612028 0.016539024 0.056825634
0002c0 5c 4d e5 bc 29 d6 47 bc b7 0a 86 bc cb df 56 3c
       -0.02799099 -0.012197056 -0.016362531 0.01311488
0002d0 07 a1 24 3c 25 cc 86 bc 73 c3 f9 3c c8 66 f6 3b
       0.010048158 -0.016454766 0.030488705 0.0075195767
0002e0 cb 1b 9a 3b e7 d7 00 3c fb 95 f0 bb a1 82 a1 bc
       0.00470302 0.007863975 -0.007342098 -0.019715609
0002f0 53 9d 1e bd 81 99 94 3b f5 59 8d 3c 8b ea 8f bc
       -0.038724255 0.0045349007 0.017254809 -0.017567893
000300 33 27 40 bd 7c b2 a8 3c d4 a6 07 bc 90 ff 9a 3c
       -0.046912383 0.02059292 -0.008279521 0.01892069
000310 0e ec af bc 9a 3e 0c 3c 88 8a bc bc d1 fe 83 3d
       -0.021474864 0.008559847 -0.023015276 0.06445087
000320 a1 c3 3b ba a9 dc 8d 3b 97 b0 7a bd 6c b9 a0 3c
       -0.0007162635 0.0043292833 -0.061203565 0.019619666
000330 b6 7a 3e 3d 37 57 84 3c 67 39 38 bd 5b eb 53 bd
       0.046503745 0.016154869 -0.04497662 -0.051738124
000340 a9 88 1d 3c 08 b7 85 bd 03 b0 df 3c ce db d4 3c
       0.009615102 -0.06529051 0.027305609 0.025983717
000350 9c d3 94 3d 00 93 ca 3c 83 2c 89 3c 24 71 5a bc
       0.07266924 0.024728298 0.016744858 -0.013332639
000360 df ff 50 3d 56 76 b9 3d 9c a5 47 bd b5 10 8a bc
       0.051025268 0.09055774 -0.04874192 -0.01685367
000370 59 eb c8 3c 0c 54 59 3b 54 c9 bf 3b 03 83 0b 3d
       0.024526285 0.0033161668 0.0058528576 0.03406049
000380 b0 16 25 3d e4 45 59 bd cf 87 bf 3c 15 e7 10 3c
       0.04030484 -0.05304517 0.023380188 0.008844157
000390 42 73 0f 3d 24 cb 43 bc 2a 2d be 3c 67 db 74 3c
       0.035022028 -0.011950288 0.023214895 0.014944888
0003a0 40 45 9d 3b 42 fd 16 3d 58 e5 c3 bc 24 63 6c bc
       0.004799515 0.03686262 -0.02391307 -0.014427934
0003b0 32 4b 34 bd 4c 57 21 3d ba 93 0c bc d9 b7 2f bd
       -0.044017024 0.039389893 -0.008580143 -0.04289994
0003c0 c1 43 09 3c d5 80 25 3d dd a9 d9 bb fc fe 79 3d
       0.00837797 0.040406067 -0.0066425637 0.061034188
0003d0 25 82 8f 3d 64 06 f9 bb 0f 61 65 39 8a e3 44 bd
       0.07007245 -0.007599639 0.00021875299 -0.04806856
0003e0 c0 63 c4 bc 94 6b 28 ba 5d 18 2a bd ff 5b 87 3c
       -0.023973346 -0.0006424722 -0.04152714 0.01652336
0003f0 a0 f4 86 3c 21 7d b7 3c 6c 60 0c 3d fd cf 17 3e
       0.016474068 0.022398533 0.034271643 0.14825435

encoder.LSTM.bias_hh_l0 f4 [280]
000000 3a 83 9e 3c 92 51 c4 3c 8f bf 88 3d dc cb dd 3c
       0.019349683 0.023964677 0.06677162 0.027074747
000010 47 90 56 3c 24 b1 4b bc 6f b7 25 3d 6a a1 c0 3d
       0.013095922 -0.01243237 0.04045814 0.09405787
000020 65 11 49 bd 9b df 6a bc f6 e5 7e 3c 47 c8 8b 3b
       -0.049088854 -0.014335538 0.015557757 0.0042658183
000030 2f 7a db 3b ab f1 1b 3d 2f d7 1c 3d 90 29 5b bd
       0.006697915 0.03807227 0.038291153 -0.053506434
000040 87 4a 82 3c 7b d6 2d 3c 48 46 2f 3d 63 5e 10 bc
       0.015904678 0.010610218 0.042791635 -0.008811566
000050 c5 95 d9 3c 7c 36 93 3c 84 26 53 37 50 c1 45 3d
       0.026560673 0.017970316 1.2585548e-05 0.04828006
000060 46 dc 9c bc ee 64 4b bc d2 08 36 bd b5 5b 2c 3d
       -0.019148003 -0.0124142 -0.044442005 0.042079646
000070 32 e3 3a bc 35 76 2c bd 8d d4 cc 3b 1f d4 0f 3d
       -0.011406707 -0.04210492 0.006250924 0.035114404
000080 45 91 d7 bb 7e a8 71 3d ae 18 9d 3d 92 80 03 bc
       -0.006578597 0.058998577 0.07670723 -0.008026259
000090 dc cf 1e bc ef 27 4a bd 68 b1 c7 bc c9 8f 28 3b
       -0.009693112 -0.04935449 -0.024376586 0.0025720468
0000a0 ba 7c 2a bd c2 06 7b 3c 20 b9 84 3c 71 9a 9e 3c
       -0.041622855 0.015321435 0.016201556 0.019360753
0000b0 9f 0b 19 3d 89 21 04 3e 70 a2 05 3d 18 72 9c bd
       0.0373646 0.12903418 0.032625616 -0.07638949
0000c0 5c 06 a5 3b 2e a3 86 bc be 1e d1 3c 22 4d 6c bb
       0.0050361585 -0.016435232 0.025527354 -0.0036056717
0000d0 9f 73 2b bd f6 af 8a 3c 32 de 23 3c 83 4b 25 3d
       -0.04185831 0.016929608 0.010001706 0.040355217
0000e0 5a 22 f2 bc 40 34 83 3b 90 12 af bc 4e 20 c9 3c
       -0.029557396 0.0040040314 -0.021371156 0.024551537
0000f0 42 a6 fc 3b 45 a4 1d 3d 2e 0d a4 3d 29 7e 06 3d
       0.007710249 0.038486738 0.08010326 0.03283516
000100 60 a7 32 3d 32 ba 9b 3c 04 da 48 3d d5 99 03 3e
       0.043616652 0.019009683 0.04903604 0.12851651
000110 f3 bf 55 3d 98 8a 5c 3d c3 7f c5 3c bd 55 44 3d
       0.05218501 0.05384311 0.024108773 0.04793333
000120 76 72 e2 3d 8c e3 0e 3d 4d 5e f6 3c 10 de 79 3c
       0.11056988 0.034884974 0.030074263 0.015250698
000130 00 7c 6e 3d f7 fc b7 3d e2 a2 b3 bc d5 7b d4 bb
       0.058223724 0.08983796 -0.021928255 -0.0064844885
000140 db 2f 59 3d fa 08 e9 3c 84 f1 0f 3d 31 7a 1a 3d
       0.053024154 0.028446663 0.035142437 0.037714187
000150 ed 59 49 3d b7 d6 6d bd 08 47 8c 3c af 50 8e 3c
       0.049158026 -0.058066096 0.017123714 0.017372457
000160 fd 55 76 3d 7e d3 05 3c 1c 96 ec 3c 69 91 c6 3c
       0.0601406 0.008168099 0.028880171 0.024239259
000170 85 b6 a0 3c 55 48 2c 3d 98 1d 91 bc 70 36 25 3b
       0.019618282 0.04206117 -0.017714307 0.002520945
000180 5a 57 2f bd 40 27 29 3d 9f ea 0d 3a f8 71 ae bc
       -0.042807914 0.041297197 0.00054136844 -0.021294579
000190 ed a3 73 3c a0 8e 2d 3d 7f d1 0f 3b 67 c5 58 3d
       0.014870626 0.042372346 0.0021944938 0.052922633
0001a0 be fa 90 3d ba 69 ec 3b bf 3b 78 3c 0d 38 26 bd
       0.07079075 0.007214752 0.015150963 -0.040580798
0001b0 8f 87 b1 bc f5 dc da 3c 1f 6d fb 3b 11 6d 72 3c
       -0.021671085 0.026716689 0.0076729204 0.014796511
0001c0 48 69 c3 3b a9 e4 dd 3c fd 48 13 3d 2c 7d f1 3d
       0.0059634782 0.027086573 0.03595828 0.11791453
0001d0 20 cd 7b 3c c7 4a 89 bd 6f 9e c9 3b d9 8b d2 3b
       0.01536873 -0.06703716 0.00615292 0.0064253625
0001e0 59 6b 23 3d e0 35 0c bc 61 d3 68 bd 03 66 d0 3c
       0.039897297 -0.008557767 -0.05684221 0.025439268
0001f0 0c fc 3d 3c 3d 11 ef 3c c6 21 8d bc ca 47 e1 3c
       0.011595737 0.029183025 -0.017228018 0.027500052
000200 dd d5 a2 bc 99 ee c4 3c b0 85 cb 3c 67 c3 3b 3d
       -0.019877369 0.024039553 0.02484402 0.045840647
000210 e5 5e c8 3d c0 30 a9 3c bb 17 66 3d dc 90 72 3c
       0.09783725 0.020653129 0.056174975 0.014805045
000220 55 77 87 3d 09 11 b6 3d 3b 41 18 3d aa fd 32 3d
       0.06614558 0.08889968 0.037171584 0.043698944
000230 46 fe a4 3b 6f 65 4f b9 1c 86 90 3d 82 67 1b bd
       0.0050351946 -0.00019778845 0.07056829 -0.03794051
000240 56 c4 09 3a 63 c6 e2 3c 64 fe 75 3d 15 3e 77 3d
       0.00052553916 0.027682489 0.06005706 0.06036194
000250 9d 38 ec bc 4f ba 52 3c 66 39 c6 3c 81 e3 83 3b
       -0.028835589 0.012861802 0.024197292 0.0040249233
000260 90 d1 20 bc ac a1 a2 bc 00 66 bd 3c e4 19 52 3c
       -0.009815589 -0.019852482 0.023119926 0.012823556
000270 a5 aa 02 bc 7d db 85 38 1d a0 d0 bc cb d6 5f 3c
       -0.007975255 6.382817e-05 -0.025466973 0.0136620505
000280 d3 79 a9 bc 3b e0 0c 3c 58 9d 99 bc 1d 86 84 3d
       -0.020687973 0.008598383 -0.018751785 0.064708926
000290 f9 27 b1 3c 4b 6c 03 bc 00 ac 35 bb ec 9e 0d 3d
       0.021625506 -0.0080214245 -0.0027720928 0.034575388
0002a0 79 9d 38 3c be ce 48 bc 10 d2 1c bc e6 17 e3 bc
       0.011268013 -0.012256322 -0.009571567 -0.027721357
0002b0 b6 ef 14 bd 12 6a 87 bd d9 7c 87 3c ff c1 68 3d
       -0.03636142 -0.06612028 0.016539024 0.056825634
0002c0 5c 4d e5 bc 29 d6 47 bc b7 0a 86 bc cb df 56 3c
       -0.02799099 -0.012197056 -0.016362531 0.01311488
0002d0 07 a1 24 3c 25 cc 86 bc 73 c3 f9 3c c8 66 f6 3b
       0.010048158 -0.016454766 0.030488705 0.0075195767
0002e0 cb 1b 9a 3b e7 d7 00 3c fb 95 f0 bb a1 82 a1 bc
       0.00470302 0.007863975 -0.007342098 -0.019715609
0002f0 53 9d 1e bd 81 99 94 3b f5 59 8d 3c 8b ea 8f bc
       -0.038724255 0.0045349007 0.017254809 -0.017567893
000300 33 27 40 bd 7c b2 a8 3c d4 a6 07 bc 90 ff 9a 3c
       -0.046912383 0.02059292 -0.008279521 0.01892069
000310 0e ec af bc 9a 3e 0c 3c 88 8a bc bc d1 fe 83 3d
       -0.021474864 0.008559847 -0.023015276 0.06445087
000320 a1 c3 3b ba a9 dc 8d 3b 97 b0 7a bd 6c b9 a0 3c
       -0.0007162635 0.0043292833 -0.061203565 0.019619666
000330 b6 7a 3e 3d 37 57 84 3c 67 39 38 bd 5b eb 53 bd
       0.046503745 0.016154869 -0.04497662 -0.051738124
000340 a9 88 1d 3c 08 b7 85 bd 03 b0 df 3c ce db d4 3c
       0.009615102 -0.06529051 0.027305609 0.025983717
000350 9c d3 94 3d 00 93 ca 3c 83 2c 89 3c 24 71 5a bc
       0.07266924 0.024728298 0.016744858 -0.013332639
000360 df ff 50 3d 56 76 b9 3d 9c a5 47 bd b5 10 8a bc
       0.051025268 0.09055774 -0.04874192 -0.01685367
000370 59 eb c8 3c 0c 54 59 3b 54 c9 bf 3b 03 83 0b 3d
       0.024526285 0.0033161668 0.0058528576 0.03406049
000380 b0 16 25 3d e4 45 59 bd cf 87 bf 3c 15 e7 10 3c
       0.04030484 -0.05304517 0.023380188 0.008844157
000390 42 73 0f 3d 24 cb 43 bc 2a 2d be 3c 67 db 74 3c
       0.035022028 -0.011950288 0.023214895 0.014944888
0003a0 40 45 9d 3b 42 fd 16 3d 58 e5 c3 bc 24 63 6c bc
       0.004799515 0.03686262 -0.02391307 -0.014427934
0003b0 32 4b 34 bd 4c 57 21 3d ba 93 0c bc d9 b7 2f bd
       -0.044017024 0.039389893 -0.008580143 -0.04289994
0003c0 c1 43 09 3c d5 80 25 3d dd a9 d9 bb fc fe 79 3d
       0.00837797 0.040406067 -0.0066425637 0.061034188
0003d0 25 82 8f 3d 64 06 f9 bb 0f 61 65 39 8a e3 44 bd
       0.07007245 -0.007599639 0.00021875299 -0.04806856
0003e0 c0 63 c4 bc 94 6b 28 ba 5d 18 2a bd ff 5b 87 3c
       -0.023973346 -0.0006424722 -0.04152714 0.01652336
0003f0 a0 f4 86 3c 21 7d b7 3c 6c 60 0c 3d fd cf 17 3e
       0.016474068 0.022398533 0.034271643 0.14825435

encoder.fc1.weight f4 [3, 70]
000000 a7 79 89 3c 65 21 49 3e 43 e7 b6 3e b6 24 92 be
       0.016781641 0.19641645 0.35723314 -0.28543633
000010 c0 2b b4 3e 38 10 72 3e d1 56 14 be 71 5b 6c be
       0.3518963 0.23639 -0.14486243 -0.23081757
000020 94 93 0a bd de 84 19 3c 72 b8 5c 3e be 8e 7e 3e
       -0.033832148 0.009370057 0.21554735 0.2485914
000030 d5 40 4c be 45 1e 3e 3d 18 98 3f 3e fc 09 df bd
       -0.19946606 0.046415586 0.18710363 -0.10890576
000040 fe 76 2b be 8a ff 40 3d ab 0f 86 bc 52 b6 dc bd
       -0.1674461 0.0471187 -0.016364893 -0.10776962
000050 1a 32 76 be e8 fb ec bd a4 a7 46 3e 8d a5 8d 3e
       -0.2404255 -0.11571485 0.19399887 0.27665368
000060 37 05 a3 3d fd 2b e1 3d 14 ad 18 3e 4c f2 89 3e
       0.07959979 0.10994718 0.14909774 0.2694267
000070 2c 7f a6 3a 6d 08 2e 3d 06 51 8a be c5 a5 97 be
       0.0012702695 0.042488504 -0.2701494 -0.2961866
000080 36 d9 9d 3e 98 2f a5 3e c5 a8 a9 be bd d8 0d bd
       0.3082978 0.32262874 -0.33136573 -0.034630526
000090 79 d1 42 3e 34 09 8b 3d f8 ea 86 be 58 a8 75 3e
       0.1902522 0.06788865 -0.26351142 0.2399
0000a0 93 af 3b be a3 33 ce 3e 82 88 d2 bd 60 28 2e be
       -0.18328695 0.4027377 -0.10279943 -0.1700759
0000b0 5f c6 c5 3e eb d0 9f be f6 aa ab 3e 06 7f c6 bd
       0.38627908 -0.3121408 0.3352887 -0.096921965
0000c0 98 a4 2f be 06 64 28 be c9 9c 40 3d 87 f3 1e 3e
       -0.17152631 -0.16444406 0.047024522 0.15522586
0000d0 2b b4 95 be 2e 69 b7 bd 3e 09 90 be 44 46 f5 bd
       -0.2923902 -0.08955608 -0.2813205 -0.11976293
0000e0 7d a1 95 bc ec 03 39 3e bd 4c ca 3d 9f 28 7a 3e
       -0.01826548 0.18067902 0.09877918 0.24429558
0000f0 fa 2b e0 bd 4a 8a 45 be 88 bf 1d 3e 86 2b c8 3d
       -0.10945888 -0.19291034 0.15405095 0.097739264
000100 c8 70 be 3d d9 c3 ab 3e b5 e9 80 3e 90 8b 2c bf
       0.09298855 0.33547857 0.25178304 -0.67400455
000110 f3 27 9c 3d 82 be 4c 3e 77 78 8a be ac c5 e3 3e
       0.07624807 0.19994548 -0.27045032 0.4448675
000120 74 b2 0f ba 02 de f4 bd d8 0f 0a be 45 e6 04 3e
       -0.00054816087 -0.11956407 -0.13482606 0.12978466
000130 c0 43 a4 bc 36 06 41 be e4 87 c1 3c 29 e8 ba 3b
       -0.020051837 -0.18850026 0.023624368 0.005703945
000140 7f 0c 83 be 48 1e 21 be 88 88 cf bd b9 29 77 bd
       -0.2559547 -0.15734208 -0.10133463 -0.060342524
000150 26 6a 81 be 72 71 5c 3e 25 08 ec bc 73 5c 62 bd
       -0.25276297 0.21527651 -0.028812477 -0.055263948
000160 cd 58 36 be 13 e0 7d bd 24 04 ae bd 18 ec 82 be
       -0.17807312 -0.061981272 -0.084968835 -0.2557075
000170 81 51 4c 3e 51 76 5d be 9d 20 25 be 3c 90 6b 3d
       0.19952966 -0.21627165 -0.16125722 0.0575106
000180 fd f5 73 bd 34 c4 a2 be 89 1d 81 bb 4a 79 71 3e
       -0.059560765 -0.31790316 -0.0039402884 0.23581424
000190 58 dd e8 3d ab ce 47 be 1a 75 55 be 57 ec 54 bd
       0.11370343 -0.19512431 -0.20845452 -0.051983204
0001a0 bc d7 03 be 36 5b 2f 3e 5b d4 d5 bd ad 6c 99 be
       -0.12875265 0.17124638 -0.10440894 -0.29965726
0001b0 4d c7 05 3e ba f3 c8 3b 2f ca 31 be 33 8f db 3d
       0.13064308 0.00613257 -0.17362283 0.107206725
0001c0 49 b6 8b 3e 7a d0 c4 bb 8c d2 88 be 6f 09 51 bd
       0.2728751 -0.0060062977 -0.26723135 -0.051034387
0001d0 9c 76 91 3d 03 20 f0 bd 64 42 9c 3e de 1e 30 3e
       0.07102701 -0.11724856 0.30519402 0.17199275
0001e0 72 25 93 be 25 a4 2d 3e 6f 77 b3 be c8 95 0a 3d
       -0.28739506 0.16957147 -0.35052058 0.03383425
0001f0 fc 0e 58 3e 4e 2b e5 bd 6a 23 a2 bd 2c 83 86 be
       0.21099466 -0.111899 -0.07916911 -0.2627195
000200 6a 8b e6 3d 3d c1 54 be 6b d4 70 bd b9 ce 8d 3d
       0.1125706 -0.2077684 -0.058796328 0.06924195
000210 23 46 03 bd 39 b7 bb be 38 08 a3 3c 65 e9 ab bd
       -0.03204931 -0.36663225 0.01990138 -0.08394126
000220 27 ce 20 be 36 84 52 be d9 63 82 be b4 46 3e be
       -0.15703641 -0.20558247 -0.25466803 -0.18581659
000230 83 96 45 3e d6 20 2a bf 73 4f 80 3e 9c 02 78 be
       0.19295697 -0.66456354 0.25060615 -0.24219745
000240 af 08 74 3e e7 8e 30 3e f8 09 49 3e 8b 23 4e 3d
       0.23831438 0.17242013 0.19632709 0.050326865
000250 f9 98 37 3e dd 8e 55 3e 68 1f 10 3e c9 e0 72 3e
       0.17929448 0.2085528 0.1407448 0.23718561
000260 b2 fe 98 be 66 8b 43 3e dd e5 f3 3e 99 2c 56 3e
       -0.29881817 0.19096145 0.4763631 0.2091545
000270 c7 a6 43 be 46 e6 f1 bd 98 dd 10 3f ea d0 96 be
       -0.1910659 -0.11811499 0.56588125 -0.29456264
000280 dc aa 42 be 05 b7 2d be 6c 20 9e be e0 34 7e 3e
       -0.1901049 -0.16964348 -0.3088411 0.24824858
000290 f6 d6 4d be b9 a0 a1 be d3 24 5a 3d a1 42 f7 3e
       -0.20101532 -0.31567934 0.053257775 0.4829302
0002a0 09 3d 2b 3e ef 45 80 be b4 fb e2 bd 45 90 98 be
       0.16722502 -0.25053355 -0.11083165 -0.2979757
0002b0 8c 7f 52 bd ac a5 4b 3e ee 76 11 bf 52 a5 5f 3e
       -0.05139117 0.19887418 -0.568221 0.21840408
0002c0 a9 19 73 3e 63 26 b2 3e 6e 93 0f 3d 8c 47 3c be
       0.23740257 0.34794912 0.03505271 -0.18386668
0002d0 e2 7e 03 bd e3 6b 46 be c6 44 f8 3d ca 5b 49 bc
       -0.032103427 -0.19377093 0.121224925 -0.012289951
0002e0 9f a5 84 bd 04 e9 1c 3e a0 dd 6d be 7c 43 0d 3e
       -0.06476902 0.15323263 -0.23229074 0.13795274
0002f0 93 a5 26 be 46 dc c1 3d 3c ca 11 be c8 48 93 be
       -0.16274099 0.09465842 -0.14237303 -0.28766465
000300 c1 78 96 be b2 75 6b 3e ff 7e 65 be 07 92 40 3e
       -0.29389003 0.22994116 -0.22411726 0.18805705
000310 67 58 a1 be 06 c7 a9 3d 2a bd 08 be 84 b9 58 3e
       -0.31512758 0.08289914 -0.1335341 0.21164519
000320 9c f2 b1 bd 00 57 28 be 05 02 bd 3e e9 c8 06 be
       -0.08688852 -0.16439438 0.36915603 -0.13162579
000330 d9 fb 21 bd e4 53 a5 3d e1 00 a7 be 2d 50 ed be
       -0.03954682 0.080726415 -0.32617858 -0.46350232
000340 2e f4 40 be cd 1d 8f be
       -0.18843147 -0.27952424

encoder.fc1.bias f4 [3]
000000 b4 ce 06 3c e2 e5 1f 3c f4 05 bb 3c
       0.008227993 0.009759398 0.022829987

decoder.LSTM.weight_ih_l0 f4 [280, 3]
000000 75 70 e5 bd 98 29 de bd 9a 1b 4f bd 99 57 0a 3e
       -0.1120309 -0.10847777 -0.050563432 0.13509978
000010 ff 16 30 3e ba 25 7f bd 03 8b b2 3d 0c f3 84 be
       0.17196272 -0.06229184 0.08717921 -0.2596668
000020 ff e8 88 bd 27 24 55 bd fc 3a 8b 3d db 2a df be
       -0.066850655 -0.05203643 0.0679836 -0.43587384
000030 8a 36 cb be 1e 47 4e 3e c6 08 ea bd 34 64 83 3d
       -0.39690048 0.20144317 -0.11427455 0.064155966
000040 9a 91 bf bd b9 e3 c8 bd 5d 77 52 bc 67 92 57 3c
       -0.09353943 -0.0980906 -0.012845841 0.013157464
000050 39 e3 d9 3d c6 7f b7 bc 44 32 c1 bc 92 8b 08 be
       0.106390424 -0.022399794 -0.023583539 -0.13334492
000060 99 f4 90 bd 32 a5 cf 3d 97 e1 76 bd b4 93 4d 3c
       -0.07077903 0.101389304 -0.060273733 0.012547422
000070 aa bd e8 3d a8 c3 dd bd b7 b6 af bd cb a3 b1 bd
       0.113643005 -0.10828334 -0.08579772 -0.08673819
000080 29 70 17 3c 1a 3d fa bd 8e e2 12 be 67 53 46 3e
       0.00924305 -0.122186854 -0.14344236 0.19367753
000090 68 90 5e bd c5 a7 5c bc b0 4b 16 3c ca 63 c6 3c
       -0.054336935 -0.013467734 0.009173319 0.024217505
0000a0 fb 7c e0 bd cd 60 91 bd eb 26 88 3d 01 fc 0a be
       -0.10961338 -0.070985414 0.06648048 -0.13572694
0000b0 b5 62 f5 3d e8 b0 00 bc 69 14 d5 3d f2 e3 6c be
       0.119817175 -0.007854678 0.104042836 -0.23133829
0000c0 e1 2b 21 be ff 68 f2 3c e9 90 32 bd 42 8d 05 be
       -0.15739395 0.029591082 -0.04359523 -0.13042167
0000d0 86 73 8b bd 3a 73 23 3e 87 42 9f 3d 23 78 9c bc
       -0.06809144 0.15961924 0.07776361 -0.019100254
0000e0 fd 2f a7 3d e6 a3 07 be cc 5d a2 bc 59 5e 50 3d
       0.0816345 -0.13246116 -0.019820116 0.050871227
0000f0 50 6f 29 be 6a 86 3e bd 94 86 be 3d d4 ac 0a be
       -0.16546369 -0.046514906 0.093030125 -0.13542491
000100 96 33 2c bd 8e 42 09 3e 69 72 22 3d 29 98 cf 3d
       -0.042041384 0.13404295 0.03965989 0.10136444
000110 50 03 5f bd 97 b1 07 3e fd 06 22 bd dd 1d 39 be
       -0.05444652 0.13251339 -0.039557446 -0.18077798
000120 84 fd 88 3e 5f f8 00 bf 12 2b 21 3e f4 88 d4 3d
       0.26755917 -0.50378984 0.15739086 0.10377684
000130 bb 04 a5 bd 00 b7 a6 3e 0d 63 8d bd 3e 6b db bc
       -0.08057543 0.32561493 -0.06903658 -0.026784535
000140 ef ba c3 bc 22 fa ea 3c b6 4d 11 bd d4 aa 60 3c
       -0.023892848 0.028683726 -0.0354745 0.013712604
000150 6a 96 ca 3c 0d ac 5f bd 17 1c 14 3e 14 0c 91 be
       0.024729926 -0.05460744 0.1446384 -0.28329527
000160 85 db 25 be f9 4b d9 3d 6d 11 b6 bd 89 20 f3 bd
       -0.16197021 0.10610194 -0.088900425 -0.1187144
000170 29 14 c2 3d 4e 30 b1 3d 8f 52 67 3c 61 94 38 3e
       0.094765015 0.086517915 0.014118805 0.18025352
000180 04 05 af bc 7c dc d9 3d 2c 2c 7c bb 73 dc cd 3b
       -0.021364696 0.10637757 -0.0038478477 0.006282383
000190 0e 6d 86 bd 00 5b 23 3e c4 16 c9 3d af ba 8f bd
       -0.06563769 0.15952682 0.09818795 -0.07018029
0001a0 43 32 73 3c 60 17 fa bd 3f de be 3d 73 11 8b bd
       0.014843526 -0.1221149 0.09319734 -0.067904375
0001b0 04 4b a7 3c b3 86 02 3b 2e 09 75 bd 3e 34 9a 3d
       0.020421512 0.0019916713 -0.059823208 0.07529496
0001c0 c3 78 87 3b 05 32 51 3d 0c 29 35 3d 81 95 18 bd
       0.004134269 0.051073093 0.0442286 -0.037251953
0001d0 85 69 b4 3d 9c 9b 7e bc 32 7f 1a bd 2b d3 a9 bd
       0.08809189 -0.01554003 -0.03771896 -0.0829223
0001e0 ca 91 17 3d d6 2b 73 3d f4 9f 08 bc ec c1 50 bd
       0.03700427 0.059367977 -0.008338917 -0.05096619
0001f0 6a a4 25 3e 49 7c 85 3d 43 f4 71 be a7 5a 83 3c
       0.16176 0.06517846 -0.23628335 0.016034437
000200 5e 3f 12 3e 75 34 cc bd 8f 57 8f 3d b4 0b 2f 3e
       0.14281985 -0.09970943 0.06999122 0.17094308
000210 57 fe 2b be 20 bd cd 3d fe 7c 4c 3d 60 4f bc 3d
       -0.16796242 0.10045838 0.04992389 0.09194827
000220 b7 2c f6 3d 74 12 56 3d ca 64 e4 3d 34 eb 03 bc
       0.120202474 0.052263692 0.111520365 -0.008051682
000230 a8 96 31 bd 22 36 7d 3d 0f 86 4a 3d 41 99 c9 3b
       -0.043356568 0.061819203 0.049444254 0.0061523025
000240 6d 46 c2 3d 0a 2d c8 3e 4e 26 15 be b1 29 25 3c
       0.09486089 0.39096862 -0.14565393 0.010080741
000250 21 09 86 bd de 14 c6 3c fb 9c 21 3e d3 88 f0 bd
       -0.0654471 0.024179872 0.1578254 -0.11744847
000260 8b ad 7c 3c d8 17 9b bb 65 4a a1 bd 0f 4e 6b bd
       0.015422235 -0.004733067 -0.07875518 -0.05744749
000270 3a 54 be 3d 4f 41 28 be 93 da 99 3e ab 00 27 3d
       0.09293409 -0.16431163 0.3004957 0.04077212
000280 55 1c df bc ef 6e b8 3c 6e 63 e9 bd dc c2 0c 3e
       -0.02723519 0.022513835 -0.11395918 0.13746208
000290 f9 42 2b bc a9 e7 15 be 70 c4 19 3c 91 21 12 3d
       -0.010452979 -0.14639153 0.009385213 0.035676543
0002a0 34 d0 a6 3d da 16 83 3d 4c 8f ee 3d 11 3b 83 bd
       0.0814518 0.06400843 0.116484255 -0.064077504
0002b0 85 86 21 be 06 97 e7 bd 2b 92 14 bd 02 a1 2f 3e
       -0.15773971 -0.11308102 -0.03627221 0.17151263
0002c0 78 0e e3 3d 42 94 c9 bb 72 f7 81 3c 4e 1f e7 bd
       0.11086744 -0.006151707 0.015865061 -0.11285268
0002d0 34 a3 26 bc 2e 69 e9 bd bc bd ae 3d 83 3d 95 bc
       -0.010170747 -0.113970146 0.08532283 -0.018217808
0002e0 d0 cc 9d bd 86 21 48 3e cf 3c a2 3d e9 bb 36 be
       -0.077050805 0.19544038 0.079217546 -0.1784512
0002f0 fd 8d 42 bd 5b c1 0c be 01 7f 5f 3d 89 71 bf 3d
       -0.04749869 -0.13745634 0.05456448 0.09347827
000300 23 16 57 be 61 e5 3b 3e de 34 7b be 68 11 83 3a
       -0.21004538 0.1834922 -0.24531886 0.0009999694
000310 95 c8 ac 3c 11 d6 8c bc 76 25 8b be 9f d3 a3 3e
       0.021091739 -0.017191919 -0.27177018 0.31997392
000320 be 51 58 bd 0c b3 f5 bd 79 c5 98 bc a8 3d 71 bd
       -0.05281233 -0.11997041 -0.01864885 -0.05889669
000330 47 1b cd 3d 3d 4f 0d be 3c 56 9f bd 5b a2 ac bd
       0.10014968 -0.13799758 -0.0778012 -0.08429404
000340 3b 60 ac 3d e6 47 ed 3d 3d 2a 16 be b9 0b a4 3d
       0.08416792 0.11585979 -0.1466455 0.080100484
000350 db bd 41 3d 3a c0 a4 3d 99 e7 0d 3e 71 fe 61 be
       0.0473002 0.08044477 0.13857879 -0.22069718
000360 da 98 9e 3e 03 35 4a be 79 a5 e8 bc f4 e1 6d bd
       0.3097599 -0.19746785 -0.028399216 -0.058076814
000370 29 a2 4e 3d 7b b7 88 be 29 ae 27 bf 86 31 96 3d
       0.050447617 -0.26702484 -0.6550012 0.073336646
000380 5c e9 0a bf 48 c3 d4 bd 61 38 00 be c1 99 88 3e
       -0.5426233 -0.103888094 -0.12521507 0.26679805
000390 09 8d 94 bd db d7 26 3e cd a4 f4 3d 93 b2 f3 ba
       -0.07253463 0.1629328 0.11945496 -0.0018592648
0003a0 cb a5 1a 3e e8 6c f7 bc b6 81 a2 3c e2 2b 62 bc
       0.15102307 -0.030203298 0.019837242 -0.013804408
0003b0 6a f0 f7 bd 4f d0 0a be da 78 59 3d 53 16 de bd
       -0.12106402 -0.13556026 0.05309377 -0.10844102
0003c0 ff ed 9f bc b8 09 00 be ad 86 d6 bd 9f 8f 26 bd
       -0.019522665 -0.12503707 -0.10474906 -0.04066431
0003d0 57 05 a7 3d 67 34 53 bd 54 6a c7 bd 44 0c 1e 3e
       0.08155315 -0.051563647 -0.09737077 0.15434366
0003e0 a2 23 b4 bd 32 1d 93 3c f0 21 f7 bd 4e 1b 94 bc
       -0.08795859 0.017958257 -0.1206702 -0.018079426
0003f0 6f 01 ac bd e7 7d 81 3c 73 c2 0d 3e dc cc af bc
       -0.08398711 0.015807105 0.13843708 -0.02145999

decoder.LSTM.weight_hh_l0 f4 [280, 70]
000000 c4 7f 8b 3c e5 c0 76 3a 26 a4 2d 3d a6 47 0a be
       0.017028697 0.0009412899 0.042392872 -0.13503894
000010 46 1a 11 3e 43 45 cb 3d df a3 b7 bb a5 27 d6 3d
       0.14170179 0.0992532 -0.0056042518 0.1045678
000020 86 91 9e 3d d5 04 8b 3d 41 3d 70 3d 02 d8 dd 3c
       0.077426 0.06788031 0.058652166 0.02708054
000030 c8 8b e4 3c ca 92 13 3d 00 a1 4a 3d e9 fb 0b be
       0.027898684 0.03602866 0.049469948 -0.13670315
000040 6f f7 84 bd 45 d6 77 bc 2c 91 d7 3d 81 a5 b3 bc
       -0.06492507 -0.015126769 0.10525736 -0.021929504
000050 4b b7 cf 3d 4f 6d 94 3c 5c d9 98 bd f8 dd 41 be
       0.10142382 0.018118529 -0.07463333 -0.1893233
000060 b0 44 94 3c 67 90 52 3d 1a 7c bd bd fb 46 c4 bd
       0.018099159 0.051407244 -0.09252186 -0.09583851
000070 58 bf ae bd 03 6d 94 bd 12 11 30 bd 60 1d 15 3c
       -0.0853259 -0.07247355 -0.04298503 0.009101242
000080 59 ef 83 3d 5e 39 e9 bd 1f 66 8b bd 97 54 99 3d
       0.06442136 -0.11387895 -0.068065874 0.07486837
000090 fc 9c 66 bd ef 13 f0 3d ba 44 98 bc 34 4e 58 3d
       -0.056302056 0.11722552 -0.018587459 0.052808955
0000a0 fb 60 a0 3d 94 39 28 be 67 5e 8f bd 0f bb e4 bd
       0.078309976 -0.16428214 -0.07000428 -0.11168491
0000b0 29 ad bf bc 46 58 03 3d 92 08 4f 3d cf 8d 61 bd
       -0.023397999 0.032066606 0.050545283 -0.05506688
0000c0 f2 7d 16 3e e2 da 05 be 7e 63 5e bd ae 24 0a be
       0.14696482 -0.13071778 -0.054294102 -0.13490555
0000d0 06 e9 7f bd 94 3f 90 3d 9f 81 a9 bc b9 07 07 be
       -0.062478088 0.070433766 -0.020691691 -0.1318654
0000e0 bc 43 d5 bd 8a 6f 1f bd 2d b5 e7 bd 79 09 39 be
       -0.1041331 -0.03892473 -0.113138534 -0.1807002
0000f0 73 d8 73 bb 16 16 5a bd 3c 66 0e 3d 02 7f 87 3d
       -0.0037207871 -0.05324372 0.034765467 0.06616022
000100 c3 cc 85 3d ef 8a 00 3e 33 41 0f bd 59 20 15 3d
       0.06533196 0.12552999 -0.03497429 0.036407802
000110 56 9e d0 bd c2 0a dd bb 78 a7 fe 3d c8 7b 2a be
       -0.1018645 -0.006745667 0.12434286 -0.16648781
000120 f1 e2 01 bd 01 6c 28 3e 63 9f d5 3d 3b 5c a8 bd
       -0.03171057 0.1644745 0.10430791 -0.082207166
000130 e1 d5 9d 3d 0e 43 16 be 92 cd 9b bd 7d 03 ba 3d
       0.0770681 -0.14674017 -0.07607569 0.090826966
000140 50 c6 1a be d7 9d de 3c 92 1d 7d bd ff 0c e6 3c
       -0.15114713 0.027174873 -0.06179578 0.028082369
000150 08 0f 18 39 0d 0c 9d 3c 4c 00 1e bd 40 31 3a bd
       0.00014501449 0.019170785 -0.038574502 -0.045457125
000160 9b 6e 29 be 34 73 79 bd 23 f9 b3 bd d3 c0 6c 3d
       -0.16546099 -0.060900882 -0.087877534 0.05780108
000170 11 1d f5 bb 8b 1c 4f bd 71 3a 86 3d 74 1a 1a 3d
       -0.0074802716 -0.05056433 0.065541156 0.037622884
000180 78 17 93 3d 00 25 22 bd cc 42 e7 3d 4a 24 6e 3d
       0.07182211 -0.039586067 0.11292037 0.058140077
000190 d8 dc fd 3b 7b 8b da 3c fc ae de bd 57 96 cb bd
       0.007747274 0.026677838 -0.10873219 -0.099407844
0001a0 8d 0e 02 be c5 6e b6 bb 0f 57 9d bb f1 cc 8c bd
       -0.12700863 -0.005567404 -0.004801638 -0.06875027
0001b0 cd a7 3b be fc d4 7f bd 23 60 80 3c 2a 8c 0c be
       -0.1832573 -0.062458977 0.015670842 -0.13725343
0001c0 b2 45 4b bd 82 30 5d bd bd f8 8d 3d 13 d8 a3 3c
       -0.049627014 -0.05400134 0.06932209 0.020000493
0001d0 47 01 d4 bd 67 e6 89 bd 81 8e 14 bd c7 42 ab 3b
       -0.10351806 -0.06733399 -0.036268715 0.0052264663
0001e0 8d 09 71 3d a5 bd 09 3d c5 8c bf bd 56 85 77 bd
       0.058847 0.033628125 -0.093530215 -0.060429893
0001f0 fc 7a 20 be 54 b8 26 3c fc c8 db bc 09 3d 3f bc
       -0.15671915 0.010175783 -0.026829235 -0.011672267
000200 70 46 8c 3d e5 17 8c 3d 98 35 14 be 51 71 be bd
       0.068493724 0.06840495 -0.1447357 -0.09298957
000210 42 45 ee bd d9 20 28 3e 7a 81 e0 3d 59 3d 1e 3d
       -0.11634304 0.1641878 0.10962196 0.038632724
000220 51 4b 0f 3d 26 30 8e 3b ad e1 c1 bd b0 22 63 bd
       0.034983937 0.004339236 -0.09466872 -0.055453002
000230 11 c2 be bd 0a fd 13 3d bf 62 29 bd ec 16 ee 3d
       -0.09314359 0.03612999 -0.041353937 0.11625466
000240 d7 52 a1 bd 88 84 5d 3d 46 13 d3 3c 24 d8 22 bd
       -0.078771286 0.05408147 0.025766026 -0.03975691
000250 c9 2a f3 bd a8 57 6a 3d 11 8a eb bd 5f 46 ed bd
       -0.11873395 0.0572125 -0.115009435 -0.11585688
000260 28 7f ba 3d 38 94 d1 bc bf 3f 2f be ad 2a 82 3d
       0.091062844 -0.025583372 -0.17114161 0.06355796
000270 3a cf 86 bc 95 01 16 be 66 10 c6 bd e7 3b 21 3b
       -0.016456235 -0.14649041 -0.096710965 0.0024602355
000280 ab f5 20 be 63 86 1c be 10 d1 cd bc e9 74 02 3e
       -0.15718715 -0.1528564 -0.025124103 0.1273991
000290 21 ea cd 3c 49 67 d0 bd ac 0d 39 bd 40 92 d4 bd
       0.025136055 -0.1017595 -0.045179054 -0.103794575
0002a0 52 14 cc 3d 57 b7 d8 bd 28 4b ec bd b8 67 41 3e
       0.09964813 -0.10581844 -0.115377724 0.18887222
0002b0 23 0c e5 3d c3 dc 47 bd a1 ee e0 bc 09 80 6a bb
       0.111839555 -0.04879452 -0.027457537 -0.0035781881
0002c0 d5 c7 91 3d 1b d3 d5 3d f6 23 e5 3c 4b db e3 bb
       0.07118193 0.10440656 0.02797125 -0.006953632
0002d0 5e d7 b7 3d b7 f4 9a bd 68 66 d7 bd 85 91 7e 3d
       0.08976625 -0.07566207 -0.10517579 0.062150497
0002e0 19 d5 7b 3d 2e a9 e6 3b 71 72 8f 3c 93 e5 28 3c
       0.061482523 0.0070392108 0.017510625 0.010308641
0002f0 45 47 78 3d 2e 3b 63 bc d7 c8 f3 3c d7 77 79 3d
       0.060614843 -0.01386909 0.029758854 0.060905304
000300 a4 cf c9 bc a1 4e 9d bd f2 24 ca bd af 8f d9 3b
       -0.024635144 -0.07681013 -0.09870328 0.006639443
000310 c5 82 38 bd 07 e0 68 bc 50 41 c2 bd c3 df 01 3d
       -0.045046587 -0.0142135685 -0.094851136 0.031707536
000320 c2 b4 37 be 48 bb d4 3c ec 07 c7 3d 2e 58 8a 3e
       -0.17940047 0.025968209 0.09718308 0.270204
000330 56 31 fb 3d e6 88 80 bc a2 75 c5 bb d3 dd d1 3d
       0.122652695 -0.015690278 -0.006025986 0.10247388
000340 5d 20 95 3d 99 0d d5 3c 4c 97 78 3d a7 89 02 3d
       0.072815634 0.02600746 0.060691163 0.031869557
000350 ae 80 7a 3c 30 ce 06 3d 8d b4 4a 3d 51 d1 66 3d
       0.015289469 0.03291148 0.049488593 0.056351963
000360 6a 52 86 3c a5 84 d4 bd 59 0a 10 bd ad e9 98 bd
       0.01639672 -0.103768624 -0.03516612 -0.07466445
000370 aa 45 cd 3c d9 be 8a bd da d9 c1 3d a9 a6 dc 3d
       0.025057632 -0.067746826 0.0946538 0.107739754
000380 74 5b 2a bd a7 f3 da bd f7 16 8a 3d 63 85 13 3e
       -0.041591123 -0.10691004 0.067426614 0.14406352
000390 23 5f ba bd 05 ff 6d bd 9b d5 a3 3d 0b 41 e6 bc
       -0.09100177 -0.058104534 0.079997264 -0.028107187
0003a0 60 91 d7 bc d3 16 e8 3d e2 4a 31 3d 63 f2 bd 3d
       -0.026314437 0.113324784 0.043284304 0.09274747
0003b0 5b 8e 9c 3c 8a 3d e9 bd fc 34 c5 3d 66 b4 c3 bd
       0.01911085 -0.11388691 0.096292466 -0.09555893
0003c0 b2 4b 11 bd ec b5 18 bd 9b ef 9f bc 03 bb ac 3d
       -0.03547258 -0.03728287 -0.019523432 0.08434107
0003d0 f3 67 f9 bd eb f2 8e 3d b7 a8 38 3d 28 15 d0 bc
       -0.1217803 0.06979927 0.045082774 -0.025400713
0003e0 3e 69 06 3e 49 0c 89 bd 15 f0 86 bb 6e 62 73 3d
       0.13126084 -0.06691796 -0.0041179755 0.05942004
0003f0 fb e4 66 3d 1f c4 5c 3c 5c 93 c0 bd e5 a2 b5 3d
       0.056370717 0.013474493 -0.094031066 0.0886896
