Weights/model_LSTM_Tempo_Temperature_interpol_latest.pth.tar (torch, 607942 bytes, 18 tensors)

lstm.lstm1.weight_ih_l0 f4 [360, 7]
00000000: 3daf 24ab 7e18 fc29 5241 342c ea0a abac
00000010: 1040 31ac 7173 20aa 8dbd dfac d858 07bc
00000020: 7570 933b 2d32 80bc 8e31 f33c 27cf 753c
00000030: e697 93bb 56f8 d13c 0250 9baf 994c a92e
00000040: d0bf ca30 0951 47b1 19a3 d4b0 26ed d9af
00000050: ffed 82b1 85d7 22bc 649c 13bc e132 ad3b
00000060: 6f09 173d 9f3f 173c 572c 083c c0a2 233d
00000070: 91be 32ae 94c7 552d f9cd 702f 816b eaaf
00000080: 235d 78af de59 42ac 0eee 1ab0 e65e 96b9
00000090: 86ce 1eb9 b011 00ba e600 7139 33ae 33ba
000000a0: 996c 8fba b0fb 7238 4ad2 a7ad e1f8 2d2d
000000b0: ab80 962f 0c7d 13b0 ee3b b6af 040f 17af
000000c0: 9543 59b0 72a6 913b 5af7 b63a 641d 2cbc
000000d0: e301 aabb 5f58 75bb c092 363c 0460 23b9
000000e0: 6288 a93c 4c09 383b 1eb4 1dbd 9897 eabc
000000f0: 9560 28bd 6ea1 cf3c 8a16 2abc 6f9f 16bb
00000100: 1bc1 72ba d8bf 32bb 70b4 2a3c 9b16 043c
00000110: d374 bb3b 8c35 553c 0671 45b8 03f7 63b8
00000120: 7413 2438 c5a8 c938 d745 b737 aaf2 0fb7
00000130: ec8c 1c38 db62 ee3b 4604 74bb 075a 52bc
00000140: fda5 2d38 d6a7 83bc 3fcc c33b 9e44 803b
00000150: 12a0 8aba cc5b 8aba 6679 23ba b6bd 2f3b
00000160: 0002 ce3a 93cb 683a d417 513b 96ce 35b0
00000170: 7af0 0d2f cb90 7031 67df f6b1 2946 8fb1
00000180: feb5 4ab1 2fd6 16b2 2393 d6ae 16fc 8a2e
00000190: 0992 5930 187c f9b0 b44c 84b0 026e 32af
000001a0: a44a 16b1 55a4 a5ae 11d3 cd2c 9d3d a82f
000001b0: 7543 19b0 276c b4af 6fa9 86af d9f8 53b0
000001c0: d3f9 79b2 fc36 9431 fa7f ac33 b6ab 28b4
000001d0: 1daa b3b3 6183 fd31 47ab 60b4 034d bbb2
000001e0: 7d36 4cb1 0a31 6433 ca26 a5b3 774a 44b3
000001f0: c6be 40b3 fbb9 d9b3 7001 90b3 d8d0 6f32
00000200: 2071 ab34 9b5e 23b5 e5fc acb4 d3c5 af32
00000210: 938b 56b5 1dec 8daf f6bc 4e2f bf0c 1731
00000220: 3f67 bfb1 bb5a 4db1 71c7 94b0 6ef2 dab1
00000230: 6198 6a3b 5dfe 8539 4481 d6bb c347 5dbb
00000240: a889 a5bb 1329 273b ea5c 65ba 5457 7ebb
00000250: ca7b 293b 887b 0dbc 40f8 6d3c b303 213c
00000260: 26a9 5b38 318c 593c 01e1 bdbc 91f6 8dbc
00000270: 5e60 443c fea4 aa3d 92b2 a43c d070 953c
00000280: ac46 b83d 70d9 bb3b 2a9e df3a e222 3bbc
00000290: 18c3 01bc f3f8 4cbc 7d2e 8f3a c1bc 43bb
000002a0: ae0e d5ae e725 8c2e 03b4 5d30 f70f fbb0
000002b0: 352c 85b0 2f9a 0faf 2661 18b1 2f6b d53b
000002c0: 22d6 203a 547b 4cbc 8062 11bc 4f18 75bc
000002d0: 20f2 173b 0e0e 62bb e696 45ae 325e 672d
000002e0: e9d2 842f 7ebe 00b0 8999 88af 5bf1 f8ab
000002f0: e7fe 2ab0 1c26 e23b f03f 84bb 0647 52bc
00000300: ddbd 00b8 9f37 9fbc 55c4 9cbb e70a 963b
00000310: 6ea9 e63b 0460 87bb 9d4e 95bc 3e26 aebb
00000320: b26b f1bc 6df9 4ebc 5180 193b 0607 16b3
00000330: 1856 8932 4dbf 7d34 e374 07b5 fa41 91b4
00000340: 98d1 e2b2 2304 2cb5 12c6 a33b 1873 fbba
00000350: 419f 8abc c057 b33b 21dc 873a 9a02 013d
00000360: 128a 053c 5bcc a73b c229 a13a c72d 36bc
00000370: 96d3 d1bb 6668 e3bb 5c29 b83b d2e3 4fba
00000380: 1727 f63b af70 5fbb e12d 96bc c55a 1f3b
00000390: ad30 06bc a9ef d63c ef92 d63b 7059 f6b1
000003a0: c9b9 1f31 332d 3533 2e3f c1b3 200c 55b3
000003b0: d74b 9ab1 4af5 f2b3 4793 4fad 22e6 792c
000003c0: 85de 8a2e b9a4 07af 9130 8fae 9599 6bab
000003d0: 6cba 31af 7447 aebb 2445 75bb 7228 82ba
000003e0: 509b c63c 8254 4c3c 8d97 833c 5fc2 003d
000003f0: a699 ddba d58f d939 fb35 7bbb b835 ce3b
-5.8507696e-13 1.1195297e-13 2.5615799e-12 -4.861324e-12 -2.5188775e-12 -1.4250906e-13 -6.3590856e-12 -0.008260928
0.00449949 -0.015648926 0.029686715 0.015003002 -0.0045041917 0.025631111 -2.8251185e-10 7.698837e-11
1.4751951e-09 -2.9004374e-09 -1.5471385e-09 -3.9640574e-10 -3.810555e-09 -0.009939079 -0.009009454 0.0052856063
0.03687423 0.009231477 0.008311353 0.039950132 -4.064177e-11 1.21519635e-11 2.1901049e-10 -4.2640738e-10
-2.2588557e-10 -2.7618944e-12 -5.636317e-10 -0.00028680934 -0.0001514499 -0.0004885448 0.00022983886 -0.0006854266
-0.0010942399 5.79317e-05 -1.9079089e-11 9.889174e-12 2.7376265e-10 -5.365599e-10 -3.314819e-10 -1.3738705e-10
-7.904018e-10 0.0044448907 0.0013959215 -0.010505054 -0.005188213 -0.0037436706 0.011143386 -0.0001558066
0.020694915 0.0028081713 -0.03850185 -0.028636739 -0.041107733 0.02534553 -0.01038135 -0.0022983213
-0.00092603423 -0.0027274992 0.010418996 0.00806203 0.0057207136 0.013013255 -4.707372e-05 -5.4351065e-05
3.9118764e-05 9.615863e-05 2.1847822e-05 -8.579964e-06 3.7324542e-05 0.007274968 -0.0037233992 -0.012838847
4.1401003e-05 -0.016071241 0.0059752758 0.00391443 -0.0010576269 -0.0010555922 -0.00062360463 0.0026815957
0.0015717149 0.00088804326 0.0031905072 -6.614099e-10 1.290931e-10 3.5006902e-09 -7.18494e-09 -4.169824e-09
-2.949832e-09 -8.779849e-09 -9.75773e-11 6.320293e-11 7.915167e-10 -1.8152404e-09 -9.626064e-10 -1.6228088e-10
-2.1870301e-09 -7.5325225e-11 5.8498835e-12 3.06028e-10 -5.575694e-10 -3.2818656e-10 -2.4494848e-10 -7.7114987e-10
-1.4550511e-08 4.313618e-09 8.032653e-08 -1.5708687e-07 -8.3662805e-08 7.378205e-09 -2.0923936e-07 -2.1804686e-08
-2.971688e-09 5.3129988e-08 -7.690467e-08 -4.570253e-08 -4.487699e-08 -1.01386796e-07 -6.705784e-08 1.39591165e-08
3.193354e-07 -6.08599e-07 -3.2221502e-07 2.0462641e-08 -7.992432e-07 -2.581552e-10 1.8802723e-10 2.1980637e-09
-5.5705693e-09 -2.9883e-09 -1.0825102e-09 -6.372196e-09 0.0035796391 0.00025557252 -0.0065461714 -0.0033764697
-0.0050518103 0.002550666 -0.0008749502 -0.0038809376 0.0025861138 -0.008635409 0.014524519 0.009827542
5.23712e-05 0.013278053 -0.02317858 -0.017329486 0.011985866 0.08332251 0.02010468 0.01824227
0.089978546 0.0057327077 0.0017060686 -0.011421891 -0.007920049 -0.012510526 0.0010923889 -0.0029867145
-9.688726e-11 6.373196e-11 8.0655144e-10 -1.8267191e-09 -9.689588e-10 -1.3060551e-10 -2.2174134e-09 0.0065130214
0.0006135424 -0.012480576 -0.008873582 -0.014959409 0.002318509 -0.003449324 -4.492664e-11 1.3151745e-11
2.416052e-10 -4.6836834e-10 -2.484735e-10 -1.7688449e-12 -6.220788e-10 0.0069015156 -0.0040359423 -0.012834316
-3.0694402e-05 -0.019435702 -0.004784147 0.0045789364 0.0070392406 -0.004131319 -0.018225962 -0.0053146174
-0.029470298 -0.01263271 0.002342243 -3.4930984e-08 1.598805e-08 2.3632056e-07 -5.046151e-07 -2.705636e-07
-2.6405175e-08 -6.4081013e-07 0.004997977 -0.0019184081 -0.016921641 0.005473107 0.0010365286 0.03149662
0.008150594 0.0051207966 0.001229577 -0.011119313 -0.006403397 -0.0069399355 0.005620165 -0.0007930371
0.007511984 -0.0034094264 -0.018332424 0.0024315577 -0.008190316 0.026237326 0.0065482776 -7.16971e-09
2.3243152e-09 4.2183455e-08 -8.998755e-08 -4.9603955e-08 -4.490612e-09 -1.1313621e-07 -1.179929e-11 3.5512778e-12
6.315041e-11 -1.23367e-10 -6.511514e-11 -8.370191e-13 -1.6164287e-10 -0.0053185765 -0.0037425244 -0.0009930267
0.02424398 0.01247132 0.016063476 0.031435367 -0.0016906753 0.0004149663 -0.0038331735 0.006293025

lstm.lstm1.weight_hh_l0 f4 [360, 120]
00000000: eb4f 3f21 d536 b6aa b008 03a4 d9c5 7eaa
00000010: 4784 5824 f031 f329 cab4 fca3 ed92 312b
00000020: 81cb 582b 4165 fa29 fc79 89a8 eb80 baaa
00000030: efca 2629 b304 3f25 3255 d8a4 31ba 23a4
00000040: 1e54 4ca6 2604 b825 5023 9726 1890 4aa5
00000050: d9eb cbaa 0bee c0aa ab82 a62a 718e 492b
00000060: af3b db24 9cc8 50ab fbed 64a4 c5db dcaa
00000070: 8ed2 23ab 1d87 f3a6 f83d 832b c62c 21ab
00000080: 9fa6 6c2b 3033 1ea6 9b79 df23 1bf7 f32a
00000090: 0806 ee2a 7695 8c26 ae3e d1a4 6cc5 a0a5
000000a0: c14b d2a3 5f53 90a4 97a8 f529 4e11 bb2a
000000b0: 8a4d 01ab 0e5a a22a a993 0ca8 f2f3 052b
000000c0: 1051 6b2b dd74 db2b a2f8 6dab f2bb a329
000000d0: 4061 7429 8287 53ab f8d0 612b e027 8faa
000000e0: fe2e 012a 644a 292b 74d3 2024 aae0 22aa
000000f0: eba9 e126 980e 9fa9 e313 34a3 688a 6dab
00000100: cab9 5ba3 387e 102a 5334 a225 fe04 8ba9
00000110: 7cb0 552b ea72 56ab 6da9 cba2 db54 2021
00000120: faeb ffa4 6097 4eab 2f26 48ab 6c61 0326
00000130: 3a46 c824 9e41 8fab 1f95 52a5 1399 e625
00000140: 7c96 b629 ff65 192a ddea 5e25 af3a 86a4
00000150: 0c18 6d24 1af5 6da5 5c16 5224 f84b 5421
00000160: d418 7c26 4bfb 9c2a 6759 1fa6 8656 9723
00000170: 4e46 ba2a 7506 62ab bb02 9925 0bb1 a61f
00000180: b769 99aa 2d1d 0b24 ab9c aeaa f477 4e1f
00000190: 5907 23ab 5d95 8bab 0d35 e423 885c ed25
000001a0: ae4c 4da6 0e7c 4026 9d5f 3cab 3779 2d26
000001b0: fc1a 152b da82 0424 0e19 1d2b 011b 71ab
000001c0: 93df 13a4 1f52 17ab 1058 902b edf0 4226
000001d0: 7a56 63aa 6ac3 6a24 7bf2 6baa 40c2 862a
000001e0: 2474 8c32 4557 193c 096c fab3 4700 92ba
000001f0: 3c20 4d33 fc02 623a 9b6b d4b4 f7e4 3cbb
00000200: ed38 caba 11f2 47bb cc60 2d39 9bda b439
00000210: df29 8eba fc9b a635 4868 0334 553d d6b4
00000220: 58df 04b6 1418 3b36 8a89 a036 1afc d334
00000230: e5dd c63a c4ba e93b 9975 ff3a 05e7 8dba
00000240: d623 cdb3 ab1a 003b 0810 5cb3 19c1 d9b7
00000250: e713 09ba 809d 08b4 b7ac eabb 512b 033b
00000260: a2a4 b5bb 1dac 9eb4 f573 aa32 0db6 23bb
00000270: 9cb7 98bb 5162 12b6 4c5e 2d36 907b 8835
00000280: e902 8732 9bb2 96b6 6434 b83b e8a4 c4ba
00000290: cf68 973b b0ce 3a3b 7405 0dbb 519a 07bc
000002a0: 9ff9 79bb b6c1 2abc 9be9 b0b9 db3a f0bb
000002b0: c280 c039 b853 023c b6e1 e2bb eec0 1abb
000002c0: 12ff debb b0e6 c6ba de69 ee34 82dc e63b
000002d0: 9036 e335 da8a 5e3a 852b adb4 405d 6a3b
000002e0: d186 9233 189c 40ba 31fd 5fbb 068f f43a
000002f0: 3bc4 1cbb b3a1 a13a 1e82 4eb2 0360 d331
00000300: 93d3 5334 0419 fa3a ea97 2a3b c62a 8db5
00000310: cf2b 1d35 2c18 9a3b cf48 0235 6f7b 56b5
00000320: b7d4 19bb 363b 64bb 9721 3335 2408 d5b4
00000330: bfc7 0835 c0d3 3235 fcce d533 2a94 4b2f
00000340: a9fe e9b5 243d e4b9 dc9a 9f36 94c9 d433
00000350: 3a6d b9ba 018c b83b 449f 8bb6 ef39 78b2
00000360: f1f2 113c 1835 c334 f629 f63b 303c 82b2
00000370: 111e a63a 06c2 d03b a73b 6f34 43c8 8936
00000380: 980b f8b5 f5cc 9735 73a9 9d3b 2e59 7d36
00000390: 5281 6bbb 05bc c933 cdd4 223c d82b a73b
000003a0: ef99 e7b4 2936 f63a 489c 6ebb d298 8b36
000003b0: 4825 8f3a d3a6 5933 6151 72ba 5efa 10bc
000003c0: b6a5 9226 45e8 60af 7cf7 12a9 5153 16af
000003d0: 983f e828 aeb0 802e 9df3 44a8 1421 c62f
000003e0: 6d62 e62f 92ad 9d2e 8f93 10ad 85ca 3faf
000003f0: db7c cf2d 6ee0 9529 67fd 69a9 76fd fda7
6.481909e-19 -3.2367742e-13 -2.8413456e-17 -2.2628374e-13 4.6949577e-17 1.08000306e-13 -2.7398462e-17 6.308693e-13
7.7021034e-13 1.1119795e-13 -1.5262958e-14 -3.3129692e-13 3.703542e-14 1.6568201e-16 -9.3819394e-17 -3.55027e-17
-7.089072e-16 3.1921723e-16 1.0487301e-15 -1.7569528e-16 -3.6223696e-13 -3.4271227e-13 2.9578193e-13 7.160722e-13
9.507722e-17 -7.4174846e-13 -4.9641196e-17 -3.9232346e-13 -5.8201436e-13 -1.6898135e-15 9.32531e-13 -5.7260826e-13
8.4075276e-13 -5.4886634e-16 2.422921e-17 4.3336935e-13 4.2281478e-13 9.754963e-16 -9.0745485e-17 -2.7889354e-16
-2.2800329e-17 -6.259128e-17 1.0909431e-13 3.322988e-13 -4.5937614e-13 2.883947e-13 -7.80358e-15 4.7589634e-13
8.360127e-13 1.5593322e-12 -8.454436e-13 7.2712574e-14 5.4263235e-14 -7.5150313e-13 8.022606e-13 -2.5429572e-13
1.1473805e-13 6.01441e-13 3.4873577e-17 -1.4466436e-13 1.5658568e-15 -7.06355e-14 -9.762031e-18 -8.439139e-13
-1.1911356e-17 1.283356e-13 2.8137977e-16 -6.173706e-14 7.591772e-13 -7.618755e-13 -5.5202647e-18 5.4322414e-19
-1.1098838e-16 -7.3395977e-13 -7.1107264e-13 4.5581786e-16 8.685514e-17 -1.0178974e-12 -1.8265121e-16 4.0002367e-16
8.1085285e-14 1.3624517e-13 1.9335005e-16 -5.821265e-17 5.141155e-17 -2.0639517e-16 4.555543e-17 7.192894e-19
8.746371e-16 2.7885536e-13 -5.528537e-16 1.6408097e-17 3.308902e-13 -8.030029e-13 2.654312e-16 7.059663e-20
-2.7251614e-13 3.0165533e-17 -3.101732e-13 4.372142e-20 -5.791943e-13 -9.918001e-13 2.4742277e-17 4.1175648e-16
-7.1227583e-16 6.6781507e-16 -6.6923707e-13 6.018571e-16 5.297288e-13 2.8733773e-17 5.5812375e-13 -8.5657875e-13
-3.206492e-17 -5.375994e-13 1.0256258e-12 6.7633786e-16 -2.0191653e-13 5.0906184e-17 -2.095632e-13 2.393797e-13
1.635096e-08 0.009359186 -1.1661184e-07 -0.0011138999 4.77596e-08 0.00086216605 -3.956637e-07 -0.0028822997
-0.0015428342 -0.0030509273 0.00016534625 0.0003449515 -0.0010846219 1.2413361e-06 1.2238263e-07 -3.990523e-07
-1.9799536e-06 2.7879187e-06 4.7843832e-06 3.948524e-07 0.0015172331 0.00713286 0.0019490003 -0.0010826295
-9.552575e-08 0.0019547145 -5.1237322e-08 -2.5958334e-05 -0.0005229101 -1.2723285e-07 -0.0071617025 0.0020014832
-0.0055433074 -2.9555022e-07 1.9843336e-08 -0.0024980337 -0.00466056 -2.1812923e-06 2.5833897e-06 1.0168751e-06
1.5717392e-08 -4.4911408e-06 0.00562148 -0.0015002759 0.0046206485 0.0028504543 -0.0021518143 -0.008276538
-0.003814317 -0.010422161 -0.00033743386 -0.007331235 0.00036717026 0.00795453 -0.0069238795 -0.002361353
-0.006805309 -0.0015174951 4.4407983e-07 0.0070453295 1.6928698e-06 0.00084893184 -3.2255426e-07 0.0035761148
6.823178e-08 -0.00073474785 -0.0034178013 0.0018658347 -0.0023920673 0.0012331515 -1.2020363e-08 6.1518235e-09
1.9727877e-07 0.0019080942 0.002603049 -1.0517767e-06 5.855081e-07 0.0047025885 4.8534724e-07 -7.990083e-07
-0.0023472735 -0.0034825332 6.6731576e-07 -3.9680265e-07 5.0954617e-07 6.6618304e-07 9.956236e-08 1.8515381e-10
-1.7433969e-06 -0.00043533102 4.7565973e-06 9.908686e-08 -0.0014146932 0.005631924 -4.1610638e-06 -1.44486725e-08
0.008908019 3.636021e-07 0.0075123264 -1.5161362e-08 0.0012673755 0.0063707856 2.2280311e-07 4.1062317e-06
-1.8480814e-06 1.1310027e-06 0.0048114597 3.7751847e-06 -0.0035935235 9.3939924e-08 0.009938431 0.005101662
-4.3139104e-07 0.0018784452 -0.003640907 4.1603134e-06 0.0010921145 5.0675975e-08 -0.0009243694 -0.008848755
1.0175701e-15 -2.04552e-10 -3.263317e-14 -1.367202e-10 2.5784754e-14 5.852151e-11 -1.0933011e-14 3.6039494e-10
4.1906692e-10 7.170366e-11 -8.218217e-12 -1.7443298e-10 2.3588622e-11 6.6558616e-14 -5.1956184e-14 -7.049641e-15

lstm.lstm1.bias_ih_l0 f4 [360]
00000000: 9d1e 30ad 495b 2a3d d0d6 ccb1 896c 7b3d
00000010: 4f16 6fb0 2cbc b03a 6c4a a4b0 6175 253c
00000020: 4c87 0a3d 49ac ab3c b2c5 9d38 0486 c23c
00000030: fee3 aa3b 5541 66b2 0344 6bb1 9d0f a2b0
00000040: 196a aeb4 3d8e 32b4 9457 a8b5 af4e 2db2
00000050: 071f ac3b 921e b03c e930 0c3e ac15 303c
00000060: 965e 6eb1 f0f1 433c 25c0 83b0 2361 d33c
00000070: 23a5 f83c 89b2 85b5 e2dd da3c ea48 2f3c
00000080: 31e6 e83c 9289 3fb4 e596 89af bf33 533d
00000090: 1e63 483c b166 adb4 e2ad 6eb4 13ee 5ab3
000000a0: 6da8 aab0 c5c5 6eb5 b249 3c3d b2da 8b3b
000000b0: e2ff 1a3c 2117 893c 6339 783b 6390 dc3c
000000c0: 64ca a23c 8825 a63c 93de 023d 1dde 243d
000000d0: 527f 353c 75cb b03c 650a 643c 47cf 343c
000000e0: aeaf f83c 1bb4 a83c a0d5 a0b1 d19e ef3c
000000f0: f44f 86b5 1dfd 313a 153f 87b0 254b 7c3c
00000100: c713 b2b0 4578 f438 ef44 e73b 79f3 e43b
00000110: bd25 0a3d a21e ac3c d250 b3ad e424 46ab
00000120: e1f2 96b1 238a ac3c 970e b23c c39b a5b3
00000130: 8e88 98b1 74b5 ef3c d8dd 39b2 a559 51b3
00000140: 00ec 333c f241 413c 743d 2bb3 5984 8ab2
00000150: 3879 09b1 08af 89b2 dd56 16b1 3175 87ab
00000160: 6b8b 8db4 1535 b03b 52c2 04b5 54f1 6eaf
00000170: 2fd2 7d3c 9791 523c 325c a8b4 ca81 f2ac
00000180: 26fc 643d 4aeb a4b0 e6ab 023d 8b4c 00ad
00000190: 354f 063e 816d 133d a966 1cb2 afbc 37b5
000001a0: b603 adb4 beea 6db4 af3b 1b3c 46c1 49b5
000001b0: 1c02 9f3b 8a2e 9eb0 2f5b b53d 2b85 b83c
000001c0: e42d 40b1 58d1 443c 2078 a33c 27a6 3db5
000001d0: ea45 e939 8128 8ab0 858e b33c fd2b 2f3d
000001e0: 6f41 692c 49bd 76bc e7c5 0e31 8b47 a4bc
000001f0: 34fe 952f 0561 d0b9 5732 0530 dda6 47bb
00000200: 567c 2cbc b639 ecbb 0fd0 f0b7 3f99 e0bb
00000210: ea5c fcba 1400 a031 622c 9730 c8ca e62f
00000220: a777 ec33 a84e 6a33 20f6 e434 4a46 5f31
00000230: 56fc cdba 37d9 05bc 068d 3abd 406a 55bb
00000240: 77c9 9930 6f55 76bb 8a14 a52f 6bdb 11bc
00000250: d2fa 32bc 31d0 af34 9977 06bc 0ee1 61bb
00000260: 3ffa 09bc bec3 8633 a054 ac2e 91cd 8ebc
00000270: 7dcc 9dbb 8679 e333 40e3 a633 dd91 9e32
00000280: cd1f 0e30 424f a534 575e 83bc 338c 95ba
00000290: 6c5a 39bb 3a17 a5bb c03c b3ba c988 27bc
000002a0: d6f6 dcbb 5d80 b4bb d1b5 39bc e320 60bc
000002b0: 335f 7cbb 8496 adbb ff06 9bbb f718 a0bb
000002c0: e860 4bbc 1841 eabb 17c0 db30 9c56 48bc
000002d0: 4678 b134 1302 90b9 57f1 c12f 1e9a a5bb
000002e0: f802 f42f 821e 11b8 373c 28bb f888 2bbb
000002f0: 4ad2 2dbc e5de c7bb b16b e82c d3cb 742a
00000300: 7115 c230 c8c5 e7bb 1556 dcbb af64 cd32
00000310: a6b6 c530 21ed 25bc c024 7331 b11c 8932
00000320: e300 91bb 5bb1 a6bb a579 1332 15e9 bf31
00000330: 0978 5230 7154 bd31 e725 4930 b8c5 b82a
00000340: 31d8 bf33 5609 f2ba aa25 3d34 72f8 8a2e
00000350: 7784 96bb 6400 82bb e40b f233 3dd6 212c
00000360: 4909 b6bc 7720 dc2f c1a9 6fbc a63f 2b2c
00000370: 8c8d 2bbd 7355 30bc b8fb 5731 1102 7c34
00000380: 619f ea33 53e6 9f33 d246 2ebb a315 8d34
00000390: 3860 a7ba f992 d82f 7363 18bd 4a40 e8bb
000003a0: 07af 6530 f973 6dbb 052b e9bb f24a 8134
000003b0: 6d55 b8b8 1b80 ad2f 39b6 f3bb f03d 6dbc
000003c0: db7a 3334 68ec ab3c ec40 1a36 97c4 aebb
000003d0: 5917 2534 44a3 8ebc 11db 7836 8ee5 5fbb
000003e0: a23b 9d3c 39b3 693d 1038 443c ab4c 26bd
000003f0: 24a3 043d cdfd bfb8 c56c 5e36 4138 b037
-1.0011239e-11 0.041590963 -5.9616028e-09 0.061382804 -8.6979396e-10 0.0013483814 -1.1953722e-09 0.010098786
0.033820435 0.020956175 7.523167e-05 0.023745544 0.005215167 -1.3402617e-08 -3.423566e-09 -1.1791489e-09
-3.2487222e-07 -1.6629288e-07 -1.2542464e-06 -1.0087816e-08 0.005252722 0.021498952 0.13690533 0.0107473545
-3.4687324e-09 0.011959538 -9.586115e-10 0.025803154 0.03035218 -9.961233e-07 0.02671713 0.010698536
0.028430076 -1.7838309e-07 -2.5027372e-10 0.05156302 0.012230663 -3.229848e-07 -2.2228735e-07 -5.0973608e-08
-1.2416997e-09 -8.89497e-07 0.04596872 0.004268014 0.009460421 0.016734662 0.0037876002 0.026924318
0.019871898 0.020281568 0.031950545 0.040250886 0.011077719 0.02158139 0.013918494 0.011035747
0.030357208 0.020593693 -4.6808992e-09 0.029250534 -1.0007047e-06 0.0006789731 -9.840472e-10 0.015398775
-1.2956826e-09 0.000116572286 0.007057778 0.006987032 0.033727396 0.0210107 -2.0385835e-11 -7.0394927e-13
-4.3931867e-09 0.021061962 0.021735473 -7.711744e-08 -4.4393067e-09 0.029261328 -1.0818859e-08 -4.8743136e-08
0.01098156 0.011795508 -3.986993e-08 -1.61255e-08 -2.0005029e-09 -1.6028494e-08 -2.187725e-09 -9.624854e-13
-2.6364737e-07 0.0053774216 -4.9456605e-07 -2.1731711e-10 0.015492006 0.012852094 -3.135952e-07 -6.892463e-12
0.05590453 -1.1999444e-09 0.031902216 -7.292954e-12 0.13116153 0.035993103 -9.103737e-09 -6.8447383e-07
-3.222646e-07 -2.2157744e-07 0.009474679 -7.5159585e-07 0.0048525464 -1.150924e-09 0.088552825 0.022524437
-2.7965763e-09 0.012012802 0.019954741 -7.064977e-07 0.00044493313 -1.0052333e-09 0.021918545 0.04276656
3.3147614e-12 -0.015059778 2.0776214e-09 -0.020053646 2.7283564e-10 -0.00039745137 4.8456655e-10 -0.0030464449
-0.010527691 -0.007209028 -2.8707114e-05 -0.006854206 -0.0019253765 4.6566218e-09 1.099931e-09 4.198084e-10
1.1011371e-07 5.4553908e-08 4.264739e-07 3.2490726e-09 -0.0015715461 -0.008169464 -0.045544647 -0.003256455
1.1189475e-09 -0.0037587543 3.002792e-10 -0.008902411 -0.010924058 3.274777e-07 -0.008207225 -0.0034466418
-0.00842148 6.2754665e-08 7.836687e-11 -0.017432006 -0.0048156367 1.0592616e-07 7.771314e-08 1.8459952e-08
5.170449e-10 3.0791313e-07 -0.016036196 -0.001140958 -0.0028282655 -0.005038169 -0.0013674721 -0.010225483
-0.0067432923 -0.005508466 -0.011334852 -0.013679716 -0.0038508892 -0.005297484 -0.0047310586 -0.0048857885
-0.012413241 -0.007148873 1.5988942e-09 -0.0122276805 3.305633e-07 -0.00027467366 3.5277978e-10 -0.0050537726
4.438545e-10 -3.4599107e-05 -0.0025670656 -0.002617417 -0.010609219 -0.006099569 6.6057927e-12 2.1742269e-13
1.4121452e-09 -0.007073138 -0.006724129 2.3910927e-08 1.4385548e-09 -0.010127337 3.5382044e-09 1.5961946e-08
-0.0044251545 -0.0050870604 8.584185e-09 5.58533e-09 7.6568135e-10 5.510224e-09 7.3177236e-10 3.282216e-13
8.9334556e-08 -0.0018465917 1.7615699e-07 6.319646e-11 -0.0045934278 -0.0039673317 1.1271166e-07 2.2998402e-12
-0.022221224 4.0040835e-10 -0.014627875 2.4335894e-12 -0.041883036 -0.01076256 3.1429703e-09 2.347008e-07
1.0925465e-07 7.44591e-08 -0.0026592505 2.627904e-07 -0.0012769764 3.9394601e-10 -0.037204217 -0.007087742
8.3558443e-10 -0.0036232455 -0.007115724 2.4082652e-07 -8.7897155e-05 3.155954e-10 -0.007437494 -0.014480099
1.6715369e-07 0.02098675 2.2985578e-06 -0.005333494 1.5375316e-07 -0.017411835 3.7082393e-06 -0.0034163925
0.019193474 0.057055686 0.011976257 -0.04060046 0.032382146 -9.154864e-05 3.314389e-06 2.100703e-05

lstm.lstm1.bias_hh_l0 f4 [360]
00000000: 9d1e 30ad 495b 2a3d d0d6 ccb1 896c 7b3d
00000010: 4f16 6fb0 2cbc b03a 6c4a a4b0 6175 253c
00000020: 0ae0 0a3d 49ac ab3c b2c5 9d38 0486 c23c
00000030: fee3 aa3b 5541 66b2 0344 6bb1 9d0f a2b0
00000040: 196a aeb4 3d8e 32b4 9457 a8b5 af4e 2db2
00000050: 071f ac3b 921e b03c e930 0c3e ac15 303c
00000060: 965e 6eb1 f0f1 433c 25c0 83b0 2361 d33c
00000070: cd9f f83c 89b2 85b5 b5dd da3c ea48 2f3c
00000080: 52e6 e83c 9289 3fb4 e596 89af bf33 533d
00000090: 1e63 483c b166 adb4 e2ad 6eb4 13ee 5ab3
000000a0: 6da8 aab0 c5c5 6eb5 b249 3c3d b2da 8b3b
000000b0: e2ff 1a3c 2117 893c 6339 783b 6390 dc3c
000000c0: 6dca a23c 8825 a63c 63e0 023d 1dde 243d
000000d0: 527f 353c 75cb b03c 650a 643c 47cf 343c
000000e0: 5faf f83c 01b4 a83c a0d5 a0b1 d19e ef3c
000000f0: f44f 86b5 1dfd 313a 153f 87b0 264b 7c3c
00000100: c713 b2b0 4578 f438 ef44 e73b 79f3 e43b
00000110: bc25 0a3d a31e ac3c d250 b3ad e424 46ab
00000120: e1f2 96b1 3185 ac3c f70e b23c c39b a5b3
00000130: 8e88 98b1 37c4 ef3c d8dd 39b2 a559 51b3
00000140: 00ec 333c f241 413c 743d 2bb3 5984 8ab2
00000150: 3879 09b1 08af 89b2 dd56 16b1 3175 87ab
00000160: 6b8b 8db4 1535 b03b 52c2 04b5 54f1 6eaf
00000170: 2fd2 7d3c 9791 523c 325c a8b4 ca81 f2ac
00000180: 44fb 643d 4aeb a4b0 e6ab 023d 8b4c 00ad
00000190: 354f 063e a466 133d a966 1cb2 afbc 37b5
000001a0: b603 adb4 beea 6db4 af3b 1b3c 46c1 49b5
000001b0: 1c02 9f3b 8a2e 9eb0 714f b53d 2b85 b83c
000001c0: e42d 40b1 5bd1 443c 3278 a33c 27a6 3db5
000001d0: ea45 e939 8128 8ab0 858e b33c fd2b 2f3d
000001e0: 6f41 692c 49bd 76bc e7c5 0e31 8b47 a4bc
000001f0: 34fe 952f 0561 d0b9 5732 0530 dda6 47bb
00000200: 567c 2cbc b639 ecbb 0fd0 f0b7 3f99 e0bb
00000210: ea5c fcba 1400 a031 622c 9730 c8ca e62f
00000220: a777 ec33 a84e 6a33 20f6 e434 4a46 5f31
00000230: 56fc cdba 37d9 05bc 068d 3abd 406a 55bb
00000240: 77c9 9930 6f55 76bb 8a14 a52f 6bdb 11bc
00000250: d2fa 32bc 31d0 af34 9977 06bc 0ee1 61bb
00000260: 3ffa 09bc bec3 8633 a054 ac2e 91cd 8ebc
00000270: 7dcc 9dbb 8679 e333 40e3 a633 dd91 9e32
00000280: cd1f 0e30 424f a534 575e 83bc 338c 95ba
00000290: 6c5a 39bb 3a17 a5bb c03c b3ba c988 27bc
000002a0: d6f6 dcbb 5d80 b4bb d1b5 39bc e320 60bc
000002b0: 335f 7cbb 8496 adbb ff06 9bbb f718 a0bb
000002c0: e860 4bbc 1841 eabb 17c0 db30 9c56 48bc
000002d0: 4678 b134 1302 90b9 57f1 c12f 1e9a a5bb
000002e0: f802 f42f 821e 11b8 373c 28bb f888 2bbb
000002f0: 4ad2 2dbc e5de c7bb b16b e82c d3cb 742a
00000300: 7115 c230 c8c5 e7bb 1556 dcbb af64 cd32
00000310: a6b6 c530 21ed 25bc c024 7331 b11c 8932
00000320: e300 91bb 5bb1 a6bb a579 1332 15e9 bf31
00000330: 0978 5230 7154 bd31 e725 4930 b8c5 b82a
00000340: 31d8 bf33 5609 f2ba aa25 3d34 72f8 8a2e
00000350: 7784 96bb 6400 82bb e40b f233 3dd6 212c
00000360: 4909 b6bc 7720 dc2f c1a9 6fbc a63f 2b2c
00000370: 8c8d 2bbd 7355 30bc b8fb 5731 1102 7c34
00000380: 619f ea33 53e6 9f33 d246 2ebb a315 8d34
00000390: 3860 a7ba f992 d82f 7363 18bd 4a40 e8bb
000003a0: 07af 6530 f973 6dbb 052b e9bb f24a 8134
000003b0: 6d55 b8b8 1b80 ad2f 39b6 f3bb f03d 6dbc
000003c0: d0aa edb3 75e3 aebc bf63 a436 2aff 72bc
000003d0: e759 6033 11db a53c 1993 fa35 dbda d9bb
000003e0: 143c 6a3d 1984 4d3c 0fea 863b 3b99 daba
000003f0: 9a4d bcbc 6297 d0b7 ed8f 4d36 21e4 7336
-1.0011239e-11 0.041590963 -5.9616028e-09 0.061382804 -8.6979396e-10 0.0013483814 -1.1953722e-09 0.010098786
0.033905067 0.020956175 7.523167e-05 0.023745544 0.005215167 -1.3402617e-08 -3.423566e-09 -1.1791489e-09
-3.2487222e-07 -1.6629288e-07 -1.2542464e-06 -1.0087816e-08 0.005252722 0.021498952 0.13690533 0.0107473545
-3.4687324e-09 0.011959538 -9.586115e-10 0.025803154 0.030349636 -9.961233e-07 0.026717046 0.010698536
0.028430138 -1.7838309e-07 -2.5027372e-10 0.05156302 0.012230663 -3.229848e-07 -2.2228735e-07 -5.0973608e-08
-1.2416997e-09 -8.89497e-07 0.04596872 0.004268014 0.009460421 0.016734662 0.0037876002 0.026924318
0.019871915 0.020281568 0.031952273 0.040250886 0.011077719 0.02158139 0.013918494 0.011035747
0.030357061 0.020593645 -4.6808992e-09 0.029250534 -1.0007047e-06 0.0006789731 -9.840472e-10 0.015398776
-1.2956826e-09 0.000116572286 0.007057778 0.006987032 0.033727393 0.021010702 -2.0385835e-11 -7.0394927e-13
-4.3931867e-09 0.021059604 0.021735651 -7.711744e-08 -4.4393067e-09 0.029268367 -1.0818859e-08 -4.8743136e-08
0.01098156 0.011795508 -3.986993e-08 -1.61255e-08 -2.0005029e-09 -1.6028494e-08 -2.187725e-09 -9.624854e-13
-2.6364737e-07 0.0053774216 -4.9456605e-07 -2.1731711e-10 0.015492006 0.012852094 -3.135952e-07 -6.892463e-12
0.055903688 -1.1999444e-09 0.031902216 -7.292954e-12 0.13116153 0.035986558 -9.103737e-09 -6.8447383e-07
-3.222646e-07 -2.2157744e-07 0.009474679 -7.5159585e-07 0.0048525464 -1.150924e-09 0.08853043 0.022524437
-2.7965763e-09 0.012012805 0.019954775 -7.064977e-07 0.00044493313 -1.0052333e-09 0.021918545 0.04276656
3.3147614e-12 -0.015059778 2.0776214e-09 -0.020053646 2.7283564e-10 -0.00039745137 4.8456655e-10 -0.0030464449
-0.010527691 -0.007209028 -2.8707114e-05 -0.006854206 -0.0019253765 4.6566218e-09 1.099931e-09 4.198084e-10
1.1011371e-07 5.4553908e-08 4.264739e-07 3.2490726e-09 -0.0015715461 -0.008169464 -0.045544647 -0.003256455
1.1189475e-09 -0.0037587543 3.002792e-10 -0.008902411 -0.010924058 3.274777e-07 -0.008207225 -0.0034466418
-0.00842148 6.2754665e-08 7.836687e-11 -0.017432006 -0.0048156367 1.0592616e-07 7.771314e-08 1.8459952e-08
5.170449e-10 3.0791313e-07 -0.016036196 -0.001140958 -0.0028282655 -0.005038169 -0.0013674721 -0.010225483
-0.0067432923 -0.005508466 -0.011334852 -0.013679716 -0.0038508892 -0.005297484 -0.0047310586 -0.0048857885
-0.012413241 -0.007148873 1.5988942e-09 -0.0122276805 3.305633e-07 -0.00027467366 3.5277978e-10 -0.0050537726
4.438545e-10 -3.4599107e-05 -0.0025670656 -0.002617417 -0.010609219 -0.006099569 6.6057927e-12 2.1742269e-13
1.4121452e-09 -0.007073138 -0.006724129 2.3910927e-08 1.4385548e-09 -0.010127337 3.5382044e-09 1.5961946e-08
-0.0044251545 -0.0050870604 8.584185e-09 5.58533e-09 7.6568135e-10 5.510224e-09 7.3177236e-10 3.282216e-13
8.9334556e-08 -0.0018465917 1.7615699e-07 6.319646e-11 -0.0045934278 -0.0039673317 1.1271166e-07 2.2998402e-12
-0.022221224 4.0040835e-10 -0.014627875 2.4335894e-12 -0.041883036 -0.01076256 3.1429703e-09 2.347008e-07
1.0925465e-07 7.44591e-08 -0.0026592505 2.627904e-07 -0.0012769764 3.9394601e-10 -0.037204217 -0.007087742
8.3558443e-10 -0.0036232455 -0.007115724 2.4082652e-07 -8.7897155e-05 3.155954e-10 -0.007437494 -0.014480099
-1.1067243e-07 -0.021348694 4.899193e-06 -0.014831344 5.223583e-08 0.02024606 1.8669263e-06 -0.006648404
0.0571862 0.012543702 0.0041172574 -0.0016677746 -0.022986222 -2.4866025e-05 3.0631156e-06 3.634261e-06

lstm.fc1.weight f4 [30, 120]
00000000: 2146 1db3 213a b1bd 9797 53b5 a0bf 29bc
00000010: d0e9 2636 68a5 c8bc 7ef1 afb6 a9ed 81bc
00000020: dd9c 91bd 6989 193d b804 afbb 097d 783d
00000030: 1b04 8b3c afed 7f37 fd93 b1b6 6484 5db6
00000040: af85 85b8 463a 9337 7cf2 ea38 76b3 29b7
00000050: 6adc b43c c207 74bd 497c cf3b f7fc 29bd
00000060: a669 c536 dc30 363d 677b 2db6 ebf4 873d
00000070: f1c6 9e3d 5ba8 f5b8 83bc 82bc bc1c ae3c
00000080: 9d69 0dbd 04f3 57b8 70f0 ad35 bbe1 963c
00000090: 74df 103d 122a 2c38 9104 b3b6 dbb8 96b7
000000a0: 9999 0036 c43d 1eb8 11cf 53bd 986a aebc
000000b0: f41d 86bb b6a4 81bd abb7 a83c 213d 613d
000000c0: d395 2fbd 7945 3d3c 37bf 853d d948 883d
000000d0: 458e 323b ab02 3abd fd0d b73c 1ed4 513d
000000e0: 9484 993d d839 5dbd 56ad 5c36 a48b 85bd
000000f0: e878 ee38 a689 e83b d2f0 2bb6 77e3 1d3d
00000100: 858b 60b5 1134 963a c520 033d 053b c6bc
00000110: 4b01 25bc a409 4c3d 67b3 aab4 c2dd 5933
00000120: 4ab8 d2b6 76b8 513d 36b1 283d 9eb4 2f37
00000130: 0f52 1f37 0420 4d3d 1546 32b7 fc58 b137
00000140: e03f c83c 2afe 2b3d 4bbc 1538 8771 94b6
00000150: 959c 3c36 0818 41b7 ee75 4636 f8cf e233
00000160: bb34 3538 5f31 44bc 0e14 16b7 c2af 0436
00000170: d1f3 1fbd 3919 293b e2a0 2fb7 7ca5 8433
00000180: a017 b5bd 4db1 8e36 8a85 afbd 6823 6c33
00000190: 0ddb 1dbd aa47 0d3d 1a50 f335 4a1b 8138
000001a0: f9e0 84b8 8ce2 6538 9834 62bc 4ca1 9f38
000001b0: 1b3a 303a e6a5 1236 b550 0bbe cb7c 033d
000001c0: 7565 45b6 b5c8 f63c 38bd 54bd f79d 9f38
000001d0: 8803 b33b 8cf5 3436 54d3 3dbb f7c5 ad3d
000001e0: 169c 37b4 bf3b 283d 1f42 5836 ce92 d1bd
000001f0: cf3b 4db5 54d5 9cbb c458 2f36 5a1d 343c
00000200: 2879 a0bb 115a 153d ad22 80bb 550f 2a3d
00000210: 49df ae3c c05a 69b7 e1f2 c935 29b5 0e36
00000220: 81f1 1938 7d23 4bb7 0646 86b8 6043 6d35
00000230: d233 323c 6b56 893c bca6 213e a510 503c
00000240: 4f2a f2b5 56c7 ce3b 2b47 5835 f3f9 2f3d
00000250: 7f20 153d 3d58 1f38 ff88 20bd db21 8ebc
00000260: e6fa 3dbd e4b6 e137 22ee e2b4 a507 a43d
00000270: 2f7d 803c d969 3e37 d47d d4b7 ef8e eeb6
00000280: e4c7 6636 ba0c 5538 6c52 ac3d 8be5 26bc
00000290: 9c38 ee3c 2da7 003d f303 babc d7a4 a5bc
000002a0: 7a60 0bbd 606a 9bbc 4505 1dbd 115d 8abd
000002b0: d4bb 2c3d c378 8b3c fb85 22bc a621 0cbc
000002c0: 5bc1 4a3b c3a3 7cbc c20b 95b5 859d 303d
000002d0: 9c64 4eb8 cc6d 2f3c db79 2636 ec4f ca3c
000002e0: 8411 b1b5 8cc5 043b 498d 99bc d7bd a7bc
000002f0: a5c0 743d 446a b4bc 8c9a 6934 b936 10b3
00000300: 90cc a235 bde1 813c e570 0bbb e829 7bb6
00000310: d079 ebb6 b917 003d 1c84 e033 cb5f a3b4
00000320: 6b1b cd3c f056 853c 1b9e 93b7 e740 eb36
00000330: f7ad a3b6 770c 42b6 5422 2eb6 fc79 5c32
00000340: 3fcb 6d37 0e6e d83c cb25 8cb8 48cc 9bb5
00000350: a70c 35bd b1c8 153c 1977 8b38 ba74 1434
00000360: d653 82bc de0a 19b6 a538 b8bb 68a5 1a34
00000370: 804e 13be 5636 6e3d 5e18 93b6 40ad 59b8
00000380: a5f2 1638 33d7 e6b7 cf86 dcbb 29af 68b8
00000390: cd0e 94bc 9c1a 0cb6 a025 553d cace 423d
000003a0: 249a 2336 9ea0 9cb9 7476 a6bc 2f12 69b8
000003b0: bd77 243b 32fb 56b5 baec 7abd 8d05 33bd
000003c0: 2d8e 0ab5 7a90 77bd 06e1 6d37 ca76 bebc
000003d0: e01e 82b6 3ec9 52ba 307f ecb5 8f10 513d
000003e0: 1173 a13d 6695 2c3d 1674 5cbb c141 10bd
000003f0: de52 a23c 1ac9 e537 0bcf fa36 e75c 23b7
-3.6618193e-08 -0.08653665 -7.882422e-07 -0.010360628 2.4872024e-06 -0.024492934 -5.24352e-06 -0.015860396
-0.071099974 0.03748456 -0.0053411387 0.060666118 0.016969731 1.5254524e-05 -5.292239e-06 -3.3008628e-06
-6.366835e-05 1.7550901e-05 0.00011203156 -1.0114969e-05 0.022077758 -0.05957771 0.0063319546 -0.04150101
5.8833566e-06 0.04448019 -2.5850838e-06 0.06638511 0.07752789 -0.00011713869 -0.01595903 0.021253936
-0.03452455 -5.148632e-05 1.2959481e-06 0.018418184 0.03536935 4.1047177e-05 -5.3351473e-06 -1.7967473e-05
1.9162892e-06 -3.772766e-05 -0.051711146 -0.021291062 -0.004092926 -0.06330244 0.020595392 0.054989938
-0.042867493 0.011552208 0.06530612 0.066545196 0.0027245444 -0.0454127 0.022345537 0.05122768
0.074959904 -0.054010242 3.288345e-06 -0.06520775 0.00011371245 0.007096487 -2.5621162e-06 0.038547006
-8.364953e-07 0.0011459609 0.032013673 -0.024198065 -0.010071109 0.04981388 -3.17955e-07 5.0725937e-08
-6.2799418e-06 0.051201306 0.041184627 1.0472866e-05 9.496244e-06 0.05007936 -1.0625944e-05 2.114148e-05
0.02444452 0.041990437 3.569973e-05 -4.42396e-06 2.8105326e-06 -1.1509292e-05 2.9572943e-06 1.05617744e-07
4.3202872e-05 -0.011974662 -8.945366e-06 1.9771837e-06 -0.03905088 0.0025802387 -1.0468271e-05 6.1768304e-08
-0.08842397 4.2525703e-06 -0.085703924 5.4980234e-08 -0.03853898 0.034492172 1.8128223e-06 6.156282e-05
-6.336155e-05 5.4808843e-05 -0.013806485 7.611755e-05 0.00067225256 2.185226e-06 -0.13605006 0.032101434
-2.9414343e-06 0.030125001 -0.051938266 7.611134e-05 0.0054630674 2.6965017e-06 -0.0028965073 0.084850244
-1.7099987e-07 0.041072603 3.2224996e-06 -0.10233079 -7.6455484e-07 -0.004786173 2.61287e-06 0.010993326
-0.0048972555 0.036462847 -0.0039103837 0.041518528 0.021346705 -1.3909012e-05 1.5046354e-06 2.1265098e-06
3.670296e-05 -1.2108006e-05 -6.402661e-05 8.8387424e-07 0.010876613 0.01676484 0.1578626 0.012699281
-1.8042718e-06 0.006310384 8.0569833e-07 0.04296298 0.036407944 3.7990732e-05 -0.03919315 -0.017350128
-0.046381854 2.6907255e-05 -4.2269045e-07 0.080092706 0.015684692 1.1349527e-05 -2.5330963e-05 -7.1095924e-06
3.4389022e-06 5.079501e-05 0.08414158 -0.010186563 0.029079728 0.03140943 -0.022706961 -0.020220203
-0.034027554 -0.018971622 -0.038335104 -0.06756032 0.042171314 0.017025357 -0.009919639 -0.008552944
0.0030938003 -0.015419903 -1.1104787e-06 0.043118972 -4.9207927e-05 0.01070733 2.4806857e-06 0.024696313
-1.3192625e-06 0.0020259349 -0.018744128 -0.020476265 0.059754033 -0.022023328 2.175604e-07 -3.3577383e-08
1.2129476e-06 0.01585471 -0.0021277007 -3.7426307e-06 -7.0177266e-06 0.031272624 1.04548434e-07 -3.0430814e-07
0.025037488 0.016276807 -1.759739e-05 7.0111014e-06 -4.8780307e-06 -2.8915508e-06 -2.5948002e-06 1.2833421e-08
1.4173623e-05 0.026419666 -6.68276e-05 -1.1607854e-06 -0.04420152 0.009142087 6.65022e-05 1.3826039e-07
-0.015909117 -2.2805102e-06 -0.005621987 1.4402542e-07 -0.14385414 0.058157288 -4.383778e-06 -5.1898183e-05
3.5988767e-05 -2.7518347e-05 -0.0067299376 -5.547624e-05 -0.018073464 -2.0877114e-06 0.052037835 0.04756049
2.4378614e-06 -0.00029874308 -0.020320155 -5.5568464e-05 0.0025095784 -8.008675e-07 -0.061260916 -0.043706466
-5.16159e-07 -0.060440518 1.4178693e-05 -0.023250002 -3.8778962e-06 -0.00080408517 -1.7620387e-06 0.051041182
0.07883275 0.042134665 -0.0033638529 -0.035218958 0.019814905 2.7392573e-05 7.4746836e-06 -9.737188e-06

lstm.fc1.bias f4 [30]
00000000: 9a54 01bc 66b0 b0bc e14c 67bd da4a 06bc
00000010: 7cad b0bc 1d7a 69bd d98b 06bc b148 afbc
00000020: ad4f 6ebd 308f 17bc 8204 b0bc 98d7 6bbd
00000030: b334 19bc 2914 b0bc 7887 6dbd 1fde 0ebc
00000040: a025 b0bc 3c83 69bd 02f0 1abc f491 afbc
00000050: 50e6 6dbd 13cb 25bc 0df7 aebc 6cc1 6abd
00000060: cd93 23bc a11d afbc daad 6ebd 592b 24bc
00000070: d264 adbc ca6c 6fbd
-0.007893706 -0.021568488 -0.0564698 -0.008196557 -0.021567099 -0.057001222 -0.008212053 -0.021396967
-0.058181453 -0.009250447 -0.021486524 -0.057578653 -0.009350943 -0.021493988 -0.05799052 -0.00871995
-0.021502316 -0.05700992 -0.009456636 -0.0214319 -0.05808097 -0.010119217 -0.021358037 -0.057313368
-0.009983969 -0.021376433 -0.058271267 -0.0100201005 -0.021166239 -0.05845336

exp_avg f4 [360, 7]
00000000: be54 5820 5fde c31f 0081 10a1 4ef3 46a1
00000010: 779b b1a0 5886 0ea2 6eb7 fe1f 269c 9b32
00000020: f4b4 e2b1 060d 9932 ca1a b6b3 8665 9db3
00000030: 7d69 11b3 c49e 9ab3 60bd 86a4 5c5a 9224
00000040: f7d6 e325 29b3 b8a6 22bc 3ca6 ddc9 9ea6
00000050: a082 dea6 9c4c 1031 8f69 3c30 48e9 b22f
00000060: 3e05 21b2 8e5a bdb1 5a72 a6b2 9996 0db2
00000070: 93ee b423 e5be 9823 3ad2 17a5 fb96 3d25
00000080: c5f5 0e25 4b10 66a5 c71c 6325 3297 9fab
00000090: 8673 0eaf 881f a330 9dfa e0b0 ac6b 50b1
000000a0: 9076 96af 8bae 8fb1 814c 5da4 1ffb f721
000000b0: deb5 2125 a2ff 4ba5 3952 17a5 007c 7da5
000000c0: 053f d3a5 22d3 f1b0 b6e0 b02e 0bd4 4ab1
000000d0: 6f07 2032 adb7 4a31 ca47 1cb2 ef8e 9730
000000e0: 5590 6bb2 4050 8f30 2327 21b3 2124 1334
000000f0: 68a9 9433 c197 bcb2 5482 0034 c07d 0531
00000100: 1047 1daf 79b1 9631 6de7 75b2 72bc 30b2
00000110: 06e8 ffb1 2b1a aeb2 3a64 842d 4c7c a92c
00000120: 8bdc a42e cdcd e2ae 7cd2 d5ae 63d6 01af
00000130: 39f0 ccaf e295 c9b0 fbd7 ab30 ddc0 a2b2
00000140: 728e 5e33 3a5f d832 036d 9eb2 b87d 2d33
00000150: 6b74 0630 eb51 12af e523 5c31 dd85 05b2
00000160: 3354 dbb1 ba29 83b1 ca1d 78b2 1554 5da6
00000170: 448c 46a5 f964 6427 876c d3a7 c2ce b4a7
00000180: b2c3 97a6 481e 1ca8 f4b7 b122 55a8 7824
00000190: b4f4 6ba5 a5d5 8825 b2e6 8425 533c 20a6
000001a0: c695 ca24 b2e3 9f23 0345 ba23 2065 4d24
000001b0: e822 94a5 3c9b 3ba5 fe84 04a5 05c1 d5a5
000001c0: d6d9 d9a7 3e99 d626 ad3b 97a8 3db3 d128
000001d0: 8f44 cc28 1047 bea9 0a0a 2229 407c 12a6
000001e0: 0f12 8027 9212 2229 0a50 eba9 8a66 9aa9
000001f0: be39 a2a9 a31b 24aa e750 06a9 9f5c f827
00000200: 2fe8 1ea8 65ba 35a9 d7c6 b027 25b9 bbaa
00000210: 4a89 68a8 346e 6ca4 f037 2f25 8d6e 2fa6
00000220: ea4f ce26 7378 a326 d203 97a6 76ab 3b26
00000230: a63a 9630 6a0f c72f 6454 c5b1 9caf dc31
00000240: 527f 6530 70ee a1b1 0aae 2931 dea4 0d32
00000250: c1d0 65b1 ef7f 4f32 919a 49b3 a814 27b3
00000260: ec9f 9bb2 d83e 3db3 d9b8 9e31 12b6 5630
00000270: abe2 cf31 1d57 47b3 e3c8 09b3 3c99 05b3
00000280: 7156 01b3 6761 7031 213f b230 cd96 adb2
00000290: fc4e 1a33 eae8 7332 f82a 5331 7cb8 1b33
000002a0: e871 7922 a035 6a24 46b1 81a5 25cf 9c25
000002b0: 4cc4 9125 8358 2ea6 9bd2 2625 57af 2db1
000002c0: b413 2a30 df19 7eb2 4a72 4133 b793 af32
000002d0: 6105 97b1 9902 2933 220c c823 b12b a723
000002e0: 97fd 2aa5 35ce 5825 bb24 2225 7ab1 80a5
000002f0: 2c92 8325 7cac 2831 922c 0331 1175 e2b2
00000300: 706b 8133 ff1d e432 d155 42b2 ccec 5733
00000310: 0bd4 53b0 97f1 9a30 3adf ceb2 0a0d a033
00000320: 4f9c cf32 48d6 1fb2 81d9 6233 29c5 06a8
00000330: 46bb 6228 c818 9ea9 90a1 002a 30ff dd29
00000340: 85dd 6aaa 6297 da29 3c6a b2b2 3427 a0b1
00000350: 0935 b132 f89e db32 95f6 cb32 1525 8bb3
00000360: 9fc3 d831 062d 2a31 c3d6 8c30 8434 5bb2
00000370: 6338 a932 07a5 0732 8858 95b1 89f7 6c32
00000380: 022d 93b2 6cdf 51b1 099d 3f32 4097 0433
00000390: 8bd3 ad32 f9b6 6eb3 6b79 0332 2d07 04a8
000003a0: f1c3 6e26 c5d9 5d27 c275 34a7 5272 8427
000003b0: e018 4fa9 da10 65a7 e314 b922 f1b0 ac22
000003c0: 8ffa 21a4 0f51 4324 29fd 1624 a247 84a4
000003d0: 7b6c 6524 0e61 0c30 9e43 a930 63d2 56af
000003e0: 31b2 8db1 8160 8cb0 d207 0db2 8b49 c7b1
000003f0: b6fd 0531 7028 90b0 f156 1032 e549 cdb2
1.832395e-19 8.2953594e-20 -4.895983e-19 -6.740702e-19 -3.0087844e-19 -1.931571e-18 1.07876643e-19 1.8115383e-08
-6.5980377e-09 1.7817467e-08 -8.479908e-08 -7.329349e-08 -3.3856384e-08 -7.200063e-08 -5.843405e-17 6.347048e-17
3.952389e-16 -1.2816126e-15 -6.548057e-16 -1.1018168e-15 -1.543975e-15 2.0998305e-09 6.854401e-10 3.2543768e-10
-9.372625e-09 -5.510919e-09 -1.9376944e-08 -8.241522e-09 1.961668e-17 1.656072e-17 -1.316839e-16 1.6444291e-16
1.2399807e-16 -1.995484e-16 1.9698862e-16 -1.1339595e-12 -1.2955867e-10 1.1868773e-09 -1.6369374e-09 -3.0329188e-09
-2.7369085e-10 -4.181691e-09 -4.7986537e-17 1.6803842e-18 1.4026143e-16 -1.7694055e-16 -1.312502e-16 -2.1986265e-16
-3.664537e-16 -1.7595065e-09 8.04347e-11 -2.9515401e-09 9.314916e-09 2.9499276e-09 -9.096718e-09 1.102732e-09
-1.3711618e-08 1.0427428e-09 -3.752133e-08 1.3703585e-07 6.922602e-08 -2.195509e-08 1.1968342e-07 1.9425528e-09
-1.4304313e-10 4.385751e-09 -1.4313497e-08 -1.0287396e-08 -7.4478548e-09 -2.0268166e-08 1.5051172e-11 4.8170686e-12
7.497033e-11 -1.0313848e-10 -9.723508e-11 -1.1808647e-10 -3.7278072e-10 -1.4667274e-09 1.2503273e-09 -1.8946986e-08
5.1817956e-08 2.5189014e-08 -1.8443194e-08 4.0394042e-08 4.8914356e-10 -1.3307726e-10 3.2034617e-09 -7.772056e-09
-6.383311e-09 -3.8173456e-09 -1.4442273e-08 -7.678873e-16 -1.7221286e-16 3.1696094e-15 -5.868193e-15 -5.0184203e-15
-1.0530773e-15 -8.666306e-15 4.8170714e-18 5.391901e-17 -2.046591e-16 2.373701e-16 2.3054675e-16 -5.5592906e-16
8.785726e-17 1.7335247e-17 2.0195388e-17 4.4537945e-17 -2.569756e-16 -1.627226e-16 -1.1494234e-16 -3.7080405e-16
-6.0465777e-15 1.4890769e-15 -1.6790248e-14 2.3281393e-14 2.2678282e-14 -8.4500224e-14 3.5979933e-14 -5.0822316e-16
3.5546716e-15 3.5987333e-14 -1.0449981e-13 -6.8567615e-14 -7.204262e-14 -1.4575714e-13 -2.982415e-14 6.8934248e-15
-8.821109e-15 -4.0351745e-14 4.9065396e-15 -3.3346343e-13 -1.2908357e-14 -5.1267688e-17 1.5197783e-16 -6.0865146e-16
1.4315782e-15 1.1343045e-15 -1.0478765e-15 6.511103e-16 1.0930605e-09 3.6208841e-10 -5.7430487e-09 6.422807e-09
8.349065e-10 -4.712824e-09 2.4691666e-09 8.244767e-09 -3.3442549e-09 1.20780745e-08 -4.6939537e-08 -3.8901504e-08
-1.8117099e-08 -4.4062148e-08 4.61942e-09 7.8111484e-10 6.050262e-09 -4.6412527e-08 -3.2080504e-08 -3.110584e-08
-3.011377e-08 3.4979963e-09 1.2969147e-09 -2.0208427e-08 3.5927755e-08 1.419742e-08 3.0728966e-09 3.6256537e-08
3.3806094e-18 5.0786084e-17 -2.2498058e-16 2.7202053e-16 2.5286506e-16 -6.0488333e-16 1.4469561e-16 -2.5274483e-09
6.187364e-10 -1.4790628e-08 4.504026e-08 2.0439854e-08 -4.39529e-09 3.935074e-08 2.1689182e-17 1.812468e-17
-1.4831069e-16 1.8804879e-16 1.4063705e-16 -2.2324723e-16 2.2823927e-16 2.4545264e-09 1.9088344e-09 -2.6363098e-08
6.0265734e-08 2.6556334e-08 -1.1311799e-08 5.0273954e-08 -7.7062684e-10 1.1273639e-09 -2.4083068e-08 7.4529524e-08
2.4169053e-08 -9.30374e-09 5.2817544e-08 -7.4812466e-15 1.2586129e-14 -7.0209084e-14 1.1424737e-13 9.8586395e-14
-2.086023e-13 9.7074055e-14 -2.0770237e-08 -4.6610698e-09 2.062963e-08 2.5567246e-08 2.3744443e-08 -6.479437e-08
6.308667e-09 2.4763849e-09 1.024738e-09 -1.2759418e-08 1.9699831e-08 7.895557e-09 -4.3465356e-09 1.3793291e-08
-1.713352e-08 -3.0540503e-09 1.1153369e-08 3.0871206e-08 2.023605e-08 -5.5580106e-08 7.652811e-09 -7.329028e-15
8.283839e-16 3.0787964e-15 -2.5043855e-15 3.6761306e-15 -4.598481e-14 -3.178927e-15 5.0166465e-18 4.6808037e-18
-3.512354e-17 4.2352544e-17 3.27405e-17 -5.7367225e-17 4.9748346e-17 5.1069626e-10 1.2315586e-09 -1.9537931e-10
-4.123898e-09 -1.0213769e-09 -8.209058e-09 -5.800023e-09 1.9498265e-09 -1.0488872e-09 8.401671e-09 -2.3898744e-08

exp_avg_sq f4 [360, 7]
00000000: 79eb 8f1a ba83 8e18 446d db1b 00b6 8c1b
00000010: 8872 bd1a 00de 9e1b 26b5 771c b3fc 5e28
00000020: 3af6 d026 ad35 9528 87f1 542a 40e1 062a
00000030: 97b7 a428 9cca 1d2a 5f4b 8919 9efe 3a17
00000040: 503b c11a 05c0 b11a e171 fa19 2832 1d1a
00000050: 2a58 861b 1d22 1727 9257 1227 a6f5 9526
00000060: af95 fa28 ee9d 5428 0df1 d327 9c8e 4829
00000070: f895 4e1a 60db 4518 d193 931b 397f 4e1b
00000080: 379f 781a e9a3 321b e1d5 291c d893 ac25
00000090: 6b7d 9624 2774 3324 2212 a127 578f 1227
000000a0: 5238 4326 86f7 bb27 8a85 2d1a 7fba 1c18
000000b0: 7e9d 801b b98f 4f1b 477b 8d1a 9043 b21a
000000c0: 78b5 191c 185d 1528 9d4d cb25 36d3 3929
000000d0: a098 3629 063b 5f28 23e7 3928 8aeb df29
000000e0: a158 2a2a 72ba af28 2570 eb2a fcd9 c82b
000000f0: b425 142b 0f28 9b2a 80a7 2d2c 2713 7b26
00000100: 900d 4525 03ea 5127 2fe8 0228 303a 5827
00000110: 28dc 1d27 72c0 4128 a998 e121 67c9 0c21
00000120: 539f 4821 d20b bc23 e8b4 1223 0c29 9422
00000130: 64a2 ff23 8271 1729 34a9 8e27 d1b7 162a
00000140: 877e 902a d20a ac29 1f79 9629 4973 1a2b
00000150: b106 5b26 cd2b 3a25 d313 bf26 dc6d 1628
00000160: a346 7d27 8c88 f526 0064 4628 ca4d 781b
00000170: c934 2d19 81df 861c 0bdc d01c f484 de1b
00000180: f59f e81b 412d 741d 2116 c019 aa72 2b17
00000190: 6568 d91a 0292 bb1a 120b 011a cf21 f019
000001a0: 6d2c 831b fa3a 891a 2d34 2318 d034 cf1b
000001b0: adb0 371b d285 a51a 20d8 351b 72a9 761c
000001c0: 870c 9219 9d9c 7017 af15 af1a 4c82 d01a
000001d0: 93f5 241a e893 2c1a 6a9d 861b 09db a31a
000001e0: 6185 7918 a6ec d81b 7f62 ae1b 9b5c cd1a
000001f0: 061f f41a 6425 7a1c 646b 271a 6117 2b18
00000200: 3642 591b 811b 621b 9f83 4b1a df5c 741a
00000210: 9f84 051c a67e c519 80c8 5e17 4784 ea1a
00000220: 1065 f01a 2dad 2f1a 0ca6 3e1a 18d9 9c1b
00000230: f3f5 bb27 d4e2 3525 0bd2 f328 700e e128
00000240: f0bd 0c28 59dc c927 8c11 8629 c703 6e27
00000250: 941d bb25 c0a1 0b28 a7dc 6129 5fb4 0a29
00000260: 6a59 f927 4734 4329 a271 6728 c5a1 dd27
00000270: e696 fe27 e432 862a 6c75 372a 693d a028
00000280: 8eb1 452a 079e 6628 41d3 3e26 77ab 5b29
00000290: f08b ba29 6bef 0629 3591 a228 912c 352a
000002a0: 7735 2b1a e702 bb17 5ac8 4a1b e823 331b
000002b0: 57ca 7b1a 8cf0 8c1a c971 e81b 01c7 9928
000002c0: e950 1727 84f1 5629 aa87 352a c19a 8629
000002d0: d770 1129 f18c 9c2a 0010 6e1a 33de 5e18
000002e0: a5e7 a71b 5b18 511b f8fb 891a 961a 911b
000002f0: ade1 3b1c 00cf 2e29 1776 ad27 71e9 1c2a
00000300: 0ff8 b42a ff09 e529 d16c c029 4c8d 362b
00000310: 77cf a329 eae6 7828 bee8 022a 34c3 7b2b
00000320: fdd8 c22a c905 512a 8284 c22b 5e78 3e19
00000330: cbce f916 fba9 761a 19f4 5d1a 58f1 7319
00000340: 00c5 8219 c32b 0d1b 160e 3029 5036 2428
00000350: 50f2 1f2a 9134 d62a 1be5 f629 2be3 f829
00000360: dd9e 692b 1669 3128 37be 9425 7b5c 5b29
00000370: 8d70 3e29 282d 6728 05ea 2a28 f02d e829
00000380: 9dcd 5329 767d 0f28 1311 5a2a 9d60 da2a
00000390: 9588 f529 d435 e929 1a2e 742b 9873 181a
000003a0: 2fba d017 0f8f 611b 2c8b 971b 584c bf1a
000003b0: 4d17 cf1a 87e9 1f1c 05b2 711a 6fbf 5d18
000003c0: 6c5f ac1b 50a1 6b1b 2be3 921a e3d8 541b
000003d0: 2bda 4a1c 7bac d926 2e82 b525 df65 8c27
000003e0: 71a9 7628 b797 2928 1bb4 7127 7985 8728
000003f0: ab54 c526 2094 0025 2669 c327 65aa 7228
5.952384e-23 3.683915e-24 3.6301122e-22 2.3278672e-22 7.83536e-23 2.6282371e-22 8.1959573e-22 1.2378271e-14
1.4499639e-15 1.6565601e-14 1.8913179e-13 1.197974e-13 1.8287277e-14 1.4014695e-13 1.419591e-23 6.0421213e-25
7.9918754e-23 7.351571e-23 2.589539e-23 3.2507355e-23 2.2225415e-22 2.0973952e-15 2.0309042e-15 1.0405535e-15
2.782049e-14 1.180261e-14 5.8825612e-15 4.4532615e-14 4.2720945e-23 2.557241e-24 2.4414634e-22 1.7081028e-22
5.141381e-23 1.4776777e-22 5.619384e-22 2.9937427e-16 6.5264597e-17 3.8912823e-17 4.4706136e-15 2.0339275e-15
6.7730544e-16 5.217129e-15 3.5883433e-23 2.0256684e-24 2.12776e-22 1.7169078e-22 5.85154e-23 7.372823e-23
5.0857996e-22 8.291348e-15 3.526748e-16 4.1261448e-14 4.05445e-14 1.2391785e-14 1.0319683e-14 9.944049e-14
1.5129782e-13 1.950976e-14 4.1822202e-13 1.4271358e-12 5.2632486e-13 2.7561327e-13 2.467776e-12 8.7109075e-16
1.7091621e-16 2.9131435e-15 7.2667965e-15 3.0007565e-15 2.1907474e-15 1.0755382e-14 1.5287002e-18 4.77004e-19
6.79735e-19 2.0388007e-17 7.952984e-18 4.015894e-18 2.771593e-17 3.3627188e-14 3.9596368e-15 1.338645e-13
2.5667334e-13 7.6402114e-14 6.682349e-14 5.487178e-13 7.5989957e-16 1.6147769e-16 1.3258661e-15 8.350495e-15
3.5149095e-15 1.7037301e-15 1.1012892e-14 2.0539214e-22 8.95455e-24 8.925151e-22 1.3821165e-21 3.6812738e-22
3.848455e-22 3.2316527e-21 1.9861272e-23 5.5397806e-25 8.9917755e-23 7.7577276e-23 2.6685517e-23 2.4829074e-23
2.1700842e-22 5.6757154e-23 2.1093598e-24 3.4279407e-22 1.5194492e-22 6.84586e-23 1.5041803e-22 8.1613575e-22
1.5101106e-23 7.7745856e-25 7.2413335e-23 8.623729e-23 3.4112778e-23 3.5688244e-23 2.2270167e-22 6.776909e-23
3.2249835e-24 3.5887133e-22 2.8849537e-22 8.4935625e-23 1.00966156e-22 8.276639e-22 3.462154e-23 2.2113035e-24
1.7971213e-22 1.8703169e-22 4.208574e-23 5.0533038e-23 4.4177417e-22 2.0420475e-23 7.1985135e-25 9.699384e-23
9.942495e-23 3.6329042e-23 3.942521e-23 2.5948329e-22 5.2169585e-15 1.57761e-16 2.7069511e-14 2.498628e-14
7.812747e-15 5.602761e-15 5.953839e-14 3.3031183e-15 3.2459372e-16 7.751124e-15 5.015142e-14 3.0798602e-14
6.9208326e-15 4.334404e-14 1.2847716e-14 6.1515213e-15 7.0662766e-15 2.3838494e-13 1.6294404e-13 1.77902e-14
1.7558717e-13 1.28018315e-14 6.6205795e-16 4.877649e-14 8.2843346e-14 2.996164e-14 1.8048587e-14 1.6091491e-13
3.540516e-23 1.2085324e-24 1.6773785e-22 1.4818135e-22 5.2069032e-23 5.829127e-23 3.8454712e-22 1.7072716e-14
2.0999321e-15 4.7727027e-14 1.6123097e-13 5.977641e-14 3.229434e-14 2.7808964e-13 4.923017e-23 2.880501e-24
2.777753e-22 1.7295944e-22 5.706895e-23 2.4005419e-22 6.216479e-22 3.8815305e-14 4.814518e-15 1.3936575e-13
3.2146548e-13 1.0171377e-13 8.5453895e-14 6.485548e-13 7.2746435e-14 1.3816837e-14 1.1627068e-13 8.944401e-13
3.4611889e-13 1.8564936e-13 1.3821307e-12 9.847078e-24 4.0358624e-25 5.1008917e-23 4.589891e-23 1.26115445e-23
1.3521253e-23 1.1677387e-22 3.9092068e-14 9.115606e-15 1.4206106e-13 3.8050512e-13 1.0964338e-13 1.105282e-13
8.2998696e-13 9.848261e-15 2.5802802e-16 4.8707982e-14 4.2286097e-14 1.2832868e-14 9.487641e-15 1.03108386e-13
4.7029753e-14 7.9653e-15 1.9368213e-13 3.8791618e-13 1.0903879e-13 1.0356616e-13 8.675019e-13 3.152624e-23
1.3488684e-24 1.8657789e-22 2.5070792e-22 7.911909e-23 8.565084e-23 5.2910514e-22 4.9981435e-23 2.866023e-24
2.8516678e-22 1.9490867e-22 6.0751194e-23 1.7606309e-22 6.711817e-22 1.5104151e-15 3.1486708e-16 3.8968255e-15
1.3692485e-14 9.4142825e-15 3.3543104e-15 1.5045895e-14 1.369257e-15 1.1152417e-16 5.4237375e-15 1.3470647e-14
