Weights/model_LSTM_Tempo_Temperature_interpol_80_(1500-3000)_(8000-8500).pth.tar (torch, 273478 bytes, 18 tensors)

lstm.lstm1.weight_ih_l0 f4 [231, 7]
000000 1f ec 9c bb 69 1c a8 3b 0c 42 89 bb 68 1c d9 3b
       -0.00478889 0.00513034 -0.0041887816 0.0066257007
000010 de 16 ce 3b 88 b2 88 ba ef 0e 31 3c a4 7e 02 3a
       0.006289347 -0.0010429183 0.010806783 0.00049779774
000020 4a a0 3b ba 8c 0b 38 ba 4a 38 02 b9 94 84 76 ba
       -0.0007157369 -0.00070207636 -0.00012418735 -0.0009403911
000030 7a 03 c5 ba 06 0d f7 39 35 af 16 bc 84 a3 0f 3c
       -0.0015030943 0.00047121214 -0.009197046 0.0087670125
000040 58 f6 bb bb a6 cc 4a 3c f6 53 13 3c ab 9f 9e bb
       -0.0057361536 0.012377894 0.008992186 -0.0048408112
000050 c4 c5 01 3c d0 cf d3 3a fa db 06 ba d8 28 27 b8
       0.007920686 0.0016159955 -0.00051444734 -3.985394e-05
000060 a7 ce 7d b8 80 05 25 bb 97 b9 bd 3b d9 24 b9 ba
       -6.051236e-05 -0.002518028 0.0057899463 -0.0014125361
000070 3b d9 b5 ba 93 e6 24 ba 91 51 22 3b bd 1d 2e 3b
       -0.0013873944 -0.0006290462 0.0024767856 0.0026568018
000080 a2 67 54 3b 95 ba 24 ba d3 00 0f 3b d4 b8 d5 3a
       0.0032410403 -0.00062839064 0.002182056 0.0016305693
000090 c3 18 44 bb 0c 06 ce 39 ce 2d 8f ba 6b 60 44 bb
       -0.0029921986 0.00039295887 -0.0010923685 -0.0029964696
0000a0 c9 dc 1d 3b 84 9b bb 3a e1 fd a5 bc 9b a5 b0 3c
       0.0024087897 0.0014313315 -0.02026266 0.021563342
0000b0 e5 80 ee bc b7 18 bd 3c bd 1e c9 bc c2 df 04 3d
       -0.029114196 0.023083074 -0.02455079 0.032439955
0000c0 72 20 8e 3c 7c d7 95 39 37 20 33 ba 5e 2b a5 3a
       0.017349456 0.00028580043 -0.00068331085 0.0012601425
0000d0 c8 32 0f 3b 8e 02 b9 3a 82 d9 e4 3a a8 df 4a 3a
       0.0021850336 0.0014115141 0.0017459842 0.0007739016
0000e0 47 7a 7b 39 6c cf d3 38 1c 78 b7 b8 17 2a b4 38
       0.00023982777 0.000100998994 -8.748492e-05 8.590909e-05
0000f0 0e d2 c3 b8 45 73 9c 37 ac bb c2 38 4d 70 05 b9
       -9.33745e-05 1.8650326e-05 9.2855975e-05 -0.00012725704
000100 59 14 c3 39 75 cc bc b8 28 14 2c ba ce 19 90 ba
       0.00037208459 -9.002622e-05 -0.0006564283 -0.0010994019
000110 f9 81 13 3a d2 15 4b ba 23 0e 20 bb 7e 46 3d 3b
       0.00056269724 -0.0007747087 -0.0024422489 0.0028881128
000120 e0 f2 91 3a 05 0b a4 3b 0d a1 49 3b cb e8 07 3c
       0.0011135004 0.0050061964 0.003076616 0.008295248
000130 31 98 cf 3a c5 52 0d b9 73 54 51 39 ad de 63 36
       0.0015838203 -0.00013477642 0.00019963253 3.395525e-06
000140 ad 2b 84 39 94 8b 4c 39 43 7d a4 3a 35 82 8f b8
       0.00025209543 0.00019506953 0.0012549538 -6.843024e-05
000150 49 8f 2b bc e5 52 17 3c 1e 6d 86 bb bc 16 6c 3c
       -0.010471174 0.009236072 -0.0041023633 0.014409717
000160 c8 ac 91 3c f0 e3 db bb db 01 1d 3c 2c f4 91 3a
       0.017782584 -0.006710522 0.009582962 0.0011135391
000170 7b 4c 27 bb 03 9d 35 ba 69 8f ab 3c 64 4a 1f 3c
       -0.0025527764 -0.00069279986 0.020942407 0.009722326
000180 fd f4 0a bd aa 0b 95 3a e3 e9 ad b9 fb 72 1f 3b
       -0.033925045 0.0011371274 -0.0003317139 0.0024330008
000190 9d 7d a9 3c ba 2c a9 3c 65 30 ae 3c f8 3d a6 3c
       0.02068978 0.02065121 0.02126331 0.02029322
0001a0 e0 93 80 3c fd 79 77 3b e6 90 32 3c 6c 73 a6 3c
       0.015695512 0.003776192 0.010898804 0.02031871
0001b0 b3 bd 11 3d 2b 8c 34 3d 4d 06 b7 3c ac 5b e1 3c
       0.035581302 0.044078987 0.022341872 0.027509533
0001c0 e6 2a ec b9 03 39 88 3a f7 44 d0 3a 84 b9 2c 3b
       -0.0004504539 0.0010392967 0.0015889694 0.0026355693
0001d0 86 bd 2b 3b 6d c1 d5 bb a2 1b 0a 3b 9c da a0 3b
       0.0026205494 -0.0065233023 0.00210736 0.004908873
0001e0 7a 44 4e bc 6c 4c 52 bc 8f d2 f2 bb 4f dc 21 bd
       -0.012589568 -0.012835603 -0.0074103544 -0.039516743
0001f0 4c 60 d0 3c 58 4f f0 bb 54 74 33 39 4a 79 0e 3a
       0.025436543 -0.0073336773 0.00017114106 0.00054349436
000200 b9 1a 43 3a a4 0a 08 3a 6e c7 70 ba 41 41 ce 3b
       0.00074426417 0.0005189574 -0.0009184991 0.0062944
000210 b6 95 8d 3a a2 fa 2e bc da 9f 43 3c 64 d2 89 bb
       0.0010802064 -0.010679873 0.011939967 -0.0042059887
000220 1b 49 87 3c 09 26 8a 3c c9 3d fd b9 99 9c e8 3b
       0.016514352 0.01686384 -0.00048301954 0.007098746
000230 82 b3 2b bb ac c5 c3 39 d8 e1 86 3a 63 88 5a 3b
       -0.0026199524 0.00037340575 0.0010290695 0.0033345453
000240 b3 4c 66 3b e7 92 29 3a f0 ee 34 3b 61 52 a4 ba
       0.003514093 0.00064687285 0.0027608238 -0.0012536758
000250 1b 59 23 3a f5 fc 2f 3a e4 02 a1 3a d8 41 02 3b
       0.00062312343 0.0006713414 0.0012284187 0.0019875672
000260 25 31 d6 39 62 19 48 3a 23 80 82 bb 56 a0 20 3c
       0.00040853876 0.0007633177 -0.0039825602 0.009803852
000270 6b a3 16 3d 9d 32 59 3d 7b 5b 87 3d da 0d 6d 3c
       0.03677694 0.053026784 0.066092454 0.0144686345
000280 2c ce fb 3c f9 bb 1c ba 99 b8 02 b8 59 64 b5 39
       0.030737959 -0.0005978938 -3.1166335e-05 0.00034597775
000290 d7 22 24 3a 55 da 3f 3a bd 3c 2b 39 81 e3 b2 39
       0.0006261295 0.0007318606 0.00016330458 0.0003412031
0002a0 a8 b0 dd bb a7 7a 2d 3b af 29 a0 bb 12 cc b7 3c
       -0.006765444 0.0026470812 -0.0048877816 0.022436175
0002b0 42 28 99 3c 37 11 80 bc 86 1c 9a 3c 70 cd 25 ba
       0.018695954 -0.015633209 0.01881243 -0.0006324863
0002c0 a6 5f 90 3a 7d 31 f1 b8 f0 36 5b 3a a0 c1 a7 3a
       0.0011014834 -0.000115009934 0.00083623733 0.0012798794
0002d0 7a 2e 93 3b a9 dc d2 3a 5c c9 85 ba 0c e9 31 3b
       0.0044916244 0.001608749 -0.0010207104 0.0027146963
0002e0 22 60 9d ba 83 fa a6 3a df 8a fa b9 58 d2 d8 3b
       -0.0012006799 0.0012739453 -0.00047787183 0.006616872
0002f0 8a 3c 08 3a ef ca 48 ba 16 11 44 3a 7f c8 ba ba
       0.00051970093 -0.0007659634 0.00074793526 -0.0014250426
000300 e6 2f 68 3b 9d 41 9c 3b 00 3f 8c 37 4b ce fd 3b
       0.003542894 0.004768564 1.6718637e-05 0.0077455393
000310 7c 4c c0 3a 53 30 12 3b 1a 4b 8a 3b 37 b5 cb 3b
       0.0014671232 0.0022306636 0.0042203786 0.006216671
000320 11 b3 11 3c f1 48 96 3b 72 f7 f8 3b bf be b0 3a
       0.00889279 0.004586332 0.007597857 0.0013484581
000330 1f 6d 80 b9 bf 8e 52 39 7a 1d 6c bb ae 1d 6c bb
       -0.00024495364 0.00020080338 -0.0036028312 -0.0036028433
000340 b0 5c c7 bb 4b ce 9e 39 1e a1 4c bb 59 d3 b4 3b
       -0.0060840473 0.0003028981 -0.0031223963 0.0055183587
000350 08 84 20 ba a3 b9 cb 3b 85 f2 96 3a 3a ad 06 bc
       -0.000612319 0.006217198 0.0011516368 -0.008220011
000360 6c 09 34 3c 1b b7 10 bc 3f c5 1a 3c 0e aa be bb
       0.0109885745 -0.008832718 0.009446441 -0.005818612
000370 0b ee b1 3c a5 31 42 3b 65 93 5f bb 9b 20 44 3c
       0.021719953 0.0029631641 -0.0034114954 0.011970664
000380 64 af 8b 3a 4c 66 78 ba 72 a9 3e bb 23 f3 a6 bb
       0.0010657129 -0.00094756926 -0.0029092696 -0.005094902
000390 a0 06 eb ba 70 6e e0 bb 63 0f 96 3b ea c3 5d 3b
       -0.0017931052 -0.0068491027 0.004579471 0.0033838698
0003a0 0b 5c 5c 3a cb b9 80 ba b7 78 e2 bb a3 38 20 bc
       0.00084060495 -0.0009820996 -0.006911363 -0.009779128
0003b0 2d a7 6f bb eb 9d 7d bb 21 60 e0 bb a2 60 0c 3c
       -0.003656815 -0.0038698863 -0.006847397 0.008567961
0003c0 08 69 b0 ba 9e db 63 3c d4 e6 25 3c ec 86 a7 3c
       -0.0013459036 0.013907341 0.0101258345 0.020450078
0003d0 4d ab 8f 3b 6e be 6b 39 5b 1e 03 39 ef d3 14 39
       0.0043844343 0.00022482287 0.00012504442 0.00014193331
0003e0 28 32 81 39 66 00 24 3a 32 b4 b0 b8 08 fc 7b 39
       0.00024642167 0.0006256163 -8.425898e-05 0.00024031114
0003f0 84 0e 16 bc 23 6a 16 3c 89 34 95 bb 61 3d c5 3b
       -0.009158734 0.009180578 -0.004553382 0.00601928

lstm.lstm1.weight_hh_l0 f4 [231, 77]
000000 8c ad 1c bb 52 82 8e 3b ed 98 68 3b af 43 63 bb
       -0.0023907153 0.0043490315 0.0035491541 -0.0034677794
000010 8a c3 2f bb 27 76 db b9 3c 3e 77 3b fd 59 00 bb
       -0.0026819431 -0.00041858965 0.0037726304 -0.0019584887
000020 a8 7c 14 ba e3 b8 11 bb e1 81 9c ba 28 be e8 3a
       -0.0005664327 -0.0022235445 -0.0011940562 0.0017756866
000030 d0 82 2a bb 31 e3 e3 3a 5b 0e 8e 3b a8 6d 6b bb
       -0.0026017912 0.0017386434 0.0043352074 -0.0035923515
000040 a6 5b 20 bb 07 17 1b ba 4a 7f ad 3a b2 26 97 bb
       -0.002446869 -0.0005916212 0.0013236788 -0.004612767
000050 b8 6d dd ba bd 4a 06 3b 6e 89 83 3b f4 54 60 39
       -0.0016893661 0.0020491325 0.0040141856 0.00021393952
000060 9b e0 4b 3b b1 d0 33 3b 08 10 72 bb e6 fb 8e 3b
       0.0031109217 0.0027437622 -0.0036935825 0.0043635247
000070 2b 17 2e 3b 5c 87 16 bb 66 f3 45 3b 18 b4 5a bb
       0.0026564102 -0.0022968864 0.0030204891 -0.0033371504
000080 a5 ec 94 3b e7 52 17 bb 8f fd 8f bb cd 20 96 3a
       0.004544812 -0.0023090185 -0.00439424 0.0011453867
000090 9a 23 45 bb 1c c5 b3 3a b7 4c 7e 3b 7a c2 69 bb
       -0.0030081035 0.0013715359 0.003880305 -0.0035668896
0000a0 98 ef 74 bb de 1a aa 3b 56 e4 38 3b 7a 77 6f 3b
       -0.0037374254 0.005191191 0.002821227 0.003653972
0000b0 3f f5 19 3b 72 84 30 3b 2e 92 88 3a a2 52 58 bb
       0.0023492125 0.0026934412 0.0010419542 -0.0033008237
0000c0 5e b1 25 ba 41 af 3a bb 37 3d 7d 3b fb 22 04 bb
       -0.000632068 -0.0028485807 0.0038641223 -0.0020162452
0000d0 ce 3a 08 ba 2b 79 01 b9 6c f7 b8 ba 7a 3c e6 39
       -0.0005196751 -0.00012347537 -0.0014111823 0.00043914077
0000e0 37 83 a5 3a 69 38 ec 3b 8f 6b 46 3a 16 89 62 b8
       0.0012627606 0.007208873 0.0007569128 -5.401027e-05
0000f0 e6 e7 e3 ba 0a 1d 83 3b b9 9c 51 3b 51 31 51 3b
       -0.0017387837 0.0040012645 0.0031984283 0.0031920264
000100 77 0a 8a bb 75 a8 33 3a 55 32 39 bb 08 bc b8 bb
       -0.0042126733 0.000685341 -0.002825876 -0.0056376494
000110 4d 0c 1a bb a3 c2 10 bb 3e c4 93 bb 2e 40 73 3b
       -0.0023505867 -0.0022088669 -0.004509478 0.0037117111
000120 dd a6 4e 3b 81 3a d4 3a ea c7 29 bb ff 93 b5 b9
       0.0031532564 0.0016191752 -0.0025906512 -0.00034633276
000130 cc 08 19 39 fd 14 4e 39 8a cc 32 39 5b 1b 0b 38
       0.00014594494 0.0001965351 0.000170516 3.316566e-05
000140 48 66 f8 b8 a3 33 c1 b9 27 31 2a b9 59 07 4d 38
       -0.00011844613 -0.000368503 -0.00016230774 4.888265e-05
000150 52 97 6c b9 a7 20 e7 b8 d9 01 0a b9 0c 08 46 39
       -0.00022563085 -0.0001102102 -0.00013161394 0.00018885749
000160 8f e9 6e 39 34 e1 bc 39 f4 ac 28 ba 2f 0c 70 39
       0.00022784456 0.00036025944 -0.00064344634 0.00022892722
000170 93 2b 2f ba 3c 5a a9 38 f0 15 92 b9 c8 61 9d b9
       -0.0006682213 8.0753554e-05 -0.00027863635 -0.00030018226
000180 ea e3 9e b9 c1 2d 83 b6 bc d2 41 39 c1 3c 10 3a
       -0.00030305918 -3.9094307e-06 0.00018484419 0.0005502217
000190 39 88 11 38 19 57 0c ba 4c f9 fe 39 5e b8 a9 b9
       3.469756e-05 -0.0005353555 0.00048632396 -0.00032371556
0001a0 d7 22 0c 37 7b c3 09 3a 9e 3b 1d 38 70 26 62 b9
       8.352762e-06 0.0005255264 3.748724e-05 -0.00021567359
0001b0 4a a4 2f 3a a4 41 ab b8 7e 56 11 38 c1 26 2a 37
       0.0006700201 -8.166142e-05 3.4651246e-05 1.0141813e-05
0001c0 04 f5 65 39 b4 82 10 39 b0 a5 94 b9 b6 bb d1 39
       0.00021930417 0.00013781601 -0.00028352207 0.00040003442
0001d0 80 32 87 b9 ca 26 78 b9 90 fc 6a 39 63 51 f1 b9
       -0.00025786832 -0.00023665573 0.00022410066 -0.0004602774
0001e0 00 a4 42 b9 11 f1 1b 3a 5f 1c f5 b9 5d 66 78 38
       -0.00018562376 0.00059487025 -0.0004675118 5.922314e-05
0001f0 48 89 68 b9 b9 2a 81 38 01 a7 dd 39 41 62 5b 39
       -0.00022176385 6.159157e-05 0.00042276832 0.0002092207
000200 8a 0e 10 ba c0 b2 31 b9 e4 16 e9 b9 ce a2 c4 38
       -0.00054953306 -0.00016946625 -0.00044458278 9.376333e-05
000210 7e 22 98 39 df 83 58 b8 30 ec 01 3a 51 19 23 3a
       0.00029017398 -5.1621228e-05 0.0004956154 0.0006221729
000220 89 a5 e8 b7 42 3d e1 39 92 d9 9f 39 c8 12 94 b8
       -2.7733638e-05 0.00042960985 0.00030488946 -7.060688e-05
000230 2f a5 15 ba d4 8b b4 38 45 bb 2d b7 e2 5d 24 ba
       -0.0005708513 8.609114e-05 -1.0355206e-05 -0.0006270093
000240 f9 6c 00 b9 72 c5 5c ba 7f 43 cc 38 97 18 0e 3a
       -0.00012247627 -0.00084217556 9.74005e-05 0.0005420534
000250 8c 99 f5 b8 1a 03 57 b9 1e 68 7b 3a ab 3a 4e 38
       -0.00011711111 -0.00020505153 0.0009590405 4.9168866e-05
000260 22 72 76 b9 d9 3c b5 37 98 57 a2 bb ca 2b b7 3b
       -0.00023502906 2.1605216e-05 -0.0049542896 0.005589937
000270 35 20 ca 3b 75 e2 9f bb ff 58 4e bb bd 5f 16 ba
       0.00616839 -0.0048792907 -0.0031486151 -0.0005736312
000280 42 fd e0 3b ec 79 16 bb 8c 4d 46 ba 8c a9 38 bb
       0.006866128 -0.0022960855 -0.0007564656 -0.002817723
000290 4f 81 14 bb 85 12 0d 3b 3a f7 9e bb 45 a5 4e 3b
       -0.0022660082 0.002152593 -0.004851249 0.0031531614
0002a0 a8 0e c1 3b 2b d7 9f bb 05 ac 4e bb 66 21 b8 ba
       0.0058916397 -0.004877945 -0.0031535637 -0.001404804
0002b0 55 b4 53 3b 91 c8 df bb d3 06 12 bb 2f eb 35 3b
       0.0032303531 -0.0068293293 -0.00222819 0.0027758589
0002c0 ec 27 b3 3b 82 d5 de b9 27 57 bc 3b c7 c8 4d 3b
       0.0054674055 -0.00042502215 0.005747694 0.003140019
0002d0 09 f6 b5 bb 4b 1f bd 3b 8a d5 4e 3b d6 da 58 bb
       -0.0055530113 0.0057715527 0.0031560385 -0.003308942
0002e0 dd 0d af 3b 00 7f c9 bb 39 1e bc 3b 00 eb 35 bb
       0.005342229 -0.006149173 0.0057409075 -0.002775848
0002f0 fb e8 e1 bb e6 02 92 3a 38 63 a6 bb 73 78 46 3b
       -0.0068942285 0.001113978 -0.0050777458 0.0030284196
000300 d2 2f 97 3b 88 8c 97 bb 8f 1a 94 bb 96 66 d2 3b
       0.004613855 -0.004624907 -0.0045197676 0.0064209206
000310 f5 a4 9f 3b 7e a5 b9 3b e7 de 11 3b 65 4e 7e 3b
       0.0048719593 0.00566548 0.0022258104 0.003880405
000320 a5 72 8a 3a d1 f4 97 bb 79 30 55 39 e5 b2 b5 bb
       0.0010562731 -0.0046373387 0.0002033132 -0.0055450075
000330 70 59 d0 3b 24 20 18 bb 1f 4c 6d ba 0b 18 91 3a
       0.006358318 -0.0023212517 -0.00090521754 0.0011069787
000340 9d bf 20 bb 86 6b a1 3a 98 f5 0d 3b 6a b4 0f 3c
       -0.0024528273 0.001231537 0.0021661278 0.008771041
000350 bb 65 23 b9 d1 8f b1 b9 96 06 61 bb 8d 84 aa 3b
       -0.00015582789 -0.00033867222 -0.00343362 0.0052037896
000360 f1 e1 a3 3b d7 20 c0 3b 61 42 cb bb 44 e4 47 3a
       0.0050012995 0.00586329 -0.0062029813 0.0007625262
000370 f2 19 59 bb 90 29 0b bc f3 b1 32 bb bc af 63 bb
       -0.0033127037 -0.008493796 -0.002726671 -0.0034742197
000380 c9 46 ed bb 21 65 a8 3b c6 d4 88 3b dd f3 e9 3a
       -0.0072411043 0.0051390086 0.004175755 0.0017849166
000390 72 3c 81 bb b5 6f e0 39 62 81 35 39 9c d5 62 3a
       -0.003943973 0.00042807838 0.00017309704 0.0008653046
0003a0 49 3c 6c 39 38 70 a8 b9 00 03 94 b8 23 57 20 ba
       0.00022529172 -0.00032127067 -7.057749e-05 -0.00061165
0003b0 80 5e 8d 39 12 3e 52 ba 7a 1c 7e 39 b1 1f 64 b9
       0.00026964024 -0.00080201135 0.00024233936 -0.0002175558
0003c0 c9 b7 5f b9 b9 b3 f6 39 f9 3b 23 39 1e 01 fc 39
       -0.00021335403 0.0004705468 0.00015567233 0.00048066018
0003d0 74 e3 a9 ba 7c 41 0a ba 33 aa 2a ba 36 87 0e 39
       -0.0012961463 -0.000527404 -0.0006510347 0.00013592545
0003e0 5d 33 04 3a 54 ae 16 ba e5 22 9c 39 a6 7a 8c 39
       0.0005043054 -0.0005748023 0.00029780637 0.0002679426
0003f0 a4 14 a3 39 88 b3 48 39 b4 a7 64 b9 9c e8 60 ba
       0.0003110516 0.00019140367 -0.00021806249 -0.00085795834

lstm.lstm1.bias_ih_l0 f4 [231]
000000 6c 68 a1 3c e6 f5 83 3b 16 9e b0 3c 7f 1e ba 3b
       0.019703113 0.004027116 0.021559756 0.005679905
000010 be c9 93 3b a8 01 2f 3c 00 a6 b4 3d 59 34 75 3b
       0.0045101335 0.010681547 0.088207245 0.0037415235
000020 89 c9 85 39 e1 3d 03 3b 66 2d 30 3c b0 f5 9b 39
       0.00025517892 0.0020025896 0.010753011 0.00029746955
000030 43 d3 8b 3c 99 91 cf 3c bb 3a 29 3d 64 74 8e 3d
       0.01706851 0.025337981 0.041315775 0.069557935
000040 f9 88 f8 3b 62 57 47 3d b3 b8 78 3c f1 64 f9 3c
       0.007584688 0.04866732 0.0151807545 0.03044364
000050 b3 ac 8c 3b 7f 21 03 3b 63 13 94 3d 93 b3 3c 3a
       0.0042930483 0.002000898 0.0723026 0.00071983895
000060 2a 2d 05 3d 8c dc 5d 3b 32 41 db 3b 98 1a 87 3c
       0.032513775 0.003385338 0.0066911215 0.016492173
000070 68 1c 36 3c dc 56 00 3c 73 03 e6 3c 76 04 f6 3c
       0.011115171 0.007833209 0.028077817 0.030031424
000080 74 fd 5a 3c a8 66 ec 3a 43 7c f9 3c 55 27 c9 39
       0.013366092 0.0018035965 0.03045476 0.00038367012
000090 ed 33 ba 3c 81 08 36 3d e5 f6 a3 3b 55 48 7f 3c
       0.022729838 0.044441704 0.0050037974 0.01558121
0000a0 00 4e c0 3b 97 69 8c 3c a3 24 a3 3c c4 26 a7 3c
       0.0058686733 0.017140193 0.01991493 0.020404227
0000b0 88 7b af 3a b5 8a b4 3c db 74 ca 3b e7 d4 c1 3c
       0.0013388256 0.022038797 0.006178481 0.02366109
0000c0 05 ec ac 3c 36 58 db 3c 63 df 05 3e 41 9e 23 3d
       0.021108637 0.02677546 0.13073497 0.039945845
0000d0 fa ce 37 3b f1 2e 6f 3c c6 7f f0 3b b5 6b 41 3c
       0.0028046952 0.014598594 0.0073394505 0.0118054645
0000e0 1b c5 50 3d e3 96 0a 3e 8c 89 7c 3c 8c 56 4f 3b
       0.050969224 0.13534121 0.015413653 0.003163728
0000f0 0c 12 bc 3c f6 71 8c 3c 37 a1 9a 3c a1 6d 2d 3d
       0.022957824 0.017144185 0.018875701 0.04234088
000100 c8 a4 56 3d 43 98 0a 3b 3c 82 ca 3c f6 84 a6 3c
       0.05240324 0.0021147884 0.024720304 0.020327073
000110 93 b5 7a 3d c5 10 32 3d 81 5d 51 3d 50 4c 07 3c
       0.06120832 0.043473024 0.051114563 0.00825794
000120 16 f7 1c 3d 55 07 32 3d 95 24 8d 3c 14 df a3 3c
       0.038321577 0.043464024 0.017229358 0.020003833
000130 cc 98 08 b7 90 61 d7 bb d3 57 d0 ba 72 88 0c bc
       -8.1418075e-06 -0.0065729097 -0.0015895314 -0.008577453
000140 b3 b2 25 ba 39 0b c6 ba a6 bc 9b bb d4 8a 10 bd
       -0.0006320879 -0.0015109546 -0.0047527133 -0.035288647
000150 4a 5c a2 ba 61 56 1a b8 72 7e 04 ba 44 b1 9f bb
       -0.0012387123 -3.6796908e-05 -0.0005054242 -0.0048734266
000160 b8 53 1e 36 96 4d e0 bb f0 d9 4d bc 86 9e aa bc
       2.3592565e-06 -0.0068451865 -0.012564167 -0.020827543
000170 78 41 d1 bc 5a 3e 79 bb 5b bb a0 bc 35 c5 a8 bb
       -0.025543913 -0.003803155 -0.019620588 -0.005150462
000180 31 aa 1c bc 3b a2 9e ba 79 d9 d8 b9 2b 90 14 bd
       -0.009562061 -0.0012102792 -0.0004136076 -0.0362703
000190 5c 95 ed b9 ad fc 6d bc a1 67 b9 ba fc 88 09 bb
       -0.00045315444 -0.014525575 -0.0014145264 -0.002098619
0001a0 1a 7e cb bb 97 79 b6 bb 20 1c 87 bb bd d3 51 bc
       -0.006210101 -0.005568694 -0.004123226 -0.01280683
0001b0 35 25 75 bc 99 fe 06 bc 0c a8 84 bb 67 3c 63 bc
       -0.014962484 -0.008239412 -0.004048353 -0.0138693815
0001c0 95 0d 18 ba 8b 1f ed bb 5f 29 65 bc 14 52 11 bb
       -0.0005800364 -0.007236426 -0.013986914 -0.0022174167
0001d0 1d 24 dc bb 05 51 3d bb f3 ba 9d bb 99 bb 01 bc
       -0.006718172 -0.0028887403 -0.004813546 -0.007918262
0001e0 8b 0b 28 bc 3b 1d 1c b9 1c 5c 19 bc 92 4e 34 bb
       -0.010256658 -0.00014888209 -0.0093603395 -0.0027512652
0001f0 bf 36 32 bc e6 ef 00 bc a7 af 7d bc 4d fc 40 bd
       -0.01087731 -0.007869696 -0.015483773 -0.047115613
000200 2d 56 92 bc 07 56 98 ba be 53 d0 bb 85 9a 36 bb
       -0.017863357 -0.0011622318 -0.006357639 -0.0027863097
000210 84 2e 88 bb f7 4a 6e bc c1 75 9f bd fe df e3 bb
       -0.0041559357 -0.01454424 -0.07786132 -0.006954192
000220 0e ab ac ba 5b a8 a2 bb 46 f9 eb bb 0f e1 0c bc
       -0.0013173537 -0.004963917 -0.0072013466 -0.00859858
000230 b2 3e a6 bc 9f 9f 9e bc 33 2d 2f ba 33 f8 66 bc
       -0.020293567 -0.019363223 -0.00066824554 -0.014097261
000240 ee 04 09 bc 0e 73 c8 bc b8 84 a0 bc 67 9a 95 bc
       -0.008362992 -0.024468925 -0.019594535 -0.018262101
000250 82 69 cc bb 19 9c 3f bc 86 99 96 bc 69 8b 1a bc
       -0.0062381634 -0.011694931 -0.018383753 -0.009432652
000260 8a 79 00 bc a1 4a 23 b5 53 0b 6c bc f0 33 d7 3d
       -0.007841477 -6.083083e-07 -0.014406997 0.10507953
000270 ce 56 00 3d 72 b6 8e bd ed f7 e2 bd 79 5b d1 3c
       0.031332783 -0.069683924 -0.11082444 0.025556313
000280 01 f2 0c bd 1f 3d 73 bd 64 41 42 bd 13 1b 42 bd
       -0.03441048 -0.05938446 -0.047425643 -0.0473891
000290 43 e6 8e 3d 12 08 60 3d fc 09 16 3d 61 9c 83 bd
       0.06977513 0.054695196 0.036630616 -0.06426311
0002a0 48 fb ec 3a ad 29 d6 bc c6 e5 09 3d 3e 2b 24 3d
       0.0018080259 -0.02614292 0.033666395 0.0400803
0002b0 9f cf 2a bd 6d b0 8f bd e3 b3 e1 ba 2c 9d 72 3d
       -0.04170191 -0.070160724 -0.0017219748 0.059231922
0002c0 a3 3f a8 3c cb ba c0 bb 88 e9 06 bc 91 46 9f 3d
       0.020538157 -0.0058816425 -0.008234389 0.07777131
0002d0 78 4e ad bd 52 f1 9e 3d 39 48 8d 3d 3d 30 fb bc
       -0.08462232 0.07760872 0.06898541 -0.03066265
0002e0 69 71 a2 bd 66 35 9f 3d b2 b0 6f 3d 7e 50 81 3c
       -0.079317875 0.07773857 0.05851812 0.015785452
0002f0 86 7f df bc f1 78 e4 3c 0b e3 b3 bc 1e 5f a4 3d
       -0.027282488 0.0278897 -0.021958848 0.08025955
000300 9d 83 8a 3d 48 b9 38 bd a6 2b 82 bd f8 c2 8b 3d
       0.067633845 -0.045098573 -0.063559815 0.06824297
000310 e8 b6 94 bd 09 06 2c 3d 58 5a cd 3d 85 3d d1 bc
       -0.07261449 0.041997943 0.10026997 -0.02554203
000320 02 78 83 3c a7 6f 85 bc 51 b8 51 bd 91 e4 19 3d
       0.016048435 -0.016288592 -0.05120117 0.037571494
000330 f0 d9 78 bd 9f d9 8b 3c c5 3a ae 38 1e 68 b9 bd
       -0.060754716 0.017071543 8.307913e-05 -0.09053062
000340 34 3f 33 bc 6b 7f 69 3d e3 82 ec bc 66 b8 b3 3c
       -0.010940362 0.05700628 -0.028871005 0.021938514
000350 b1 b2 2f 3d 69 49 51 bd 7d d2 9a 3d c8 46 3d 3d
       0.042895023 -0.0510954 0.07559679 0.04621008
000360 9e bc d8 3b 6e 97 2d 3c 9f a5 59 bd f7 47 5f bc
       0.006614282 0.010595186 -0.053136464 -0.013627998
000370 be d8 d9 bd 7f 92 88 bd 3e 2e c4 bb f2 48 aa 3d
       -0.106370434 -0.06668567 -0.005986958 0.083146945
000380 bc 20 52 3d 8b 3e 82 bc f3 00 0e 3d 9a 60 c4 3d
       0.05130075 -0.015898963 0.034668874 0.09588738
000390 7d 68 46 3c 01 fd 61 3d 2d a0 3f 3c
       0.012109873 0.055172924 0.011695904

lstm.lstm1.bias_hh_l0 f4 [231]
000000 1b aa a3 3c 62 f2 83 3b 6e e9 b7 3c ac 3e ba 3b
       0.019978574 0.004026697 0.022450175 0.0056837406
000010 fe 5f 93 3b a0 01 2f 3c f9 d7 c4 3d 59 34 75 3b
       0.004497527 0.01068154 0.09611506 0.0037415235
000020 87 c9 85 39 34 05 04 3b 29 76 2f 3c b0 f5 9b 39
       0.00025517886 0.0020144703 0.010709324 0.00029746955
000030 61 17 52 3c 36 f8 61 3d 5c 99 45 3d 8e e8 8b 3d
       0.012822957 0.055168353 0.048241958 0.06831466
000040 eb 88 f8 3b 59 2a 47 3d ea 18 69 3c b3 ba c7 3c
       0.0075846813 0.04862437 0.014227131 0.024381017
000050 4b 20 8e 3b 7f 21 03 3b aa 64 a4 3d 93 b3 3c 3a
       0.0043373457 0.002000898 0.08027013 0.00071983895
000060 ce 30 5f 3d c8 78 5d 3b ce fc db 3b 92 68 a0 3c
       0.054489903 0.0033793915 0.0067134863 0.019581113
000070 dd 28 36 3c 85 af 0f 3c c9 38 11 3d 9d 42 8d 3c
       0.011118141 0.008769874 0.035454545 0.017243678
000080 74 d1 a0 3c 64 e3 41 3c 2e ab 16 3d 55 27 c9 39
       0.019631125 0.011833999 0.036784343 0.00038367012
000090 0d ac a6 3c 7f c8 3a 3d e5 f6 a3 3b 4b 44 7f 3c
       0.020345712 0.045601364 0.0050037974 0.015580247
0000a0 29 59 bf 3b 5a 53 53 3c 75 2f a7 3c 24 6b 0f 3c
       0.005839486 0.0128982905 0.020408371 0.008753572
0000b0 44 7c af 3a ec 30 c9 3c 1b 80 3d 3c a6 59 c0 3c
       0.0013388474 0.02455946 0.011566187 0.023480248
0000c0 94 b5 ac 3c 1b 1a 2c 3d 24 0d 02 3e ba 07 27 3d
       0.021082677 0.042017084 0.12700325 0.040778853
0000d0 67 cf 37 3b 46 86 6d 3c 4a 78 f0 3b 56 af 41 3c
       0.0028047205 0.014497345 0.0073385583 0.0118215885
0000e0 20 75 52 3d 13 c1 d7 3d 04 3f 74 3c 18 5e 4f 3b
       0.05138123 0.10534873 0.014907602 0.0031641778
0000f0 68 45 81 3c 67 8a 8d 3c fe b6 94 3c 98 46 94 3d
       0.015780166 0.01727791 0.018153664 0.07240027
000100 18 f4 16 3d 07 98 0a 3b e4 2e f0 3c 05 fb aa 3c
       0.03685388 0.0021147744 0.029319234 0.020871649
000110 27 c7 2d 3d 5c 7c 55 3d 1c dd 2f 3d df e2 10 3c
       0.042426255 0.05212055 0.042935476 0.008843153
000120 12 a6 e4 3c c7 1d 33 3d da 7e 85 3c 40 db a3 3c
       0.02791122 0.04372957 0.01629584 0.020002007
000130 cd 98 08 b7 4a 63 d7 bb d3 57 d0 ba 4d 8b 0c bc
       -8.141808e-06 -0.0065731155 -0.0015895314 -0.008578134
000140 cd b2 25 ba 39 0b c6 ba a6 bc 9b bb f2 97 10 bd
       -0.0006320894 -0.0015109546 -0.0047527133 -0.035301156
000150 4a 5c a2 ba 61 56 1a b8 72 7e 04 ba 44 b1 9f bb
       -0.0012387123 -3.6796908e-05 -0.0005054242 -0.0048734266
000160 b8 53 1e 36 38 15 e0 bb 7b 55 4b bc be 7b aa bc
       2.3592565e-06 -0.006838467 -0.012410517 -0.020810958
000170 52 41 d1 bc 5a 3e 79 bb 5b bb a0 bc 7a c2 a8 bb
       -0.025543842 -0.003803155 -0.019620588 -0.0051501365
000180 ce ab 1c bc 3b a2 9e ba 79 d9 d8 b9 c5 85 14 bd
       -0.009562446 -0.0012102792 -0.0004136076 -0.036260385
000190 5c 95 ed b9 26 3b 76 bc a1 67 b9 ba 11 89 09 bb
       -0.00045315444 -0.0150287505 -0.0014145264 -0.002098624
0001a0 39 77 cc bb 97 79 b6 bb 37 1b 87 bb 7b 03 52 bc
       -0.0062397984 -0.005568694 -0.0041231173 -0.012818213
0001b0 aa 6a 74 bc 35 6e 07 bc b6 a8 84 bb 93 76 62 bc
       -0.014918009 -0.0082660215 -0.004048432 -0.013822216
0001c0 95 0d 18 ba 5d e2 ec bb f8 0f 65 bc 62 54 11 bb
       -0.0005800364 -0.007229133 -0.013980858 -0.002217554
0001d0 1d 24 dc bb 6d 50 3d bb 03 55 9f bb 3e c5 01 bc
       -0.006718172 -0.0028887049 -0.004862429 -0.007920561
0001e0 ba 23 28 bc 3b 1d 1c b9 9d f2 18 bc 92 4e 34 bb
       -0.010262424 -0.00014888209 -0.009335187 -0.0027512652
0001f0 c6 36 32 bc 33 f0 00 bc a8 1b 77 bc 64 16 41 bd
       -0.010877317 -0.007869768 -0.015082277 -0.047140494
000200 2d 56 92 bc 07 56 98 ba be 53 d0 bb 85 9a 36 bb
       -0.017863357 -0.0011622318 -0.006357639 -0.0027863097
000210 84 2e 88 bb f7 4a 6e bc b4 0b a3 bd fe df e3 bb
       -0.0041559357 -0.01454424 -0.079612166 -0.006954192
000220 0e ab ac ba 2e 70 a2 bb 32 fb eb bb 2c e1 0c bc
       -0.0013173537 -0.0049572205 -0.0072015757 -0.008598607
000230 61 fd a0 bc 42 f9 99 bc 33 2d 2f ba 31 f8 66 bc
       -0.01965207 -0.018795613 -0.00066824554 -0.014097259
000240 0d 25 09 bc 0e 73 c8 bc 71 93 a0 bc 01 48 99 bc
       -0.00837065 -0.024468925 -0.019601556 -0.018711092
000250 ce 69 cc bb 43 52 40 bc f0 99 96 bc 81 8c 1a bc
       -0.006238199 -0.011738363 -0.01838395 -0.009432913
000260 8a 79 00 bc 9c 4a 23 b5 da 87 00 3d e3 a2 0a bd
       -0.007841477 -6.08308e-07 0.03137956 -0.033846747
000270 1f 41 34 3d 85 32 3d 3c 6c de 8f bd 6c 2f 98 bc
       0.044007417 0.011547689 -0.070248455 -0.0185773
000280 6a 93 08 3c 13 52 c9 3c aa 52 84 3c 6f f5 06 bd
       0.0083359275 0.024575269 0.016152699 -0.032948907
000290 74 ba 9c 3c bb 7a 9e 3b 72 6d 19 bc eb 45 a8 ba
       0.019131877 0.004836408 -0.009364473 -0.001283822
0002a0 8e fb 07 bd 97 22 f1 bc e6 65 e4 39 6f fe 8e bc
       -0.033198886 -0.029435439 0.0004356347 -0.017455308
0002b0 d0 0d 2c bd 52 15 4d bc 84 c5 85 bd 94 15 54 3d
       -0.04200536 -0.01251729 -0.06531814 0.05177839
0002c0 00 c1 79 bd a4 c4 1b bd a4 52 20 3b cb aa 6c 3d
       -0.060975075 -0.038029328 0.002446332 0.05778007
0002d0 96 07 42 bd 73 21 62 3c 11 c9 7a 3d 20 eb 9e bd
       -0.047370516 0.01380192 0.061226908 -0.0775969
0002e0 f9 fe 65 3c bf ea 2d bd a8 5c 59 bd ec ac 73 bd
       0.014037841 -0.0424602 -0.05306688 -0.059491083
0002f0 af f9 85 3d 68 89 1c 3d ad 21 8d bc 1b 2c a1 bc
       0.06541764 0.03821698 -0.017227972 -0.019674351
000300 39 b0 5c 3d c5 79 a1 3c 9a c1 83 bc c5 22 90 3d
       0.053878997 0.019711385 -0.016083527 0.07037882
000310 9e ab 04 3b 4b b2 eb bd 1a f0 8a 3d 43 d8 52 bd
       0.0020243893 -0.11508616 0.06784077 -0.051475774
000320 ef 12 c4 bd 78 b2 a3 3b 7a 78 11 3d 6e f0 16 3d
       -0.09573924 0.0049956404 0.035515286 0.036850385
000330 98 41 48 3c 1b 88 49 bd ab df 85 bd db 10 91 bd
       0.01222267 -0.049202066 -0.06536802 -0.07083293
000340 2a 7c 3e bd 17 47 8f 3d 85 3d e5 bd cb d4 23 3d
       -0.04650513 0.06995981 -0.111933745 0.039997857
000350 38 25 d3 3c f3 21 8d bc c9 e3 e3 bb aa 4a 71 bc
       0.025774583 -0.017228102 -0.0069546443 -0.014727274
000360 9a bb 0e bd f6 ad 77 bd 9e 31 83 3d 20 6b 45 3d
       -0.03484688 -0.060468636 0.06405948 0.048197865
000370 6b bb b5 3d 76 95 1b 3c b3 56 cb bd e8 f6 0c 3d
       0.08873638 0.0094960835 -0.09928646 0.034415156
000380 4b 68 03 3d 54 df 71 3d 2d da 4b 3d 0f 85 14 3d
       0.032081883 0.059050873 0.049768616 0.036259707
000390 85 06 12 3d ca f8 37 bc 17 42 dd bb
       0.03565075 -0.0112287495 -0.0067522633

lstm.fc1.weight f4 [30, 77]
000000 57 34 34 3d 95 6c e7 3c f2 e8 3f bd 00 b9 54 3c
       0.043995228 0.028250018 -0.046853013 0.012983561
000010 63 27 0b bd e4 23 d4 bb 04 66 d8 bd 62 d3 46 bd
       -0.03397311 -0.006474005 -0.10566333 -0.048541434
000020 f7 27 17 3c ff be 36 3a 53 67 bf 3c 69 76 b4 bc
       0.009225837 0.00069712097 0.023364699 -0.022029119
000030 e2 2a cd 3c f1 5f 4b bd 7e 65 68 bc 53 20 75 bd
       0.025044862 -0.049652044 -0.014184354 -0.05984528
000040 10 41 aa bc cd 39 23 3d c4 8d 41 bd 85 f5 c0 3c
       -0.020782977 0.039850045 -0.04725434 0.023554573
000050 a6 5b 18 3d 8c 0f 2f bd 00 3d fc 3c 96 52 85 3c
       0.037196778 -0.042739436 0.030790806 0.016274732
000060 aa d1 f5 bd 3b 0f a8 3b 6f 0d 68 3c 5e 03 ed bc
       -0.12002881 0.0051287687 0.014163359 -0.02893227
000070 f1 71 df 3c f5 3f ee 3c 9b 6c 3e bd 5e a5 f1 3d
       0.027276011 0.029083231 -0.046490293 0.117991194
000080 54 5a 37 bc 4f 39 b3 bc fd 4c 18 3c 5d 68 09 3c
       -0.0111909695 -0.021877913 0.009295699 0.008386699
000090 53 17 08 3d a1 97 e3 bc b8 3a 4d bd 69 af f5 3c
       0.03322537 -0.027782263 -0.050104827 0.029990869
0000a0 04 52 51 bc f1 63 31 bd 44 fe 86 bd 86 5e 94 bd
       -0.012775902 -0.043308202 -0.06591466 -0.072445914
0000b0 d6 87 96 bc 0b 68 3d 3b 7a 5f 76 bb d0 73 88 3c
       -0.018375318 0.0028901126 -0.003759353 0.016656786
0000c0 fc 36 3d bd bf d1 a2 3c f5 cf b8 bd 8e 3e f7 bc
       -0.046195015 0.019875405 -0.0902404 -0.030181196
0000d0 87 94 a6 3c a4 c5 4a bd f2 db 27 3d 3a 8e 41 bd
       0.020334495 -0.04950489 0.04098124 -0.04725478
0000e0 82 dd 47 bd f6 69 44 3e b0 5e 20 3d 91 70 d2 bb
       -0.04879523 0.19181046 0.0391528 -0.0064221104
0000f0 a2 be 69 3d 9b 37 ab bc d8 fd 74 bd 20 d1 06 bd
       0.057066567 -0.020900538 -0.059812397 -0.03291428
000100 02 9a 12 3d 76 70 9c bc 28 1a 0a 3d ac 85 dd bc
       0.035791405 -0.019096594 0.03371635 -0.027041279
000110 7d 56 1f bd f0 f6 54 3c 43 87 47 3d 80 fb 46 bd
       -0.03890084 0.012998328 0.04871298 -0.048579693
000120 7a 35 8b bd 8c 16 54 3d cc 47 ea bb ac 10 01 bd
       -0.06797309 0.051779315 -0.007149672 -0.03151004
000130 f6 f7 75 3a ee f6 ab bc 43 8e a5 bc b0 e1 54 3d
       0.00093829574 -0.020991769 -0.020209437 0.051973045
000140 b5 13 54 bd 49 5a a0 3c ce 69 3c 3d f6 ca 13 bd
       -0.051776607 0.019574301 0.04599934 -0.03608223
000150 a0 06 06 bd a7 61 12 3b be 14 e3 3c c0 6c 5f 3c
       -0.03272116 0.0022336037 0.027719852 0.013636768
000160 69 49 a0 bb c4 c4 00 bd 5d f0 6c 3d fd ce f5 3c
       -0.0048915637 -0.03143765 0.057846416 0.030005926
000170 8a cc 3a bd 8a 7a 4e bd ce c3 34 3d 52 ff d5 3c
       -0.04560522 -0.05040983 0.044132046 0.026122723
000180 a5 4d e2 bc 8e 5c ac bc a8 12 eb bc 24 26 05 3d
       -0.027624914 -0.021040227 -0.02869542 0.032507077
000190 62 07 1c bb f2 01 25 3d 34 3d 2e 3c c3 58 87 bc
       -0.0023808111 0.04028506 0.010634709 -0.016521817
0001a0 b6 d8 3b 3b c8 51 01 3c 82 f6 08 bd 11 09 0c 3d
       0.0028663105 0.007893033 -0.033438213 0.034188334
0001b0 ad 3f 2c bd a7 b3 c9 3d f0 d3 6a bd 27 82 0c bd
       -0.042052913 0.09848719 -0.057331026 -0.03430381
0001c0 2e 98 e9 3a 76 cc 3a bd 08 1c 6b 3d 87 4e 2b bc
       0.0017821842 -0.045605145 0.05739978 -0.010455734
0001d0 59 b5 f2 3c e0 eb 6a bd f0 b6 c0 bb c7 cc 4e 3d
       0.029627489 -0.057353854 -0.005881183 0.05048826
0001e0 98 39 4d 3c 0d f4 16 3d d5 04 c9 3d e7 56 f0 bc
       0.012525938 0.03685384 0.09815375 -0.029338313
0001f0 20 5f 06 3d 42 53 7e bd d7 d1 47 bd 30 c4 81 bd
       0.032805562 -0.06209112 -0.048784103 -0.06336248
000200 c6 94 f0 3c fa 59 a5 3c 29 ad 18 bd f6 4c 43 bc
       0.029367816 0.020184506 -0.037274513 -0.011920204
000210 fa 56 19 bd 80 ab 6d bd 5a a5 0c 3e 52 7c 9e bc
       -0.037436463 -0.058024883 0.13734952 -0.01934639
000220 28 9c d1 bc 20 1b 4b bd cd 39 de 3c 3f 31 c7 3c
       -0.025587156 -0.049586415 0.027127171 0.024315475
000230 da 7c 9d 3d 01 df 12 bd 7b 3c cf bc ab 50 8c 3d
       0.07689829 -0.035857204 -0.025297394 0.06851324
000240 1d 47 0b bd 3c c4 d3 3c de ab ec bc a0 8d c3 bd
       -0.034003366 0.025850408 -0.028890546 -0.09548497
000250 32 79 e6 3c 0c 86 82 3d fa 8d fd bc 29 54 a6 bc
       0.028133962 0.06373224 -0.030951489 -0.020303803
000260 af 0d 7f 3c c2 0b 5d 3a 32 de 9a 3c 02 32 c0 3c
       0.015567227 0.0008432233 0.01890478 0.023461346
000270 6a 7e 3a bc 21 04 34 bc e9 1d 7b bd 6c e1 0a 3d
       -0.0113826785 -0.0109873125 -0.06130782 0.033906385
000280 09 f9 91 bd fa e1 27 3c f5 ff 79 ba 99 16 36 bd
       -0.07127578 0.010246748 -0.0009536737 -0.044455145
000290 72 b4 0c 3d dd 4a 11 3d 62 fa 5a bc 59 43 5c 3d
       0.034351774 0.035471786 -0.01336536 0.053775165
0002a0 37 97 d2 bc da 05 79 3d 1f b8 17 3d 8e 0b 45 3d
       -0.02570687 0.060796596 0.037040826 0.048106723
0002b0 0c 52 01 bd d2 10 da 3c e7 78 ff ba 17 00 8d 3c
       -0.031572387 0.026619349 -0.0019490988 0.017211957
0002c0 e9 08 a2 bd 07 7e d3 bb 0e 45 75 3d 15 b1 04 bd
       -0.07911856 -0.0064542326 0.05988031 -0.03239544
0002d0 8a 7c db bc d3 16 21 bc 46 4c bd bc 15 6f f6 ba
       -0.026792783 -0.009832102 -0.02310766 -0.0018801416
0002e0 c8 6e 8c bd 5d 14 8c bc 6f f2 a9 bc 24 21 e7 bb
       -0.06857067 -0.017099554 -0.020745484 -0.007053511
0002f0 9b 79 fa ba 52 86 83 bb e9 e7 6f bb 1b 58 57 3d
       -0.0019109728 -0.004013815 -0.0036606735 0.05257426
000300 97 9f 9d 3c e3 bd 18 3d be 2d 83 3c a4 96 37 3d
       0.019241137 0.037290465 0.016013023 0.044821396
000310 a6 38 97 bc a7 dd 68 bc d2 ef e3 3c af 07 b6 3c
       -0.01845963 -0.014213002 0.027824316 0.02222046
000320 e7 a0 dc bc bc ca 44 3d df fc 7b bd dc dd e1 3c
       -0.026932193 0.048044905 -0.061520454 0.027571611
000330 19 89 4e bd 86 97 86 3d ba 1d 2a 3c db 86 28 bc
       -0.050423715 0.065718696 0.010383064 -0.010286058
000340 7b 41 47 bc d7 64 1b 3c 5c 6b 83 bd c2 f4 f6 bc
       -0.012161608 0.009484491 -0.064169616 -0.030146006
000350 b0 98 aa bc 50 eb ae bc f6 7d 2e 3d 31 85 50 bc
       -0.02082476 -0.02135244 0.042600594 -0.012727068
000360 04 6d a4 bc e4 a6 65 3d de 2a 76 3c 2c 1f ca 3b
       -0.020071514 0.056067362 0.015024869 0.0061682668
000370 b6 e8 08 3d c1 15 0a 3d e3 b5 ae 3d 26 7e 90 3d
       0.033425055 0.033712152 0.08530786 0.07055311
000380 ce 3d 37 3c 36 f2 d2 bc be 64 40 3d eb 91 60 bd
       0.011184169 -0.02575026 0.046971075 -0.05482666
000390 f1 d9 1c 3d 54 2e 44 3d f6 f1 74 3a e0 eb 41 3d
       0.038293783 0.047895744 0.00093439163 0.04734409
0003a0 e0 1c c7 bd 3b fd c1 bc 4d e2 90 3c 88 ab b1 3c
       -0.09722304 -0.02368032 0.017686034 0.021688238
0003b0 a9 d5 c9 ba cd 79 80 bd 45 2e 3a bd aa 5c 6c 3c
       -0.0015398759 -0.06273232 -0.045454282 0.01442639
0003c0 cf bf 11 3d fb 6d 83 3c 29 9f 43 bd 96 a2 d5 3d
       0.035583314 0.016043654 -0.04775921 0.104314014
0003d0 d2 f4 08 bc 54 c3 c6 3d e3 b8 8f bc f6 9a ba ba
       -0.008359151 0.09705225 -0.017544216 -0.0014236856
0003e0 fa f1 49 3d 92 d8 1c 3d 92 da e9 3c b5 e1 81 3d
       0.049303032 0.038292475 0.028546605 0.06341878
0003f0 66 6f 2e bd 09 c6 de 3c fc 18 98 3c 0f 69 d8 bd
       -0.042586707 0.02719404 0.018566601 -0.10566913

lstm.fc1.bias f4 [30]
000000 a7 11 5e bd d3 b9 65 3c d3 79 5e bd 8b 42 cb 3c
       -0.054216053 0.014021355 -0.0543154 0.024812004
000010 62 5b e4 bb 0f 56 cb 3c a4 9c 7a bd d3 4b 71 bd
       -0.0069689015 0.02482131 -0.06118454 -0.058910202
000020 96 dc 2a bd 2b 11 97 bd 62 bf 0a 3c 96 4e 2d 3d
       -0.041714273 -0.073763214 0.008468481 0.042311274
000030 4b 35 26 bd fd bb 6f bd c9 00 00 3c 82 ed bf 3c
       -0.040578168 -0.05852889 0.007812687 0.023428682
000040 ca c0 c3 3b aa 5f f1 bc e7 1c 1b 3c 8d 69 9b 3a
       0.00597391 -0.029464561 0.00946734 0.0011857018
000050 63 fa de bc ac 49 33 3c 77 83 56 3d d6 e3 32 3c
       -0.027219003 0.010942858 0.05237147 0.010918578
000060 31 70 d5 bc a0 da 26 3d 2f 40 f3 bb 15 57 3d bd
       -0.026054474 0.04073584 -0.0074234228 -0.046225626
000070 2d b4 e3 bc 75 4e 2a bc
       -0.027795875 -0.010394682

exp_avg f4 [231, 7]
000000 63 2d 6d b2 68 ef 87 32 b6 21 a2 b1 79 f6 98 32
       -1.3805535e-08 1.5824938e-08 -4.718653e-09 1.7807212e-08
000010 ba 88 81 b2 57 80 3f 33 6f 66 13 33 a8 f5 22 b1
       -1.5079753e-08 4.4587377e-08 3.4319267e-08 -2.3713742e-09
000020 33 18 3e 31 7f a4 16 2f 97 d3 f4 31 b3 c8 c2 af
       2.7662395e-09 1.3700861e-10 7.1253896e-09 -3.5431e-10
000030 de 5f 23 32 1f b5 af 32 38 c1 92 b2 b7 69 ab 32
       9.509646e-09 2.0455046e-08 -1.7084503e-08 1.9955094e-08
000040 3a 8d 15 b2 d9 7b 15 33 66 61 86 b2 fb 92 11 33
       -8.705053e-09 3.4804405e-08 -1.5643945e-08 3.389412e-08
000050 2f db 34 33 01 82 8a b1 f5 31 bb 31 d1 7f ab b0
       4.2108862e-08 -4.0311083e-09 5.4480958e-09 -1.2478215e-09
000060 11 58 86 32 7a b4 87 31 da b9 cd 31 ba a5 0d 33
       1.5639701e-08 3.949535e-09 5.987414e-09 3.2979848e-08
000070 8e cb 73 31 6a df c5 b1 e6 6d f7 2f 04 56 14 31
       3.5476861e-09 -5.758854e-09 4.5007126e-10 2.1585729e-09
000080 2d c3 bb b1 49 8f 63 b1 fa f0 30 31 b2 c1 10 31
       -5.464605e-09 -3.3114296e-09 2.574835e-09 2.106486e-09
000090 26 26 9e b1 83 80 b1 b0 f1 65 ec b2 9b 47 9b b2
       -4.602742e-09 -1.291497e-09 -2.7520374e-08 -1.8076937e-08
0000a0 13 87 67 b0 6c 37 85 b2 79 90 8a b2 fd ea 9d 32
       -8.422926e-10 -1.550844e-08 -1.6131013e-08 1.8384066e-08
0000b0 45 5f f7 b2 06 68 07 32 78 57 ac b2 51 13 43 b3
       -2.8797908e-08 7.881686e-09 -2.0063212e-08 -4.5419544e-08
0000c0 32 70 2f b4 ae 78 f1 2f 63 84 bd af 62 53 7e 30
       -1.6338961e-07 4.3923393e-10 -3.4472966e-10 9.2523156e-10
0000d0 df 0e 2a 32 00 dc 97 31 6b 46 19 b1 1d 36 74 32
       9.898684e-09 4.4196895e-09 -2.2304458e-09 1.4214973e-08
0000e0 24 34 24 af b2 6c ac 2f f8 fa 73 af c9 4d 87 b0
       -1.4934237e-10 3.136385e-10 -2.2189883e-10 -9.844651e-10
0000f0 64 32 05 30 af 5f 20 af e0 35 3c b1 b1 0a 15 b1
       4.845673e-10 -1.4585909e-10 -2.7388225e-09 -2.168843e-09
000100 12 06 26 31 7d c2 21 b1 e1 9d 49 30 98 3f ad b1
       2.415963e-09 -2.3539137e-09 7.3347733e-10 -5.0421924e-09
000110 20 07 f9 31 2b 3f f9 31 9a ab da b0 8f 23 27 31
       7.247664e-09 7.254035e-09 -1.591036e-09 2.4321911e-09
000120 99 ec 40 b1 61 fd 5e 32 a1 b9 0c 31 73 8d aa b2
       -2.8074167e-09 1.2979712e-08 2.04782e-09 -1.9854928e-08
000130 eb c9 d6 b1 d9 e9 e2 af 79 a9 21 30 62 4e 7d af
       -6.251175e-09 -4.127532e-10 5.8812294e-10 -2.3038063e-10
000140 ff 5d b1 30 f0 87 72 2f 6c 66 56 af 9a 19 88 30
       1.290516e-09 2.2058066e-10 -1.9499574e-10 9.902579e-10
000150 50 57 5a b2 5e d3 59 32 9e 8f f0 b1 63 c8 70 32
       -1.2709123e-08 1.2679122e-08 -7.0012467e-09 1.4015401e-08
000160 2a e3 f7 b2 6f fb 4b 33 67 be e4 32 c5 e8 98 b1
       -2.8857887e-08 4.7493298e-08 2.6629278e-08 -4.450245e-09
000170 29 33 9f b1 43 dc 49 b2 ba 0e 6e b3 53 6e b6 b3
       -4.6333253e-09 -1.1749822e-08 -5.5427087e-08 -8.495103e-08
000180 92 e8 b5 33 dd 13 a6 32 6a b2 2d b2 e0 d2 8f 32
       8.4707736e-08 1.9333976e-08 -1.0110492e-08 1.6743286e-08
000190 d3 fb 37 b1 2d a0 02 34 f2 8d 41 33 8e e9 94 b3
       -2.677315e-09 1.2165465e-07 4.5065413e-08 -6.9342704e-08
0001a0 2d 22 09 34 e6 1e 0b b3 99 d6 5a 33 5b 5b bc b1
       1.2771552e-07 -3.239156e-08 5.0952256e-08 -5.481906e-09
0001b0 bc 82 71 33 c2 8a 32 33 c5 33 c4 b3 fe 6e c1 33
       5.6231087e-08 4.1570054e-08 -9.136378e-08 9.007452e-08
0001c0 a0 2d 91 b1 9f 2c cb 31 bc d5 aa b0 42 76 91 32
       -4.2252424e-09 5.9131504e-09 -1.2429875e-09 1.6933999e-08
0001d0 f6 4c a8 31 fb 52 d9 b1 dd 85 d5 32 5c f5 fd 31
       4.898193e-09 -6.324965e-09 2.4857338e-08 7.3911632e-09
0001e0 e8 c8 71 b2 2f 25 e6 b1 f4 95 85 b3 66 0b 19 b3
       -1.4073727e-08 -6.6981083e-09 -6.2205714e-08 -3.5633455e-08
0001f0 1c 9c d2 b2 17 cf 4f b3 fa 97 39 b2 94 f1 72 32
       -2.4518208e-08 -4.838429e-08 -1.0802973e-08 1.41411824e-08
000200 bf 85 3f b1 26 fb 3d 33 46 52 f9 31 04 4c 42 32
       -2.7870184e-09 4.423341e-08 7.256207e-09 1.130957e-08
000210 20 dd 93 33 89 00 c1 b2 1f 6d f5 32 c5 b4 39 b2
       6.885443e-08 -2.24684e-08 2.8571376e-08 -1.08095195e-08
000220 db d3 7e 33 f1 ea 8d b1 5b a6 7e 32 4f 20 7b 33
       5.9331665e-08 -4.13035e-09 1.4822571e-08 5.8469876e-08
000230 4a 5b ef 30 8c 7e 73 b1 5b 30 2b b0 60 bc a8 31
       1.7415485e-09 -3.5433088e-09 -6.2278155e-10 4.9108593e-09
000240 cb cd f7 b1 58 e3 a2 31 a3 70 b4 31 57 84 1b af
       -7.212042e-09 4.7406665e-09 5.251495e-09 -1.4144184e-10
000250 2a 34 13 b0 34 4e eb b0 60 ae c9 30 9f c2 c9 b1
       -5.355242e-10 -1.7120727e-09 1.4674235e-09 -5.871996e-09
000260 f4 04 8e 31 eb 2e b4 31 36 74 d4 2f aa e0 c0 30
       4.133307e-09 5.2440234e-09 3.8645148e-10 1.4033692e-09
000270 85 6e 09 b2 30 05 26 33 c2 40 8c 31 da 1f 1e b4
       -7.999579e-09 3.8654605e-08 4.0818984e-09 -1.4726484e-07
000280 89 59 59 32 b8 2a f7 2f 2a d8 6c b0 65 bb 25 af
       1.265142e-08 4.4959392e-10 -8.616349e-10 -1.5073238e-10
000290 bb 4f 1f 31 ed c4 c4 b0 48 3b 15 30 4b 2c 50 31
       2.3182867e-09 -1.4316847e-09 5.429013e-10 3.0293161e-09
0002a0 2b 25 7f b2 22 a7 be 31 ff 87 6f b2 9b 7e 6a b3
       -1.48514046e-08 5.5487286e-09 -1.3942553e-08 -5.4597518e-08
0002b0 ae bd d9 b3 b8 ec 14 34 7c 0c 1d 33 10 c0 bb b1
       -1.01393525e-07 1.3869692e-07 3.6565766e-08 -5.4642513e-09
0002c0 3b 4e 06 32 4c b0 49 b0 11 f2 13 32 d9 3b 1f 31
       7.817614e-09 -7.3373907e-10 8.611566e-09 2.3171565e-09
0002d0 7d 9f a7 b1 81 b2 7e 32 94 24 31 b2 c2 49 65 32
       -4.8784714e-09 1.4825333e-08 -1.0311073e-08 1.3346325e-08
0002e0 4c 54 b6 b1 bb 0d 9c 32 2a 5e 7f b1 a1 92 8b 32
       -5.3064806e-09 1.8167034e-08 -3.716091e-09 1.6248409e-08
0002f0 5d cb 28 33 6c 0a ed b1 79 7e c4 31 80 4d a9 b1
       3.9300506e-08 -6.8987926e-09 5.718729e-09 -4.927358e-09
000300 74 25 26 b2 c8 58 e9 b2 f2 82 31 33 88 2d 08 33
       -9.670988e-09 -2.7165143e-08 4.1330118e-08 3.1706378e-08
000310 88 29 15 b2 d0 cb 62 32 2f 64 97 b0 b5 c0 49 31
       -8.682385e-09 1.3201273e-08 -1.101517e-09 2.935889e-09
000320 9b e6 d0 31 7e 9a 86 b2 57 3e 65 32 48 50 72 b1
       6.0798135e-09 -1.5669908e-08 1.3343729e-08 -3.526127e-09
000330 9c 6d ed 30 b3 05 38 b2 23 a4 b5 b2 5d 44 f1 b2
       1.7275172e-09 -1.07115055e-08 -2.1145814e-08 -2.808718e-08
000340 2d 09 f6 32 ab 18 43 31 0f f0 f2 b2 61 20 20 33
       2.8642342e-08 2.8390257e-09 -2.8281674e-08 3.728235e-08
000350 b9 77 3c b2 ca d6 ae 33 6c 4c 29 32 12 aa aa 32
       -1.0970262e-08 8.141576e-08 9.854471e-09 1.9867944e-08
000360 2f bd 05 34 39 ed 06 b3 f0 be 0d 33 56 4e c6 b2
       1.2455415e-07 -3.141506e-08 3.3002777e-08 -2.3085857e-08
000370 aa 7d d0 32 39 2e a8 b3 14 d5 11 34 dd 0a e2 33
       2.4271532e-08 -7.8315175e-08 1.3581695e-07 1.0525921e-07
000380 72 94 7c b2 34 42 90 32 ee 02 a2 b1 f8 75 9d 32
       -1.4702083e-08 1.6793912e-08 -4.7151536e-09 1.8330852e-08
000390 04 c4 79 b2 bf 12 51 33 a8 f6 b9 33 39 99 2b b2
       -1.4538276e-08 4.8678654e-08 8.6596e-08 -9.988349e-09
0003a0 0a 3e 5f 32 40 58 2a b2 1e 46 3b b1 b9 a1 74 b2
       1.2994414e-08 -9.915368e-09 -2.7251938e-09 -1.4239441e-08
0003b0 f2 06 d3 32 eb c4 f0 32 44 b2 d3 b2 7d f1 08 33
       2.4566791e-08 2.8029225e-08 -2.4644699e-08 3.18846e-08
0003c0 e8 5b 10 b2 d3 19 dc 33 2c dc 50 32 7e 8b d9 32
       -8.4028e-09 1.0249246e-07 1.2157255e-08 2.5325559e-08
0003d0 e6 e6 f7 33 d4 95 81 b0 7e 4c bd 30 d0 9d ea 2e
       1.1543834e-07 -9.428569e-10 1.37733e-09 1.0669121e-10
0003e0 32 82 c4 b0 cd 0c 96 2d e6 f6 39 b0 81 e2 aa 2f
       -1.4297881e-09 1.705871e-11 -6.765347e-10 3.108376e-10
0003f0 05 9c 9f b2 69 7b b3 32 d4 72 1f b2 b4 3d d5 32
       -1.8580986e-08 2.0894463e-08 -9.281127e-09 2.4824523e-08
