Weights/model_Spatial_Temperature_AC_interpol_(1500-3000)_(8000-8500).pth.tar (torch, 112538 bytes, 33 tensors)

encoder.LSTM.weight_ih_l0 f4 [120, 1]
0.09997304 0.007561144 -0.12326041 0.039558534 -0.054737635 0.0712553 0.19561717 0.17674506
0.043666895 0.28156707 0.31215692 0.2015186 -0.29523697 -0.16817422 0.19297023 0.019137079
0.026587067 -0.23235714 -0.02174077 -0.087524325 0.22061592 -0.09105612 0.2001783 -0.030488547
0.017412268 0.23705244 0.09390864 -0.25843135 0.13332687 0.27065527 -0.09232342 0.021800216
-0.07335724 0.0043433313 0.16209535 0.17657223 -0.060295206 0.25562936 0.10185438 0.096196204
-0.029499043 0.20620354 0.09532784 -0.11280608 0.13155583 0.18545167 0.07524648 -0.04551165
0.055120878 -0.26174644 -0.089360714 0.18935041 -0.14459792 0.21020727 0.09414371 -0.121515475
0.097401425 -0.121119946 0.054417882 0.24111356 0.0647409 -0.027160713 0.01456436 0.12687224
-0.23439178 0.06279026 -0.22307688 -0.043575995 -0.009337796 0.17632683 -0.25764102 0.13008457
0.15928859 0.069311194 -0.03947429 -0.17864299 -0.053664103 0.12922446 0.13777937 0.047963493
-0.27245256 -0.12073762 -0.07823721 -0.2632017 -0.17411841 -0.22536008 0.08370657 -0.15507355
-0.2501486 -0.23895049 -0.031916033 -0.13094287 0.12208463 -0.0071663177 0.094487056 -0.14959654
0.13258955 -0.015492365 -0.21432664 0.25864393 0.016930357 -0.14000744 -0.13704658 -0.034384437
-0.10696829 0.21430922 0.12993272 -0.19948077 -0.041384287 -0.083182745 0.10549444 -0.012683917
0.20039456 0.23299393 0.13208967 0.21688415 -0.041107915 0.1574332 -0.09545477 0.16571727
00000000: aabe cc3d 79c3 f73b f46f fcbd 2108 223d
00000010: 9234 60bd 4cee 913d de4f 483e a8fc 343e
00000020: 0fdc 323d 8f29 903e 08d3 9f3e e45a 4e3e
00000030: 4d29 97be dd35 2cbe fd99 453e 5dc5 9c3c
00000040: 1fcd d93c 08ef 6dbe b319 b2bc f43f b3bd
00000050: 24e9 613e a27b babd 8afb 4c3e 1ec3 f9bc
00000060: 2ca4 8e3c e0bd 723e 2c53 c03d 1d51 84be
00000070: d786 083e 5493 8a3e 1014 bdbd 5e96 b23c
00000080: 523c 96bd 8152 8e3b 53fc 253e 5acf 343e
00000090: 1bf8 76bd dae1 823e 0799 d03d 8402 c53d
000000a0: faa7 f1bc 0527 533e 3e3b c33d e006 e7bd
000000b0: 92b6 063e 0be7 3d3e d41a 9a3d 6d6a 3abd
000000c0: 6ec6 613d a103 86be c002 b7bd 13e5 413e
000000d0: 7a11 14be 9340 573e 6bce c03d 1bdd f8bd
000000e0: 667a c73d bc0d f8bd 49e5 5e3d 79e6 763e
000000f0: e196 843d 2580 debc 5a9f 6e3c ccea 013e
00000100: 6604 70be 2e98 803d 446e 64be be7c 32bd
00000110: 8efd 18bc 058f 343e 86e9 83be e434 053e
00000120: 8c1c 233e 07f3 8d3d cbaf 21bd 30ee 36be
00000130: e4ce 5bbd 6b53 043e 0916 0d3e 5e75 443d
00000140: e77e 8bbe 4945 f7bd d53a a0bd 60c2 86be
00000150: 194c 32be cbc4 66be 5a6e ab3d 9acb 1ebe
00000160: 7a13 80be 70af 74be 63ba 02bd e315 06be
00000170: 8207 fa3d 6ed3 eabb 6e82 c13d d62f 19be
00000180: 8ec5 073e b0d3 7dbc 7178 5bbe fa6c 843e
00000190: 88b1 8a3c 1c5e 0fbe f055 0cbe b2d6 0cbd
000001a0: 3112 dbbd e073 5b3e 150d 053e b044 4cbe
000001b0: 9282 29bd b75b aabd 780d d83d 34d0 4fbc
000001c0: 3b34 4d3e f695 6e3e 8442 073e e116 5e3e
000001d0: c660 28bd 2b36 213e ca7d c3bd cab1 293e

encoder.LSTM.weight_hh_l0 f4 [120, 30]
-0.16542526 0.018030634 -0.10348533 -0.014952507 0.022276577 -0.24682888 -0.060197685 -0.20145927
-0.20660213 0.12907611 -0.024639418 0.108784005 0.04712497 -0.01615885 0.09443412 -0.1126291
0.29348323 0.112063795 0.15419264 -0.22741094 -0.007607519 0.06818472 -0.2835311 -0.080150835
-0.043652415 -0.15008959 0.11180361 -0.06797809 -0.046826255 -0.26953098 0.011345007 0.0029336808
-0.2335789 0.10906771 -0.07363324 -0.13677107 -0.11807122 0.046640236 0.08864767 0.15467314
0.009183861 0.34985033 0.036569007 0.0047518867 0.15996046 0.052682757 -0.17712456 0.030721873
-0.038878497 -0.17365164 -0.15229042 -0.20941477 0.115060344 -0.20675746 -0.19912301 -0.18318658
0.18404211 -0.26305303 0.011351535 0.12903461 -0.38915265 0.03638874 -0.24915574 -0.06829537
0.06591208 -0.1867392 -0.031605996 -0.2729323 -0.010420258 0.27843297 -0.10845932 0.15690067
-0.3173805 0.24125706 -0.04075993 -0.17796415 -0.093224764 -0.05166743 0.055097025 -0.32894927
-0.25715923 -0.12676978 -0.2786028 0.028506037 -0.3406316 -0.14830028 -0.07643852 -0.19464476
0.14680903 0.361358 -0.12193494 0.16811168 0.1244241 0.10574271 -0.255998 0.05914602
0.06858854 -0.032007113 -0.16346934 0.15850551 0.055913873 -0.094412744 -0.09528565 -0.09411198
-0.11038226 -0.020631721 0.14382209 0.1798512 0.15632306 -0.12533575 -0.27582246 -0.21695851
-0.013277205 0.12523063 -0.21564451 -0.044502348 -0.0121992715 -0.0009694228 -0.11266005 -0.23330922
0.0032408314 -0.005739879 -0.04560501 -0.10417025 -0.11864869 0.058137946 -0.18838635 0.12735373
-0.2067495 -0.11200344 0.12704958 0.019564016 -0.18417399 0.026470046 0.018792132 -0.12593755
-0.094775505 -0.18091778 0.032162856 -0.005000254 0.079436734 0.08693928 0.01863566 -0.20881565
-0.17795359 -0.20210376 0.11148361 -0.034680557 0.0627115 0.029963834 -0.32830933 0.267795
-0.30521002 0.13145451 0.12122819 0.050060537 0.07428737 -0.22326592 -0.03541133 -0.06765714
0.009422324 0.12930489 0.0880748 0.077557355 -0.008610096 -0.2115536 -0.025947068 -0.019692916
-0.095050275 0.08523568 -0.12701598 0.10214195 -0.21316467 0.14913885 -0.005687268 0.21613234
-0.19212608 0.067431755 -0.13717553 0.07435429 -0.041804247 0.24365473 0.053423148 0.032125976
-0.0814898 0.059056025 0.006231229 0.045139447 0.031704333 0.11557039 -0.1948517 -0.004936735
-0.09848261 0.013837562 -0.11631922 -0.1569937 -0.078154616 0.059876703 -0.03014453 -0.20946749
-0.25767535 -0.009028211 0.096265726 -0.2063981 -0.075010575 0.06515604 0.04129324 0.095555775
-0.15567684 -0.18611813 -0.15136543 -0.11107085 -0.14326161 0.072472975 -0.16445121 0.0054547214
-0.16216867 0.15890133 0.15579297 0.06606858 -0.000930464 -0.1276229 0.17855169 0.21208756
-0.06235211 0.0071198614 -0.10522679 -0.0879479 0.07917305 -0.16791221 0.013611431 -0.1960167
0.008621165 -0.09304975 0.029066626 0.028050616 -0.08792609 -0.0043848353 -0.060417898 -0.18898189
-0.14606638 -0.12408734 0.1758288 -0.08845866 0.20279086 0.21309863 -0.0054377373 -0.0803276
0.09129848 0.086018376 -0.056771923 -0.17256562 0.16310856 0.08343909 0.02616438 0.2173387
00000000: 3d65 29be fbb4 933c 1ef0 d3bd 5cfb 74bc
00000010: 5e7d b63c b6c0 7cbe d991 76bd 574b 4ebe
00000020: 828f 53be 872c 043e 9bd8 c9bc 26ca de3d
00000030: 1d06 413d 915f 84bc ad66 c13d 16aa e6bd
00000040: 6f43 963e b481 e53d ade4 1d3e 6ade 68be
00000050: 7f48 f9bb 6ea4 8b3d fd2a 91be 1f26 a4bd
00000060: e0cc 32bd 16b1 19be 4bf9 e43d 1938 8bbd
00000070: e3cc 3fbd f7ff 89be 69e0 393c ff42 403b
00000080: 4f2f 6fbe e45e df3d 06cd 96bd b70d 0cbe
00000090: 53cf f1bd d509 3f3d e98c b53d a362 1e3e
000000a0: e877 163c 951f b33e 62c9 153d b7b5 9b3b
000000b0: adcc 233e e0c9 573d 2460 35be 70ac fb3c
000000c0: 0f3f 1fbd bcd1 31be 05f2 1bbe d370 56be
000000d0: c2a4 eb3d 3ab8 53be e7e6 4bbe 4395 3bbe
000000e0: 8975 3c3e e3ae 86be cafb 393c a621 043e
000000f0: 043f c7be 5c0c 153d af22 7fbe 71de 8bbd
00000100: eafc 863d 9038 3fbe 4a75 01bd c8bd 8bbe
00000110: bbb9 2abc c48e 8e3e ec1f debd 92aa 203e
00000120: b27f a2be 170c 773e e2f3 26bd 3c3c 36be
00000130: a0ec bebd 3aa1 53bd 6bad 613d 0a6c a8be
00000140: 60aa 83be f0cf 01be 07a5 8ebe 7e85 e93c
00000150: 4467 aebe 07dc 17be cc8b 9cbd f550 47be
00000160: 1b55 163e ea03 b93e 07b9 f9bd 7825 2c3e
00000170: 10d2 fe3d a28f d83d 2b12 83be 1943 723d
00000180: 2678 8c3d e419 03bd 8264 27be 454f 223e
00000190: f205 653d 785b c1bd 1f25 c3bd c8bd c0bd
000001a0: 1810 e2bd db03 a9bc 1946 133e ea2a 383e
000001b0: 2713 203e 0458 00be 9a38 8dbe 5f2a 5ebe
000001c0: a288 59bc 753c 003e ead1 5cbe 1848 36bd
000001d0: 74df 47bc dd20 7eba 50ba e6bd 9de8 6ebe
000001e0: 2164 543b 9815 bcbb 52cc 3abd 3657 d5bd
000001f0: 16fe f2bd 0e22 6e3d 5ae8 40be 0469 023e
00000200: 24b6 53be 0f62 e5bd 4919 023e b744 a03c
00000210: 1b98 3cbe b6d7 d83c f5f1 993c c6f5 00be
00000220: a919 c2bd 8342 39be 33bd 033d 2cd9 a3bb
00000230: baaf a23d 390d b23d d0a9 983c c5d3 55be
00000240: 7739 36be 4af4 4ebe 8551 e43d 330d 0ebd
00000250: e36e 803d b776 f53c 2918 a8be 6d1c 893e
00000260: 7d44 9cbe 039c 063e 7c46 f83d 470c 4d3d
00000270: fa23 983d d29f 64be 790b 11bd d48f 8abd
00000280: 1760 1a3c 8068 043e 9060 b43d 64d6 9e3d
00000290: 5c11 0dbc 82a1 58be f28e d4bc 0a53 a1bc
000002a0: b8a9 c2bd 0b90 ae3d 7a10 02be cc2f d13d
000002b0: d747 5abe dbb7 183e 435c babb cc51 5d3e
000002c0: b3bc 44be a919 8a3d be77 0cbe 1047 983d
000002d0: ee3a 2bbd a080 793e 3bd2 5a3d 8796 033d
000002e0: 20e4 a6bd bbe4 713d 562f cc3b 24e4 383d
000002f0: 67dc 013d 2bb0 ec3d 3487 47be 56c4 a1bb
00000300: 40b1 c9bd f1b6 623c c538 eebd f5c2 20be
00000310: 870f a0bd 4641 753d a9f1 f6bc a57e 56be
00000320: 06ee 83be 10eb 13bc f726 c53d 065a 53be
00000330: 259f 99bd 8870 853d 1a23 293d bfb2 c33d
00000340: c069 1fbe c095 3ebe 8aff 1abe 1d79 e3bd
00000350: 2cb3 12be b66c 943d e665 28be 85bd b23b
00000360: 8b0f 26be 08b7 223e 3188 1f3e f74e 873d
00000370: 62ea 73ba 94af 02be 41d6 363e 7b2d 593e
00000380: ed64 7fbd ba4d e93b 2581 d7bd 071e b4bd
00000390: 7b25 a23d 2ef1 2bbe 7b02 5f3c 9ab8 48be
000003a0: c93f 0d3c de90 bebd 221d ee3c 68ca e53c
000003b0: 9812 b4bd aaae 8fbb c278 77bd 7884 41be
000003c0: 6d92 15be 8121 febd 770c 343e d029 b5bd
000003d0: 68a8 4f3e 8736 5a3e 0c2f b2bb cc82 a4bd
000003e0: b3fa ba3d 672a b03d ad89 68bd 0bb5 30be
000003f0: ee05 273e 1de2 aa3d af56 d63c 098e 5e3e

encoder.LSTM.bias_ih_l0 f4 [120]
0.028310059 0.031769134 0.08746786 0.056617603 0.00934471 -0.018217234 0.014720156 0.018254708
-0.028421454 0.13464159 0.08034752 -0.030820742 -0.005640632 0.0026984413 0.06937971 0.006285095
0.053907797 0.040732373 -0.014183457 -4.7127993e-05 0.047969524 -0.029549437 -0.010388205 0.022558218
0.11042585 0.06593345 0.07479704 -0.028758528 0.060892057 0.109081626 0.076084584 -0.0074728527
0.06957306 0.034784526 -0.017672492 0.017873969 0.025979387 0.06979499 -0.037942383 0.12861173
0.05452166 -0.011628315 0.0020986963 0.000138318 0.0031551681 0.012879049 0.03822159 0.0053428174
-0.01818408 -0.015879061 0.036554705 -0.0030912373 -0.0033284973 0.00068426103 0.07419706 0.027765311
0.110443935 -0.022588888 0.046156984 0.079275995 0.04911712 -0.0035597503 0.08532666 -0.0055012754
0.017606616 0.025252705 0.04742975 0.029351175 0.021652143 0.020888047 0.017513108 -0.03546246
-0.01606681 0.005488582 0.045100186 0.0016846491 -0.04658203 0.004117012 -0.007954961 -0.005658038
-0.014453548 0.05177802 0.020602137 -0.018959893 0.054376904 0.006366902 -0.012043343 -0.007974316
0.021972073 -0.023356529 0.044730976 0.010247297 0.084491886 0.051010095 0.007405843 -0.014903105
0.018781276 0.012969851 -0.026784033 0.13651136 0.07601263 -0.022389129 0.0045560445 0.0032382156
0.058861464 0.008884132 0.05581825 0.034840785 -0.015238931 -0.0026144935 0.05084513 -0.026538279
-0.01137331 0.024319824 0.11228674 0.061130702 0.06882788 -0.02423084 0.059238918 0.10141001
00000000: 7fea e73c 5a20 023d 5922 b33d dce7 673d
00000010: 8e1a 193c 4f3c 95bc cf2c 713c e68a 953c
00000020: 1cd4 e8bc 7cdf 093e 3e8d a43d c87b fcbc
00000030: 0dd5 b8bb 55d8 303b f316 8e3d 33f3 cd3b
00000040: 6cce 5c3d fdd6 263d bb61 68bc 4cab 45b8
00000050: b17b 443d a911 f2bc 4a33 2abc 03cc b83c
00000060: f326 e23d 1e08 873d 312f 993d 0197 ebbc
00000070: f369 793d 3066 df3d 3cd2 9b3d d5de f4bb
00000080: 527c 8e3d 387a 0e3d e7c5 90bc 6e6c 923c
00000090: b9d2 d43c adf0 8e3d 7969 1bbd cbb2 033e
000000a0: 1b52 5f3d b084 3ebc 488a 093b 7509 1139
000000b0: f0c6 4e3b a602 533c 3e8e 1c3d cd12 af3b
000000c0: c8f6 94bc ce14 82bc 63ba 153d 5b96 4abb
000000d0: eb22 5abb fb5f 333a a1f4 973d 1474 e33c
000000e0: 6e30 e23d 550c b9bc 1b0f 3d3d 745b a23d
000000f0: 092f 493d b34a 69bb bebf ae3d 0b44 b4bb
00000100: c03b 903c c3de ce3c b345 423d e071 f03c
00000110: d65f b13c 691d ab3c a677 8f3c 1641 11bd
00000120: 8b9e 83bc 90d9 b33b f9ba 383d 72cf dc3a
00000130: cccc 3ebd 00e8 863b 8655 02bc 1067 b9bb
00000140: 93ce 6cbc 3015 543d d0c5 a83c c751 9bbc
00000150: 51ba 5e3d 72a1 d03b 7151 45bc b5a6 02bc
00000160: c7fe b33c 3156 bfbc d437 373d 47e4 273c
00000170: 150a ad3d f6ef 503d b7ac f23b 272c 74bc
00000180: 31db 993c 7f7f 543c 306a dbbc a2c9 0b3e
00000190: 82ac 9b3d 6869 b7bc df4a 953b 3e38 543b
000001a0: b818 713d c08e 113c ada1 643d 36b5 0e3d
000001b0: b6ac 79bc ec57 2bbb fc42 503d ce66 d9bc
000001c0: 1f57 3abc 5e3a c73c 97f6 e53d 3064 7a3d
000001d0: a2f5 8c3d c17f c6bc 82a4 723d 0db0 cf3d

encoder.LSTM.bias_hh_l0 f4 [120]
0.028310059 0.031769134 0.08746786 0.056617603 0.00934471 -0.018217234 0.014720156 0.018254708
-0.028421454 0.13464159 0.08034752 -0.030820742 -0.005640632 0.0026984413 0.06937971 0.006285095
0.053907797 0.040732373 -0.014183457 -4.7127993e-05 0.047969524 -0.029549437 -0.010388205 0.022558218
0.11042585 0.06593345 0.07479704 -0.028758528 0.060892057 0.109081626 0.076084584 -0.0074728527
0.06957306 0.034784526 -0.017672492 0.017873969 0.025979387 0.06979499 -0.037942383 0.12861173
0.05452166 -0.011628315 0.0020986963 0.000138318 0.0031551681 0.012879049 0.03822159 0.0053428174
-0.01818408 -0.015879061 0.036554705 -0.0030912373 -0.0033284973 0.00068426103 0.07419706 0.027765311
0.110443935 -0.022588888 0.046156984 0.079275995 0.04911712 -0.0035597503 0.08532666 -0.0055012754
0.017606616 0.025252705 0.04742975 0.029351175 0.021652143 0.020888047 0.017513108 -0.03546246
-0.01606681 0.005488582 0.045100186 0.0016846491 -0.04658203 0.004117012 -0.007954961 -0.005658038
-0.014453548 0.05177802 0.020602137 -0.018959893 0.054376904 0.006366902 -0.012043343 -0.007974316
0.021972073 -0.023356529 0.044730976 0.010247297 0.084491886 0.051010095 0.007405843 -0.014903105
0.018781276 0.012969851 -0.026784033 0.13651136 0.07601263 -0.022389129 0.0045560445 0.0032382156
0.058861464 0.008884132 0.05581825 0.034840785 -0.015238931 -0.0026144935 0.05084513 -0.026538279
-0.01137331 0.024319824 0.11228674 0.061130702 0.06882788 -0.02423084 0.059238918 0.10141001
00000000: 7fea e73c 5a20 023d 5922 b33d dce7 673d
00000010: 8e1a 193c 4f3c 95bc cf2c 713c e68a 953c
00000020: 1cd4 e8bc 7cdf 093e 3e8d a43d c87b fcbc
00000030: 0dd5 b8bb 55d8 303b f316 8e3d 33f3 cd3b
00000040: 6cce 5c3d fdd6 263d bb61 68bc 4cab 45b8
00000050: b17b 443d a911 f2bc 4a33 2abc 03cc b83c
00000060: f326 e23d 1e08 873d 312f 993d 0197 ebbc
00000070: f369 793d 3066 df3d 3cd2 9b3d d5de f4bb
00000080: 527c 8e3d 387a 0e3d e7c5 90bc 6e6c 923c
00000090: b9d2 d43c adf0 8e3d 7969 1bbd cbb2 033e
000000a0: 1b52 5f3d b084 3ebc 488a 093b 7509 1139
000000b0: f0c6 4e3b a602 533c 3e8e 1c3d cd12 af3b
000000c0: c8f6 94bc ce14 82bc 63ba 153d 5b96 4abb
000000d0: eb22 5abb fb5f 333a a1f4 973d 1474 e33c
000000e0: 6e30 e23d 550c b9bc 1b0f 3d3d 745b a23d
000000f0: 092f 493d b34a 69bb bebf ae3d 0b44 b4bb
00000100: c03b 903c c3de ce3c b345 423d e071 f03c
00000110: d65f b13c 691d ab3c a677 8f3c 1641 11bd
00000120: 8b9e 83bc 90d9 b33b f9ba 383d 72cf dc3a
00000130: cccc 3ebd 00e8 863b 8655 02bc 1067 b9bb
00000140: 93ce 6cbc 3015 543d d0c5 a83c c751 9bbc
00000150: 51ba 5e3d 72a1 d03b 7151 45bc b5a6 02bc
00000160: c7fe b33c 3156 bfbc d437 373d 47e4 273c
00000170: 150a ad3d f6ef 503d b7ac f23b 272c 74bc
00000180: 31db 993c 7f7f 543c 306a dbbc a2c9 0b3e
00000190: 82ac 9b3d 6869 b7bc df4a 953b 3e38 543b
000001a0: b818 713d c08e 113c ada1 643d 36b5 0e3d
000001b0: b6ac 79bc ec57 2bbb fc42 503d ce66 d9bc
000001c0: 1f57 3abc 5e3a c73c 97f6 e53d 3064 7a3d
000001d0: a2f5 8c3d c17f c6bc 82a4 723d 0db0 cf3d

encoder.fc1.weight f4 [3, 30]
-0.4038443 -0.2427062 -0.33344024 -0.24799758 0.1593474 -0.27729976 0.13222353 0.3913192
0.28601843 -0.35034758 -0.0534544 0.3534772 -0.07589829 0.072751485 -0.64438254 0.39161932
-0.26615807 -0.09492592 -0.0039671264 0.3988102 0.29934868 -0.1464812 -0.20112118 -0.038845275
0.28156233 -0.15011796 -0.306479 -0.06221281 0.29451022 -0.2978356 -0.17495677 0.20744298
-0.01333882 0.44446364 0.11807024 0.14702988 -0.27025083 0.21110404 0.14279298 0.30646878
-0.11160743 -0.17819811 -0.15239729 0.35118932 -0.316622 0.3949112 -0.25291315 0.2866744
0.3794565 -0.33667332 0.3509252 0.40376025 0.16198963 0.3113165 -0.21252434 -0.23882797
0.023700813 -0.3247085 -0.34014404 -0.3747201 -0.27381137 0.35916713 -1.0059102 -0.16624619
-0.04496469 -0.43254155 -0.11253471 -0.32158944 -0.099626966 -0.03225942 -0.2979917 0.19851783
0.27925834 0.08510168 -1.087816 0.2863884 -0.06162039 -0.17598194 0.10793072 -0.31445614
0.04670839 -0.24011114 0.02294287 0.28331116 -0.17954604 0.47996178 0.32494402 -0.31765646
0.21041986 0.15613076
00000000: aec4 cebe f987 78be aeb8 aabe 14f3 7dbe
00000010: f72b 233e 3cfa 8dbe 9b65 073e fd5a c83e
00000020: 0271 923e c260 b3be 00f3 5abd f7fa b43e
00000030: 9070 9bbd bbfe 943d 41f6 24bf 5482 c83e
00000040: df45 88be 8568 c2bd abfe 81bb da30 cc3e
00000050: 3b44 993e 2bff 15be b6f2 4dbe 391c 1fbd
00000060: f028 903e 86b8 19be d1ea 9cbe dcd2 7ebd
00000070: 0bca 963e e87d 98be de27 33be ef6b 543e
00000080: 118b 5abc bd90 e33e cfce f13d 008f 163e
00000090: 515e 8abe a82b 583e 5338 123e 7ae9 9c3e
000000a0: 7092 e4bd 9179 36be 090e 1cbe 16cf b33e
000000b0: 471c a2be cd31 ca3e d57d 81be fdc6 923e
000000c0: 1f48 c23e 7260 acbe 78ac b33e aab9 ce3e
000000d0: 9ce0 253e e064 9f3e fb9f 59be 528f 74be
000000e0: 3528 c23c 3140 a6be 5c27 aebe 50db bfbe
000000f0: 0131 8cbe c1e4 b73e aac1 80bf 713c 2abe
00000100: e52c 38bd 1676 ddbe 9978 e6bd 5fa7 a4be
00000110: 3909 ccbd 7422 04bd 5e92 98be 4248 4b3e
00000120: f3fa 8e3e ca49 ae3d 8e3d 8bbf 80a1 923e
00000130: a965 7cbd 9c34 34be c80a dd3d 6500 a1be
00000140: 4c51 3f3d b2df 75be b0f2 bb3c 290e 913e
00000150: ebda 37be 8dbd f53e 105f a63e dea3 a2be
00000160: 4e78 573e bee0 1f3e

encoder.fc1.bias f4 [3]
0.026410786 0.014261129 -0.050543632
00000000: 6f5b d83c 83a7 693c d706 4fbd

decoder.LSTM.weight_ih_l0 f4 [120, 3]
0.22414681 -0.060353674 0.13502966 -0.17936406 -0.039489664 -0.13543221 -0.16526611 0.09651195
0.103281446 0.008003534 -0.0095444815 -1.2423023 0.17739794 0.17223245 0.03569501 -0.019567857
-0.01034312 -0.35770518 -0.0382643 0.06108581 -0.52966225 0.082187004 0.17518073 -0.081206664
0.10067843 0.20175938 -0.16232264 -0.21834484 0.010886824 -0.3374014 -0.024632417 -0.097165726
-0.19510974 -0.12563814 0.09978833 -0.04173838 0.040519234 -0.012242454 0.12303172 0.11171208
0.12532218 -0.2272597 0.03887537 0.15463668 0.07520617 0.20766044 0.13713875 0.05797634
-0.05857321 0.0950778 -0.18068111 -0.048063274 0.2332769 0.0588383 -0.2718189 0.03705195
-0.16889895 -0.0655349 0.18424596 0.061747514 -0.37581584 0.30022997 -0.08555918 0.11820548
-0.03011361 0.08569469 0.03008446 0.122822374 0.18878542 0.26730973 -0.15759218 0.109222926
0.10501683 0.03167308 0.044125915 0.06733891 0.055183806 0.014831568 -0.06636343 0.13950074
0.0055111265 0.060506377 0.033307433 0.059393343 -0.04364 0.15562959 0.01696162 0.029175919
-0.044928808 0.1166796 0.28174806 0.21372575 0.21760014 -0.1275626 0.054906882 -0.25029555
-0.09118622 -0.005228767 0.06952248 0.24347481 -0.34519815 -1.3178058 0.22213715 0.08237164
0.08979765 -0.08220658 0.13135576 -0.16468889 -0.5411749 0.5080658 -0.36276 -0.13109185
0.19544499 0.062372092 0.1682954 0.20375897 -0.13670951 0.00023723919 -0.17291328 -0.3321895
0.14415327 0.2166674 0.072460756 0.101087816 0.09837746 -0.28165954 0.13525082 0.1450315
-0.15074523 -0.19893947 0.01018761 -0.2714504 -0.18233949 -0.0020549963 -0.06720372 0.07234324
-0.117289096 0.2361987 -0.14759609 0.36464286 -0.2196737 -0.011113263 0.047166377 0.3417305
-0.037747182 -0.024627218 -0.42949253 -0.079552665 0.18048675 -0.0019688937 -0.13755436 0.056869004
-0.24155898 0.25694484 0.13487977 0.20274429 -0.09137456 -0.12985939 0.05176257 0.24163152
-0.14397746 -0.01624988 -0.15993726 0.3509322 1.0012972 -0.018257113 0.1267785 -0.03766603
0.21172145 0.08675082 0.3366333 -0.23342472 0.07962495 0.09755581 -0.1297841 -0.019307282
0.12977466 0.053807978 -0.18075955 -0.12182307 0.1721805 -0.115601905 -0.12071487 0.18889937
0.1442748 0.12724048 -0.19897468 -0.2611576 -0.14206062 -0.07932862 0.08813121 -0.4174199
-0.12398087 -0.22777565 -0.0030550456 0.15767616 0.11780051 0.16823062 -0.05993471 -0.11151899
-0.2474696 -0.1409464 0.1692037 -0.086263135 -0.12396927 0.21272379 -0.21717966 -0.14552377
0.14109695 -0.17214656 -0.15787673 -0.01175893 -0.102545686 -0.14264107 -0.15851036 -0.024028858
0.116551906 -0.11515514 -0.08556618 0.060331214 0.00060844916 -0.18929332 0.1375667 0.04451915
-0.06242035 0.034732264 0.21577805 -0.2521174 0.085125625 0.08017512 0.13036136 0.025668936
0.14359823 -0.14529079 0.21253468 -0.0830256 -0.106461324 -0.05964538 -0.11626256 -0.048810776
0.19949216 -0.28439268 0.0029829994 0.0994729 -0.18843284 0.04260462 0.09125385 0.08912915
-0.11657289 -0.14402036 0.055468075 -0.17487136 -0.18968548 0.11743565 -0.2621735 0.09481306
00000000: be86 653e 6a35 77bd 3745 0a3e 36ab 37be
00000010: eabf 21bd beae 0abe 853b 29be 0fa8 c53d
00000020: 3985 d33d 4121 033c 7560 1cbc c303 9fbf
00000030: cea7 353e b45d 303e ee34 123d c54c a0bc
00000040: 3176 29bc 2225 b7be 07bb 1cbd 1d35 7a3d
00000050: f297 07bf a951 a83d 9462 333e ae4f a6bd
00000060: 7e30 ce3d 039a 4e3e e837 26be ca95 5fbe
00000070: a65e 323c e0bf acbe ecc9 c9bc d3fe c6bd
00000080: d9ca 47be 49a7 00be d35d cc3d ddf5 2abd
00000090: 7ff7 253d 9394 48bc 0ef8 fb3d 4ec9 e43d
000000a0: 7554 003e c4b6 68be c83b 1f3d 1459 1e3e
000000b0: b105 9a3d f0a4 543e 1a6e 0c3e 9978 6d3d
000000c0: 76ea 6fbd 26b8 c23d 7804 39be ffdd 44bd
000000d0: 24e0 6e3e 6e00 713d d92b 8bbe c9c3 173d
000000e0: d9f3 2cbe 2937 86bd f9aa 3c3e f6ea 7c3d
000000f0: ef6a c0be beb7 993e a739 afbd b715 f23d
00000100: d1b0 f6bc b380 af3d af73 f63c 4c8a fb3d
00000110: f750 413e d2dc 883e d85f 21be 45b0 df3d
00000120: 1013 d73d a2bb 013d 60bd 343d fce8 893d
00000130: 6a08 623d 1b00 733c 8de9 87bd 48d9 0e3e
00000140: ae96 b43b 89d5 773d 606d 083d 6f46 733d
00000150: dbbf 32bd 5d5d 1f3e 18f3 8a3c 5602 ef3c
00000160: 4507 38bd b7f5 ee3d 4841 903e ecda 5a3e
00000170: 92d2 5e3e c59f 02be 0ae6 603d bd26 80be
00000180: d7bf babd 1456 abbb cd61 8e3d 7651 793e
00000190: d0bd b0be dcad a8bf ec77 633e 76b2 a83d
000001a0: d5e7 b73d ec5b a8bd 2082 063e 34a4 28be
000001b0: 708a 0abf 9a10 023f aebb b9be f13c 06be
000001c0: bb22 483e e179 7f3d a155 2c3e 31a6 503e
000001d0: 94fd 0bbe 69c3 7839 2e10 31be be14 aabe
000001e0: ea9c 133e 0fde 5d3e 4e66 943d 2107 cf3d
000001f0: 1f7a c93d ae35 90be 317f 0a3e 2383 143e
00000200: f55c 1abe cab6 4bbe efe9 263c 8cfb 8abe
00000210: 34b7 3abe 1ead 06bb 1ba2 89bd b128 943d
00000220: 4435 f0bd 12de 713e 6e23 17be 78b2 ba3e
00000230: 24f2 60be 6714 36bc 8831 413d 4df7 ae3e
00000240: ca9c 1abd 05bf c9bc 72e6 dbbe 82ec a2bd
00000250: 85d1 383e 8e08 01bb 0ddb 0cbe 79ef 683d
00000260: 3d5b 77be 468e 833e ec1d 0a3e 339c 4f3e
00000270: 9622 bbbd dcf9 04be fd04 543d 416e 773e
00000280: d46e 13be 781e 85bc 98c6 23be 63ad b33e
00000290: 822a 803f f18f 95bc 39d2 013e b247 1abd
000002a0: 82cd 583e 6aaa b13d 335b ac3e e406 6fbe
000002b0: 6812 a33d 57cb c73d 20e6 04be 4e2a 9ebc
000002c0: a6e3 043e c165 5c3d 0819 39be 607e f9bd
000002d0: 1650 303e b1c0 ecbd 5c39 f7bd d66e 413e
000002e0: c6bc 133e 544b 023e 05c0 4bbe 73b6 85be
000002f0: 5778 11be 0b77 a2bd 237e b43d 10b8 d5be
00000300: afe9 fdbd 053e 69be 2937 48bb dc75 213e
00000310: 6541 f13d a644 2c3e 197e 75bd 1164 e4bd
00000320: ac68 7dbe 4154 10be bc43 2d3e baaa b0bd
00000330: 9ae3 fdbd 44d4 593e 5864 5ebe 2f04 15be
00000340: b87b 103e 3047 30be 70aa 21be 87a8 40bc
00000350: 7903 d2bd 8010 12be 8a50 22be 2bd8 c4bc
00000360: c4b2 ee3d 75d6 ebbd 523d afbd dd1d 773d
00000370: 5580 1f3a 1cd6 41be 49de 0c3e b659 363d
00000380: 7bac 7fbd 6b43 0e3d ecf4 5c3e 8815 81be
00000390: 5856 ae3d da32 a43d 737d 053e a947 d23c
000003a0: 6a0b 133e 1cc7 14be b1a2 593e 5309 aabd
000003b0: 6508 dabd b74e 74bd 111b eebd cfed 47bd
000003c0: ac47 4c3e eb9b 91be 6d7e 433b 73b8 cb3d
000003d0: 8af4 40be 2f82 2e3d 4ce3 ba3d 5889 b63d
000003e0: c4bd eebd 137a 13be 7e32 633d 7a11 33be
000003f0: e93c 42be 1a82 f03d 9b3b 86be 592d c23d

decoder.LSTM.weight_hh_l0 f4 [120, 30]
-0.045781493 -0.093827195 0.061349038 -0.07773233 -0.037486263 -0.21673915 0.2553646 -0.08137029
0.22758959 0.014724405 -0.1101492 0.020346526 -0.033606913 -0.2241539 0.08747563 -0.07448714
-0.10269858 -0.0032692181 -0.06908897 0.07869464 0.086914435 0.24737287 -0.079016395 0.010732147
-0.07297661 -0.0173355 0.20842293 0.06471203 0.021401005 0.013075268 0.25623962 -0.18857388
-0.15645324 -0.10018895 0.15810324 -0.1762191 -0.081427135 -0.09980845 0.02588295 -0.12099884
0.021597037 -0.28293154 -0.011902573 -0.04337309 -0.17705108 0.02754216 0.04119274 -0.0067840056
-0.106953606 -0.0481807 0.04334153 0.25783044 -0.21576251 -0.08656942 0.062332254 -0.0008850902
0.045680493 0.23538178 0.009119063 -0.1436145 0.17504224 0.12717001 -0.049834184 -0.23364055
-0.09248268 -0.25579193 0.23961945 -0.061067477 0.027302986 -0.15599954 -0.087971404 0.10248465
-0.16641101 -0.22504736 -0.028056988 0.010156137 0.100166164 0.09910436 -0.056581147 -0.21723829
0.08249277 0.2330872 -0.25831693 -0.22969769 0.06570035 -0.06600436 0.07022287 -0.14180806
0.08311314 0.0048284363 -0.0510039 0.021829149 0.06383561 0.10435968 -0.06671447 0.21842745
0.19851536 -0.13990782 -0.19377989 -0.19070253 -0.13433957 -0.102049194 -0.15384316 0.04652171
0.01923668 -0.069236025 0.17382291 -0.04540289 -0.16713919 0.08909228 0.047647707 0.06382552
0.1146235 0.124327414 -0.18464416 -0.027587984 0.10263687 0.09643123 -0.09650587 -0.13006714
0.02866453 0.019781325 -0.06251482 -0.014125876 0.060751077 -0.019168047 0.04951148 -0.20512803
0.17020842 -0.10047309 -0.08038807 -0.119008504 -0.014766326 -0.009012643 -0.15704851 0.25121558
-0.28252554 0.31010553 -0.3727916 -0.24399543 -0.018531036 0.097697385 -0.32063556 -0.30556127
0.062359653 0.11045459 -0.094319455 0.2907908 0.00077171216 -0.07916431 0.12483754 0.012288525
0.13860838 0.010506 0.25399366 -0.12848671 -0.04490946 -0.125477 0.21797508 -0.06962724
0.10497826 -0.19862074 0.050438926 -0.042269863 -0.039868616 0.020333072 0.007124313 0.07473664
-0.06704795 -0.19673583 0.022602538 0.23015699 -0.051115844 -0.17842656 0.06966242 -0.26557773
-0.16141573 -0.058220446 0.0870815 0.05277999 0.20871948 -0.07750691 -0.07496101 0.5117783
0.19440877 0.024317123 0.2725476 -0.12151095 -0.100004554 0.16694193 -0.0017573687 0.02113297
-0.245893 0.10146633 -0.21852072 0.48425362 -0.21923956 0.255124 -0.11057931 0.022620903
-0.7810568 -0.16436964 -0.0811398 0.0016155939 0.27902973 0.3419208 -0.12578456 -0.0564107
-0.1310007 0.07462377 0.15593165 0.02886136 -0.11452804 -0.072333105 0.10461498 -0.22688194
0.24254791 -0.23130219 0.18980397 -0.0007797235 -0.20323779 0.055890482 0.09658064 -0.09822906
-0.12776877 -0.16982746 -0.17677982 0.15453243 0.091519475 -0.2112469 -0.24748062 0.0060140104
-0.016759658 -0.2345213 0.17126854 -0.1810511 -0.12195694 0.19099934 0.055512767 0.10701425
0.12953775 -0.013125721 -0.0035458733 -0.12751503 -0.06123705 0.0033112457 0.18046427 0.11648626
0.2623254 0.1179453 -0.13987903 -0.21028727 -0.037777793 0.039514873 -0.0067976434 -0.11738829
00000000: 6085 3bbd 7928 c0bd 2149 7b3d 2132 9fbd
00000010: 328b 19bd def0 5dbe 26bf 823e 77a5 a6bd
00000020: 3f0d 693e a13e 713c e795 e1bd c2ad a63c
00000030: 67a7 09bd 9a88 65be 6c26 b33d b78c 98bd
00000040: a253 d2bd 6140 56bb 857e 8dbd a82a a13d
00000050: 3200 b23d 504f 7d3e 59d3 a1bd e3d5 2f3c
00000060: c374 95bd 2e03 8ebc d26c 553e be87 843d
00000070: 2951 af3c a639 563c d731 833e 8319 41be
00000080: 4735 20be dd2f cdbd d1e5 213e c872 34be
00000090: 45c3 a6bd 5f68 ccbd 7b08 d43c 3dce f7bd
000000a0: 45ec b03c 67dc 90be 0203 43bc fba7 31bd
000000b0: e14c 35be 19a0 e13c b8b9 283d 5d4c debb
000000c0: 7e0a dbbd 2059 45bd e386 313d 5a02 843e
000000d0: d9f0 5cbe 4f4b b1bd 1b50 7f3d 6605 68ba
000000e0: 781b 3b3d ec07 713e 1f68 153c ae0f 13be
000000f0: 463e 333e db38 023e ee1e 4cbd 783f 6fbe
00000100: 8f67 bdbd 29f7 82be cd5e 753e e421 7abd
00000110: 83aa df3c 58be 1fbe 5a2a b4bd 79e3 d13d
00000120: a667 2abe d172 66be c5d7 e5bc ed65 263c
00000130: eb23 cd3d 3af7 ca3d a2c1 67bd b773 5ebe
00000140: f8f1 a83d 69ae 6e3e 1e42 84be df35 6bbe
00000150: e88d 863d 4b2d 87bd 02d1 8f3d 2236 11be
00000160: 3937 aa3d dc37 9e3b 77e9 50bd 0bd3 b23c
00000170: 3fbc 823d 87ba d53d 99a1 88bd 72ab 5f3e
00000180: 9c47 4b3e ff43 0fbe 3c6e 46be 8647 43be
00000190: 5090 09be 2bff d0bd 1089 1dbe 8c8d 3e3d
000001a0: 3e96 9d3c 9ecb 8dbd a2fe 313e 61f8 39bd
000001b0: 8926 2bbe 0376 b63d 3e2a 433d f4b6 823d
000001c0: babf ea3d 5f9f fe3d 5c13 3dbe 3200 e2bc
000001d0: 4833 d23d bd7d c53d dfa4 c5bd 5230 05be
000001e0: e0d1 ea3c 720c a23c c507 80bd 3870 67bc
000001f0: 1fd6 783d 4f06 9dbc 8dcc 4a3d 150d 52be
00000200: 1e4b 2e3e d6c4 cdbd 80a2 a4bd bbba f3bd
00000210: 76ee 71bc c4a9 13bc 53d1 20be 549f 803e
00000220: 30a7 90be 27c6 9e3e 8ade bebe f0d9 79be
00000230: 66ce 97bc 9115 c83d 582a a4be 8772 9cbe
00000240: d66c 7f3d 0436 e23d 8f2a c1bd 88e2 943e
00000250: ba4c 4a3a e620 a2bd d3aa ff3d cf55 493c
00000260: 5bef 0d3e 5c21 2c3c 750b 823e 0592 03be
00000270: fbf2 37bd 0b7d 00be dc34 5f3e ba98 8ebd
00000280: d8fe d63d 3c63 4bbe 0c99 4e3d 2a23 2dbd
00000290: 464d 23bd 8b91 a63c 1273 e93b 860f 993d
000002a0: 7050 89bd 1e75 49be f528 b93c 46ae 6b3e
000002b0: d95e 51bd 74b5 36be 2cab 8e3d cef9 87be
000002c0: 2a4a 25be 9078 6ebd c957 b23d d52f 583d
000002d0: 8fba 553e f1bb 9ebd 2885 99bd e703 033f
000002e0: 1813 473e b434 c73c 5c8b 8b3e bcda f8bd
000002f0: 30cf ccbd d3f2 2a3e 8257 e6ba 0d1f ad3c
00000300: 60cb 7bbe 94cd cf3d e5c3 5fbe 17f0 f73e
00000310: 5680 60be 9d9f 823e 6877 e2bd 794f b93c
00000320: 57f3 47bf 8450 28be a02c a6bd 56c2 d33a
00000330: fcdc 8e3e 3e10 af3e abcd 00be e80e 67bd
00000340: 0c25 06be 59d4 983d 8cac 1f3e a96e ec3c
00000350: ad8d eabd 6123 94bd 6140 d63d bd53 68be
00000360: 7b5e 783e 7bda 6cbe f95b 423e 5c66 4cba
00000370: 911d 50be 6bed 643d 12cc c53d 512c c9bd
00000380: d1d5 02be 40e7 2dbe c505 35be c03d 1e3e
00000390: 906e bb3d 1b51 58be 8f6b 7dbe 2d11 c53b
000003a0: 8d4b 89bc 5a26 70be 0561 2f3e 7665 39be
000003b0: 8fc4 f9bd 5595 433e 5b61 633d 492a db3d
000003c0: 8ba5 043e 440d 57bc e261 68bb 4d93 02be
000003d0: b3d3 7abd 7c01 593b a0cb 383e 5990 ee3d
000003e0: 844f 863e 4e8d f13d 733c 0fbe 8c55 57be
000003f0: e3bc 1abd 59da 213d c4be debb 4669 f0bd

decoder.LSTM.bias_ih_l0 f4 [120]
0.015749505 0.040252633 0.011759581 -0.014016955 0.07287796 0.02781254 0.024464794 -0.027878353
0.026700921 -0.015864773 0.045034345 0.005270025 0.03210337 0.032136053 0.019774094 0.028054025
0.026365234 0.023721337 0.0024176207 0.034861114 0.025199732 -0.0072786976 0.037143376 0.041756958
0.06688048 0.055502653 0.0015363194 0.032249995 0.048184656 0.043074843 0.04511119 0.07016782
0.033299364 -0.025651114 0.10128378 0.053111743 0.13215825 -0.011847548 0.05174358 -0.036630936
0.07223624 0.028796943 0.056433786 0.055560987 0.04212201 0.04282926 0.049352624 0.041939016
0.029862436 0.056369774 0.07328245 0.023754843 -0.059702925 0.069397315 0.051725198 0.05318189
-0.0074280426 0.052941687 0.06622382 0.06458058 0.027906459 -0.02656498 -0.016063837 -0.012729818
-0.022464944 0.00393467 -0.07159866 0.0076675126 0.018840142 -0.009867832 -0.022705734 0.011740779
-0.016134787 -0.030878427 0.012460623 0.027120456 0.00591299 0.03232517 0.006386265 -0.012451056
0.051138088 0.01936034 0.052842624 -0.027868874 0.0022796902 0.030371128 -0.022037718 0.030796247
0.02733967 -0.022392524 0.035705768 0.050150387 0.021098256 0.0012740087 0.059247483 0.037638023
0.06015941 -0.013958604 0.041003745 -0.01650174 0.054545943 0.02065554 0.048809472 0.03861595
0.026126966 0.022184173 0.035099026 0.03194922 0.013962742 0.037174065 0.057931863 0.013263304
0.022862064 0.0502603 0.03512825 0.048573174 0.003437449 0.029030904 0.0458245 0.04511429
00000000: 1b05 813c f2df 243d 42ab 403c 5fa7 65bc
00000010: 0a41 953d 20d7 e33c 646a c83c 2561 e4bc
00000020: e4bb da3c d7f6 81bc ef75 383d 2db0 ac3b
00000030: d37e 033d 18a1 033d 48fd a13c 8ed1 e53c
00000040: e7fb d73c 4053 c23c f270 1e3b 87ca 0e3d
00000050: ab6f ce3c 2482 eebb a723 183d 5809 2b3d
00000060: a2f8 883d c056 633d 535e c93a 9218 043d
00000070: 465d 453d 3f6f 303d 83c6 383d 25b4 8f3d
00000080: ea64 083d 4922 d2bc df6d cf3d b38b 593d
00000090: 7e54 073e 381c 42bc 13f1 533d 520a 16bd
000000a0: 98f0 933d 91e7 eb3c 1d27 673d eb93 633d
000000b0: 2188 2c3d bc6d 2f3d fa25 4a3d 3fc8 2b3d
000000c0: 11a2 f43c fee3 663d 1c15 963d 8499 c23c
000000d0: 0e8b 74bd 2e20 8e3d cddd 533d 41d5 593d
000000e0: f066 f3bb 62d9 583d 5ba0 873d d342 843d
000000f0: 169c e43c cd9e d9bc 4f98 83bc ba90 50bc
00000100: 6708 b8bc 67ee 803b 51a2 92bd c23f fb3b
00000110: a456 9a3c b0ac 21bc 6001 babc 655c 403c
00000120: 1a2d 84bc c1f4 fcbc a427 4c3c b82b de3c
00000130: c1c1 c13b 6667 043d e043 d13b 84ff 4bbc
00000140: 2c76 513d 9399 9e3c 8271 583d 444d e4bc
00000150: db66 153b dfcc f83c 7288 b4bc 6948 fc3c
00000160: 72f7 df3c 8770 b7bc 3640 123d 7e6a 4d3d
00000170: 40d6 ac3c a3fc a63a 7dad 723d 542a 1a3d
00000180: b769 763d a1b2 64bc 8bf3 273d a82e 87bc
00000190: 916b 5f3d cf35 a93c 71ec 473d c22b 1e3d
000001a0: 3808 d63c 95bb b53c ffc3 0f3d 2fdd 023d
000001b0: fcc3 643c d543 183d f649 6d3d 544e 593c
000001c0: 3949 bb3c bfdd 4d3d a4e2 0f3d aaf4 463d
000001d0: d346 613b 38d2 ed3c 79b2 3b3d c3c9 383d

decoder.LSTM.bias_hh_l0 f4 [120]
0.015749505 0.040252633 0.011759581 -0.014016955 0.07287796 0.02781254 0.024464794 -0.027878353
0.026700921 -0.015864773 0.045034345 0.005270025 0.03210337 0.032136053 0.019774094 0.028054025
0.026365234 0.023721337 0.0024176207 0.034861114 0.025199732 -0.0072786976 0.037143376 0.041756958
0.06688048 0.055502653 0.0015363194 0.032249995 0.048184656 0.043074843 0.04511119 0.07016782
0.033299364 -0.025651114 0.10128378 0.053111743 0.13215825 -0.011847548 0.05174358 -0.036630936
0.07223624 0.028796943 0.056433786 0.055560987 0.04212201 0.04282926 0.049352624 0.041939016
0.029862436 0.056369774 0.07328245 0.023754843 -0.059702925 0.069397315 0.051725198 0.05318189
-0.0074280426 0.052941687 0.06622382 0.06458058 0.027906459 -0.02656498 -0.016063837 -0.012729818
-0.022464944 0.00393467 -0.07159866 0.0076675126 0.018840142 -0.009867832 -0.022705734 0.011740779
-0.016134787 -0.030878427 0.012460623 0.027120456 0.00591299 0.03232517 0.006386265 -0.012451056
0.051138088 0.01936034 0.052842624 -0.027868874 0.0022796902 0.030371128 -0.022037718 0.030796247
0.02733967 -0.022392524 0.035705768 0.050150387 0.021098256 0.0012740087 0.059247483 0.037638023
0.06015941 -0.013958604 0.041003745 -0.01650174 0.054545943 0.02065554 0.048809472 0.03861595
0.026126966 0.022184173 0.035099026 0.03194922 0.013962742 0.037174065 0.057931863 0.013263304
0.022862064 0.0502603 0.03512825 0.048573174 0.003437449 0.029030904 0.0458245 0.04511429
00000000: 1b05 813c f2df 243d 42ab 403c 5fa7 65bc
00000010: 0a41 953d 20d7 e33c 646a c83c 2561 e4bc
00000020: e4bb da3c d7f6 81bc ef75 383d 2db0 ac3b
00000030: d37e 033d 18a1 033d 48fd a13c 8ed1 e53c
00000040: e7fb d73c 4053 c23c f270 1e3b 87ca 0e3d
00000050: ab6f ce3c 2482 eebb a723 183d 5809 2b3d
00000060: a2f8 883d c056 633d 535e c93a 9218 043d
00000070: 465d 453d 3f6f 303d 83c6 383d 25b4 8f3d
00000080: ea64 083d 4922 d2bc df6d cf3d b38b 593d
00000090: 7e54 073e 381c 42bc 13f1 533d 520a 16bd
000000a0: 98f0 933d 91e7 eb3c 1d27 673d eb93 633d
000000b0: 2188 2c3d bc6d 2f3d fa25 4a3d 3fc8 2b3d
000000c0: 11a2 f43c fee3 663d 1c15 963d 8499 c23c
000000d0: 0e8b 74bd 2e20 8e3d cddd 533d 41d5 593d
000000e0: f066 f3bb 62d9 583d 5ba0 873d d342 843d
000000f0: 169c e43c cd9e d9bc 4f98 83bc ba90 50bc
00000100: 6708 b8bc 67ee 803b 51a2 92bd c23f fb3b
00000110: a456 9a3c b0ac 21bc 6001 babc 655c 403c
00000120: 1a2d 84bc c1f4 fcbc a427 4c3c b82b de3c
00000130: c1c1 c13b 6667 043d e043 d13b 84ff 4bbc
00000140: 2c76 513d 9399 9e3c 8271 583d 444d e4bc
00000150: db66 153b dfcc f83c 7288 b4bc 6948 fc3c
00000160: 72f7 df3c 8770 b7bc 3640 123d 7e6a 4d3d
00000170: 40d6 ac3c a3fc a63a 7dad 723d 542a 1a3d
00000180: b769 763d a1b2 64bc 8bf3 273d a82e 87bc
00000190: 916b 5f3d cf35 a93c 71ec 473d c22b 1e3d
000001a0: 3808 d63c 95bb b53c ffc3 0f3d 2fdd 023d
000001b0: fcc3 643c d543 183d f649 6d3d 544e 593c
000001c0: 3949 bb3c bfdd 4d3d a4e2 0f3d aaf4 463d
000001d0: d346 613b 38d2 ed3c 79b2 3b3d c3c9 383d

decoder.fc1.weight f4 [1, 30]
0.16338694 0.038449842 0.35836175 -0.11033152 -0.18177105 -0.41489568 0.3174772 -0.4180932
0.07290905 -0.37159792 -0.16373709 -0.26313204 0.3464494 0.4125457 -0.6687846 -0.33829483
-0.28859785 0.32749957 -0.47666702 -0.25062647 -0.1150209 0.14401157 -0.46166965 -0.14002976
0.35032263 -0.28011274 -0.19389607 0.19073515 -0.044280365 0.18920992
00000000: e84e 273e 957d 1d3d 317b b73e 7ef5 e1bd
00000010: 3122 3abe 356d d4be 5f8c a23e 5010 d6be
00000020: 5751 953d 1542 bebe b2aa 27be 3eb9 86be
00000030: d161 b13e 3139 d33e 7835 2bbf fb34 adbe
00000040: 19c3 93be 06ae a73e b30d f4be 1d52 80be
00000050: 1490 ebbd c577 133e f75f ecbe f663 0fbe
00000060: 7d5d b33e f06a 8fbe b18c 46be 1350 433e
00000070: 545f 35bd 3fc0 413e

exp_avg f4 [120, 1]
4.5851048e-06 3.4241498e-06 2.9851228e-06 9.122171e-07 -1.9188362e-06 -2.2102536e-07 6.4219466e-07 -3.205308e-07
-6.531556e-07 -2.2749311e-06 1.7027442e-06 -5.284963e-06 6.2875154e-07 -2.7222555e-07 2.2698343e-06 -1.6091591e-06
2.2499516e-06 2.4719247e-06 -1.8865933e-06 8.715881e-07 -5.962633e-06 -3.825586e-07 -6.464865e-07 -5.862958e-07
3.7167829e-06 1.0440334e-06 5.129367e-06 1.6057361e-06 -1.473638e-06 3.0437482e-06 -7.586821e-07 4.0833906e-06
1.8300927e-06 -5.5852042e-06 -2.9912053e-06 -8.688411e-07 -1.7187405e-06 -3.5541387e-07 -5.884137e-07 -1.7178401e-05
-6.0051116e-06 -1.1583069e-05 1.5216483e-07 -8.388301e-07 1.2878756e-06 -6.373704e-07 1.1197716e-06 -4.765158e-07
-2.1313392e-06 3.298281e-07 -9.173506e-06 -1.1316461e-06 -1.8200298e-06 -1.4162893e-06 -1.6606506e-06 -1.160801e-06
3.4420596e-06 8.1399907e-07 -1.2642264e-05 -1.8760709e-06 -4.862477e-05 9.6773965e-06 5.706632e-05 -2.5890244e-05
1.8093659e-05 -1.4839746e-05 -9.472277e-06 -1.6790695e-05 -2.0490588e-05 -5.99999e-05 2.1902575e-05 -2.7424596e-05
4.2521633e-06 -1.0626665e-05 4.3820703e-05 4.687476e-06 6.0054026e-06 -1.6908256e-06 -3.089534e-05 -8.774892e-06
4.470406e-05 -5.410838e-06 1.7630674e-06 1.9272786e-05 -2.7163971e-05 5.0012175e-05 -4.0918407e-05 -5.0286535e-06
4.0664385e-05 0.0001727727 4.7048725e-06 5.633202e-06 3.717137e-06 2.654174e-06 -1.5932764e-06 -2.4788082e-07
1.0167216e-06 -3.80027e-07 -6.022908e-07 -4.4286817e-06 2.380637e-06 -7.2092325e-06 5.6597537e-07 -8.477188e-08
2.7872366e-06 -1.4361549e-06 2.0251819e-06 2.6569396e-06 -1.8398155e-06 9.986312e-07 -4.2755514e-06 -3.4901998e-07
-6.4964763e-07 -1.7544292e-07 3.8044093e-06 1.3135804e-06 6.903345e-06 1.4938694e-06 -2.9780279e-06 4.579833e-06
00000000: c0d9 9936 72ca 6536 0554 4836 15df 7435
00000010: 5bc5 00b6 fd52 6db4 4863 2c35 6b15 acb4
00000020: 8354 2fb5 05ab 18b6 d889 e435 7d55 b1b6
00000030: 7ac7 2835 6526 92b4 7553 1836 49fa d7b5
00000040: e0fd 1636 58e3 2536 da36 fdb5 14f7 6935
00000050: a112 c8b6 7462 cdb4 378a 2db5 f161 1db5
00000060: d86d 7936 b720 8c35 ed1c ac36 ac84 d735
00000070: d1c9 c5b5 3243 4c36 3da8 4bb5 0f04 8936
00000080: 82a1 f535 8a68 bbb6 84bc 48b6 4e3a 69b5
00000090: 79af e6b5 b6cf beb4 7bf3 1db5 561a 90b7
000000a0: 847f c9b6 e754 42b7 c062 2334 f72b 61b5
000000b0: 12db ac35 c317 2bb5 0f4b 9635 d5d3 ffb4
000000c0: 2108 0fb6 3b13 b134 e9e7 19b7 10e3 97b5
000000d0: bf47 f4b5 5417 beb5 85e3 deb5 d2cc 9bb5
000000e0: 22fe 6636 9781 5a35 1c1a 54b7 4ecd fbb5
000000f0: 73f2 4bb8 1a5c 2237 7f5a 6f38 e02e d9b7
00000100: d6c7 9737 39f8 78b7 1feb 1eb7 bed9 8cb7
00000110: 34e3 abb7 67a8 7bb8 6cbb b737 df0d e6b7
00000120: cead 8e36 2e49 32b7 1fcc 3738 1d49 9d36
00000130: 0482 c936 53f0 e2b5 9e95 01b8 e037 13b7
00000140: 9e80 3b38 bf8e b5b6 89a2 ec35 feab a137
00000150: 2fde e3b7 2ac4 5138 ce9f 2bb8 cebb a8b6
00000160: 0d8f 2a38 522a 3539 8cde 9d36 d604 bd36
00000170: ed73 7936 5d1e 3236 8fd8 d5b5 7b14 85b4
00000180: 4a76 8835 8306 ccb4 1cad 21b5 169a 94b6
00000190: 08c3 1f36 d6e6 f1b6 88ed 1735 d50b b6b3
000001a0: 5c0c 3b36 e8c1 c0b5 5ce8 0736 e04d 3236
000001b0: 94ef f6b5 b508 8635 b576 8fb6 f160 bbb4
000001c0: 7263 2eb5 6261 3cb4 414f 7f36 474e b035
000001d0: 48a3 e736 f680 c835 21da 47b6 77ac 9936

exp_avg_sq f4 [120, 1]
4.372934e-10 4.2167972e-10 1.8427072e-10 1.6915434e-10 7.6634776e-10 8.2514016e-11 5.1036286e-10 3.0392704e-12
3.5760003e-11 2.6894524e-09 4.925715e-10 2.1016773e-09 2.2450583e-11 1.1698312e-10 1.6233018e-10 6.7330597e-10
1.2867116e-10 2.1321735e-10 1.6724672e-10 3.9179732e-11 3.924864e-09 1.522883e-10 2.974219e-10 2.335909e-10
5.9759503e-10 1.2773288e-10 6.3239336e-10 1.02491224e-10 1.1926771e-09 2.5749194e-10 2.1668296e-09 7.072989e-10
2.2538753e-10 2.2525641e-09 1.0457037e-09 1.7673646e-10 2.0640623e-09 1.998197e-12 2.4479092e-11 2.1216323e-08
5.2538742e-09 7.3627717e-09 1.871481e-11 1.10593555e-10 1.02439515e-10 3.570357e-10 4.239424e-11 2.5585228e-10
2.030918e-10 3.267505e-11 6.8811628e-09 2.336925e-10 6.1228433e-10 4.5612703e-10 4.8147775e-09 8.6902086e-10
3.124164e-10 2.5175237e-11 1.6472695e-08 3.3088232e-09 4.6344343e-08 1.4454855e-08 1.6834915e-07 2.9353568e-08
4.6164615e-08 1.2986749e-08 1.9783979e-08 1.47942085e-08 1.4245842e-08 2.2434921e-07 3.9594873e-08 9.726273e-08
8.5662866e-10 8.510485e-09 5.1993457e-08 2.0346429e-08 3.316887e-08 6.2577974e-09 3.983163e-08 2.9943117e-09
1.5593733e-07 2.0490422e-08 6.374843e-09 4.8474917e-08 1.6853356e-08 1.6607788e-07 5.7795226e-08 1.806497e-09
1.279458e-07 1.085159e-06 7.326036e-10 9.2263935e-10 2.566917e-10 4.22014e-10 6.488658e-10 9.449692e-11
3.6270778e-10 4.5813032e-12 3.2142913e-11 6.65616e-09 1.7841575e-09 3.769501e-09 1.770633e-11 1.257102e-10
2.3777705e-10 6.2904415e-10 1.04937795e-10 2.4316388e-10 1.6134871e-10 4.50215e-11 2.6775449e-09 1.285752e-10
2.7154237e-10 1.39733e-10 8.886905e-10 1.4839549e-10 1.1291091e-09 8.841559e-11 2.7033076e-09 4.2523865e-10
00000000: 9367 f02f 25d2 e72f 999b 4a2f b7fc 392f
00000010: eea6 5230 4373 b52e 9849 0c30 a1de 552c
00000020: 2f46 1d2e 59d1 3831 a365 0730 196d 1031
00000030: 387a c52d d29f 002f e27b 322f b213 3930
00000040: b679 0d2f 596f 6a2f c4e3 372f 7550 2c2e
00000050: 78db 8631 5871 272f 6982 a32f ff6a 802f
00000060: 0344 2430 9c71 0c2f bad4 2d30 6e61 e12e
00000070: 98eb a330 c58e 8d2f 45e7 1431 bc6b 4230
00000080: f3d0 772f 87cb 1a31 6eb8 8f30 e452 422f
00000090: 5ed7 0d31 519c 0c2c 0452 d72d 303f b632
000000a0: 9185 b431 a0fb fc31 019e a42d a332 f32e
000000b0: 5244 e12e 4f48 c42f ac73 3a2e 02a8 8c2f
000000c0: 424d 5f2f d6b4 0f2e 596f ec31 4c79 802f
000000d0: ae4d 2830 2cc2 fa2f 3b6f a531 e8df 6e30
000000e0: b3c0 ab2f 9871 dd2d d77f 8d32 6f61 6331
000000f0: 250c 4733 2055 7832 76c3 3434 2e25 fc32
00000100: 8846 4633 531c 5f32 6ef1 a932 9e29 7e32
00000110: e0bd 7432 a4e4 7034 060f 2a33 c0de d033
00000120: e277 6b30 8235 1232 694f 5f33 45c6 ae32
00000130: 8f75 0e33 2b04 d731 5713 2b33 7dc4 4d31
00000140: ba6f 2734 ea02 b032 b609 db31 bc32 5033
00000150: ecc4 9032 2453 3234 863a 7833 7648 f830
00000160: 7961 0934 c8a5 9135 6560 4930 f99c 7d30
00000170: 251e 8d2f 3101 e82f df5b 3230 09cd cf2e
00000180: 9566 c72f b630 a12c b45d 0d2e 34b4 e431
00000190: 7636 f530 e284 8131 1cbf 9b2d 4738 0a2f
000001a0: 25b8 822f 0ce9 2c30 bac2 e62e 46ae 852f
000001b0: a067 312f b401 462e deff 3731 b45e 0d2f
000001c0: 3148 952f 58a3 192f 0948 7430 9e29 232f
000001d0: ff2e 9b30 8d6d c22e 17c5 3931 05c7 e92f

exp_avg f4 [120, 30]
9.307043e-08 1.1196232e-06 1.7757858e-06 2.1554051e-06 -7.9615967e-07 4.5073284e-07 -1.175368e-06 8.860223e-07
-1.6927937e-07 2.8447664e-06 -2.4436495e-06 -3.7777784e-07 5.282343e-07 8.334053e-07 8.285687e-07 -5.6905026e-07
1.5788638e-07 8.937493e-08 4.0305656e-07 4.8160507e-07 -1.6389141e-06 -1.2880605e-07 -9.31977e-07 -6.700507e-07
-2.0775112e-06 -9.746818e-07 1.2151319e-06 4.667796e-07 -1.8164345e-06 -2.2946713e-06 -9.420241e-07 1.6826903e-06
8.93416e-07 2.4499475e-06 -5.7008987e-07 -1.2314167e-07 -1.507616e-06 6.01989e-07 -1.4408722e-07 2.766513e-06
-2.4363069e-06 2.195796e-07 2.70405e-07 8.131718e-07 2.5096637e-07 -7.230691e-07 3.4685038e-07 -2.712806e-07
4.223582e-07 2.7065602e-07 -1.3103494e-06 -2.9718754e-07 -1.2575002e-06 -2.9606844e-07 -3.084903e-06 -3.8066392e-07
8.125278e-07 3.5334406e-07 -7.943688e-07 -1.3907216e-06 -4.9566506e-07 1.3427209e-06 5.2608397e-07 1.124862e-06
-3.347707e-07 -1.8393199e-07 -2.277508e-07 -1.1641992e-08 6.455176e-08 1.6258477e-06 -1.3749342e-06 5.132668e-07
-7.7492594e-08 5.71858e-07 8.7985335e-08 -9.676266e-07 -2.1416987e-07 -1.6233514e-07 2.9267943e-07 -8.453785e-08
-7.857825e-07 -5.4207597e-08 -6.164892e-07 -4.613998e-07 -1.0312227e-06 -1.6623572e-07 -2.3884087e-07 -1.2608785e-07
1.316134e-07 -8.0950386e-08 1.2925218e-06 -1.3019383e-06 4.237972e-07 -6.4680773e-07 -1.7381753e-07 6.0866734e-07
2.1721505e-07 5.1936695e-07 -1.3311272e-07 -5.688085e-07 4.165791e-07 -9.827032e-07 4.019988e-07 -2.0459629e-07
6.415093e-07 7.2187026e-07 -2.261948e-08 4.4233062e-07 -1.080532e-07 3.574636e-07 -1.565327e-07 1.6031423e-07
6.1552066e-07 -2.7486473e-07 1.0806914e-06 -6.267307e-07 7.8685434e-07 2.6555952e-07 -1.4268826e-06 -1.1826504e-06
1.014383e-06 -1.4978763e-06 -2.4967497e-07 -1.5893154e-06 3.6061584e-07 3.0437153e-07 1.0539684e-06 -9.8884776e-08
4.6426226e-08 -1.7946933e-06 1.5124211e-06 -5.361987e-07 -2.7886994e-08 -5.153524e-07 1.0343826e-07 7.62433e-07
-1.996889e-07 2.627072e-07 -3.048882e-07 5.3603066e-10 7.6727747e-07 3.2339986e-07 1.0161567e-06 1.415996e-07
2.3308114e-06 1.2854431e-07 -1.584043e-07 -4.5851333e-08 1.9769716e-07 5.228039e-07 3.0524225e-07 -3.1334417e-07
1.1491812e-07 -2.5307088e-07 9.601913e-09 1.5557487e-07 1.3848363e-07 4.046772e-08 -1.0309955e-08 -2.475519e-07
2.1824262e-07 -1.978575e-07 5.8586703e-08 -8.1054964e-08 9.682446e-08 1.6866015e-07 -1.2240597e-08 1.0180388e-07
-4.9653533e-08 4.8763e-08 6.8138874e-08 4.977605e-08 1.6898606e-07 -7.2664936e-09 4.0495758e-07 -9.74948e-08
1.036936e-07 3.4678564e-08 -2.1293613e-07 -1.5120938e-07 1.1003938e-06 -8.6971323e-07 9.838906e-07 -9.822635e-09
-1.4558434e-07 6.029835e-07 6.426902e-08 5.018071e-07 -8.534322e-08 2.5241965e-07 -2.2768073e-07 -8.754393e-07
3.9453363e-07 -9.054828e-09 6.6046454e-07 6.4163305e-07 7.252309e-08 3.1287973e-07 -4.2028763e-08 4.077325e-07
-1.8485373e-07 1.8343272e-07 3.9037621e-07 -1.5999537e-07 7.148274e-07 -4.865665e-07 8.6175226e-07 4.206793e-07
-9.653386e-07 -1.0156674e-06 1.16048966e-07 -1.9166029e-07 7.3616944e-09 -1.5000346e-07 3.438059e-08 5.3771046e-08
5.252413e-08 3.2417093e-09 -3.1820901e-09 -1.7677434e-07 1.6219637e-07 -8.596818e-08 2.0340353e-08 -6.90415e-08
1.9283464e-08 1.2518075e-07 1.3347343e-08 3.941251e-08 -3.7712816e-08 1.9194552e-08 8.9934424e-08 1.6721268e-08
9.4468035e-08 4.287421e-08 2.1151857e-07 -8.5255947e-10 3.943488e-08 2.2791122e-08 -3.24968e-08 -8.966827e-09
4.5709734e-07 -5.1861815e-07 4.373246e-07 -1.0443805e-07 1.1563335e-08 2.843324e-07 -3.9883986e-08 1.664414e-07
-4.1666524e-08 -5.705898e-08 9.237216e-08 -4.1387995e-07 1.8187042e-07 -1.0565589e-07 2.3169551e-07 4.424027e-07
00000000: 03de c733 f645 9635 8957 ee35 94a5 1036
00000010: adb7 55b5 40fc f134 56c1 9db5 fdd6 6d35
00000020: 29c3 35b4 b7e8 3e36 94fd 23b6 64d1 cab4
00000030: fccb 0d35 2db7 5f35 cf6a 5e35 d6c0 18b5
00000040: 7a87 2934 63ee bf33 ac63 d834 a647 0135
00000050: a9f8 dbb5 f04d 0ab4 f92c 7ab5 89dd 33b5
00000060: 5f6b 0bb6 d0d1 82b5 9d17 a335 b399 fa34
00000070: 37cc f3b5 27fe 19b6 67df 7cb5 ccd8 e135
00000080: 14d3 6f35 c769 2436 4708 19b5 ed38 04b4
00000090: 4b59 cab5 5e98 2135 65b6 1ab4 55a8 3936
000000a0: 6f7f 23b6 95c5 6b34 2e2c 9134 be48 5a35
000000b0: 8ebc 8634 ee18 42b5 c136 ba34 86a4 91b4
000000c0: 78c0 e234 ae4e 9134 43df afb5 258d 9fb4
000000d0: 61c7 a8b5 56f3 9eb4 3b06 4fb6 0d5e ccb4
000000e0: 7c1c 5a35 3db3 bd34 9c3c 55b5 d5a8 bab5
000000f0: d80d 05b5 8a37 b435 3738 0d35 f7f9 9635
00000100: 89ba b3b4 d77e 45b4 aa8b 74b4 0602 48b2
00000110: b59f 8a33 b437 da35 618a b8b5 6dc7 0935
00000120: 016a a6b3 c881 1935 73f2 bc33 66df 81b5
00000130: 91f6 65b4 584e 2eb4 8e21 9d34 2d8b b5b3
00000140: 90ee 52b5 e2d1 68b3 d17c 25b5 4eb6 f7b4
00000150: 8b68 8ab5 877e 32b4 0a3a 80b4 c462 07b4
00000160: 9e51 0d34 f2d6 adb3 b67a ad35 42be aeb5
00000170: 3e86 e334 4aa0 2db5 99a2 3ab4 4d63 2335
00000180: 9e3b 6934 a06a 0b35 bfed 0eb4 39b0 18b5
00000190: 32a6 df34 6de5 83b5 4bd2 d734 00af 5bb4
000001a0: 2f34 2c35 8cc6 4135 c34c c2b2 7579 ed34
000001b0: e00a e8b3 6ce9 bf34 6213 28b4 d722 2c34
000001c0: 423a 2535 1f91 93b4 460c 9135 9b3c 28b5
000001d0: 3838 5335 3992 8e34 5083 bfb5 8fbb 9eb5
000001e0: ef25 8835 a30a c9b5 110b 86b4 7650 d5b5
000001f0: aa9a c134 8168 a334 1476 8d35 7b5a d4b3
00000200: 2d66 4733 31e1 f0b5 65fe ca35 4bef 0fb5
00000210: 268c efb2 bf56 0ab5 c921 de33 ffa9 4c35
00000220: 116a 56b4 340a 8d34 84af a3b4 ce57 1330
00000230: e8f6 4d35 bd9f ad34 e162 8835 9a0a 1834
00000240: 096b 1c36 fe05 0a34 d815 2ab4 13ee 44b3
00000250: 9546 5434 cf56 0c35 2de0 a334 b239 a8b4
00000260: e8c8 f633 ccdd 87b4 a9f5 2432 180c 2734
00000270: 17b2 1434 bbce 2d33 a91f 31b2 46e7 84b4
00000280: 1356 6a34 a872 54b4 c3a0 7b33 7010 aeb3
00000290: cfed cf33 f318 3534 b74a 52b2 469f da33
000002a0: a342 55b3 7c6f 5133 be53 9233 59c9 5533
000002b0: 8972 3534 c1ac f9b1 f268 d934 555e d1b3
000002c0: 29ae de33 7cf1 1433 70a3 64b4 1e5c 22b4
000002d0: 3eb1 9335 3d76 69b5 390e 8435 68c0 28b2
000002e0: eb51 1cb4 b6dc 2135 4404 8a33 ecb3 0635
000002f0: ee45 b7b3 4b84 8734 6778 74b4 bbff 6ab5
00000300: 4ad0 d334 8e8f 1bb2 c74a 3135 b03c 2c35
00000310: febd 9b33 ddf9 a734 1d83 34b3 54e6 da34
00000320: 357c 46b4 9af5 4434 e694 d134 31cb 2bb4
00000330: 91e2 3f35 989c 02b5 2a53 6735 b9d9 e134
00000340: c890 81b5 1152 88b5 9836 f933 2ecb 4db4
00000350: 26f2 fc31 a310 21b4 dca9 1333 e4f1 6633
00000360: e496 6133 c1c4 5e31 ecab 5ab1 5ccf 3db4
00000370: 3328 2e34 829d b8b3 e9b8 ae32 f743 94b3
00000380: c9a4 a532 6c69 0634 3c4e 6532 8346 2933
00000390: aef9 21b3 44e1 a432 f921 c133 75a2 8f32
000003a0: 5ade ca33 b124 3833 c81d 6334 8a59 6ab0
000003b0: 1c5f 2933 35c6 c332 9c92 0bb3 860c 1ab2
000003c0: fb66 f534 2b37 0bb5 6fc9 ea34 6d47 e0b3
000003d0: 16a8 4632 59a6 9834 e84c 2bb3 10b7 3234
000003e0: d4f4 32b3 0311 75b3 225e c633 3a33 deb4
000003f0: 2948 4334 f1e4 e2b3 fac7 7834 5d83 ed34
