Weights/model_LSTM_Tempo_Salinity_interpol.pth.tar (torch, 264582 bytes, 18 tensors)

lstm.lstm1.weight_ih_l0 f4 [228, 6]
0	0xbaaa8364	-0.0013009128
1	0xbc63541f	-0.0138750365
2	0xbbdf212a	-0.0068093734
3	0xbb653940	-0.003497675
4	0xbab59e02	-0.0013856294
5	0xbb9d12a3	-0.0047934814
6	0xbb072379	-0.0020620509
7	0x3bb7ef35	0.0056132325
8	0xbbe7f155	-0.0070783296
9	0x3b5636b0	0.0032686405
10	0x3b877331	0.004133605
11	0x3b013b63	0.0019719235
12	0xbb967d1e	-0.004592552
13	0xbc3b1867	-0.011419392
14	0x3d943b4b	0.07237872
15	0x3c27fb31	0.01025276
16	0xbb116553	-0.0022185638
17	0x3b840d17	0.0040298807
18	0xbc1dec4a	-0.009638855
19	0xbb2a6b29	-0.0026003814
20	0xbb17951f	-0.0023129655
21	0xbb8e47b3	-0.0043420433
22	0xbc894b9f	-0.016759692
23	0x3a0ad322	0.00052957435
24	0xbd6b2821	-0.057411317
25	0xbd93bb43	-0.07213452
26	0x3bc494b4	0.005999172
27	0xbc9bb8e5	-0.019009063
28	0x3c93c22f	0.01803693
29	0x3c9c295d	0.019062692
30	0xbc3bc5ca	-0.011460731
31	0xbcf1e68a	-0.029528875
32	0x3baa8894	0.0052042697
33	0x3b93da25	0.004512089
34	0x3b64a9df	0.003489129
35	0xbc47cde2	-0.012195082
36	0xb9e66363	-0.00043943067
37	0xbb10cc51	-0.0022094438
38	0x3b45d23e	0.0030185129
39	0x3bdb51d8	0.006693106
40	0x3c1bb375	0.009503235
41	0xbb26b2ed	-0.0025436238
42	0x3c4e1335	0.0125778215
43	0xba4f3888	-0.0007904847
44	0x3b8b5a8d	0.004252738
45	0x3c6bd822	0.014394792
46	0x3b71c237	0.0036889443
47	0xbc0cb476	-0.008587947
48	0xbd146491	-0.03622872
49	0x3d33ce84	0.04389812
50	0x3c3ff72f	0.011716648
51	0xbd3703ff	-0.044681545
52	0xbd96e563	-0.07367971
53	0x3ccd4b5a	0.025060344
54	0x3d465498	0.04842052
55	0xbd67a247	-0.056551244
56	0x3d7eb1a3	0.062181126
57	0xbc0bfea0	-0.008544594
58	0xbbb680dd	-0.005569561
59	0x39a3d41d	0.0003124782
60	0x3bef0a59	0.0072949347
61	0x3c014ac6	0.0078913625
62	0x3c884d03	0.016638285
63	0xba226583	-0.0006194936
64	0x3b9e891e	0.004838123
65	0xba7327b2	-0.00092756294
66	0x3c20497a	0.009783143
67	0x3ba78e7b	0.0051134205
68	0xbc3177eb	-0.010831813
69	0x3b361260	0.0027781948
70	0xbbb5c05e	-0.0055466136
71	0x3b56fe1d	0.0032805272
72	0x3cb1a878	0.021686777
73	0xbdb88caa	-0.090112045
74	0x3e05086c	0.12991494
75	0xbc250ca3	-0.010073814
76	0xbb97b600	-0.0046298504
77	0xbca1f8a4	-0.019771881
78	0x3c96cff9	0.018409716
79	0xbd3cb925	-0.046075005
80	0x3d4bea85	0.049784202
81	0x3b8254c2	0.003977389
82	0xbab829c4	-0.0014050533
83	0x3ac125a9	0.0014735955
84	0x3cc42b29	0.023946362
85	0xbcef2063	-0.029190248
86	0x3cab28e8	0.020893529
87	0x3af337e7	0.0018556089
88	0xbbada28b	-0.0052989176
89	0x3b2e7b6d	0.002662386
90	0xbc597629	-0.0132728005
91	0xbd7f1c5d	-0.06228291
92	0x3d68aef8	0.05680749
93	0x3c10bc4a	0.008833954
94	0xbaa684b4	-0.0012704344
95	0x3a1b7269	0.0005929829
96	0x3e3677e1	0.17819168
97	0x3e2d65a5	0.16933306
98	0x3d9702e4	0.07373598
99	0xbe5ad3f0	-0.2136991
100	0xbe4b1569	-0.19832386
101	0xbbac0910	-0.005250104
102	0xbd7accd1	-0.061230484
103	0x3d0f8912	0.03504283
104	0x3d89ed6c	0.06734738
105	0xbd84d0ce	-0.06485139
106	0xbd94000d	-0.07226572
107	0x3d2d04d9	0.04224095
108	0x3d400128	0.046876103
109	0x3c52476d	0.012834412
110	0x3db31f9e	0.08746265
111	0x3c023612	0.007947462
112	0xbb0e7e64	-0.0021742815
113	0x3b27ad9a	0.0025585652
114	0x3adf1eee	0.0017022768
115	0xbbad55e0	-0.005289778
116	0x3b5b6754	0.0033478336
117	0xbbf35ead	-0.0074270577
118	0xbc77a44c	-0.015114855
119	0xbab65e13	-0.0013913534
120	0x3cc10552	0.023562107
121	0x3aeafb5c	0.0017927694
122	0x3d1ec834	0.038765147
123	0xbb217f53	-0.0024642542
124	0x3c343637	0.010999254
125	0xbb84f53c	-0.0040575545
126	0xbc20692c	-0.0097907
127	0xbc36675c	-0.011133041
128	0xbaf27187	-0.0018496969
129	0xbaa3018f	-0.0012436378
130	0xb8f25af0	-0.00011556398
131	0x3a93433d	0.0011235249
132	0xbc1a54f2	-0.009419667
133	0x3c2a64c7	0.010400004
134	0x3d8905c3	0.06690552
135	0x3bbfe026	0.005855578
136	0x3bfad828	0.0076551624
137	0xbad25a7a	-0.0016048693
138	0x3d142820	0.03617108
139	0xbb9c363d	-0.004767208
140	0x3d8b0e34	0.067898184
141	0xbc19db3b	-0.0093906475
142	0xbc9ba6f6	-0.019000512
143	0x3c55b528	0.013043679
144	0x3d87e0eb	0.066346966
145	0x3c8c489c	0.017124467
146	0x3d950285	0.07275871
147	0x3c580e1f	0.0131869605
148	0x3b89383b	0.0041876114
149	0x3b8aa8ab	0.0042315326
150	0xbb6696f3	-0.0035185188
151	0x3cdb26a1	0.026751818
152	0x3c911456	0.017709892
153	0xbdb95dcb	-0.09051093
154	0xbd37561b	-0.04475985
155	0x3b869d75	0.004108126
156	0xbce35748	-0.02775158
157	0x3e34d8c5	0.17660816
158	0xbde71311	-0.112829335
159	0x3d40eab9	0.04709885
160	0x3e001781	0.12508966
161	0x3d78f912	0.060784407
162	0x3b50c14b	0.0031853493
163	0xbb92cfc6	-0.004480335
164	0x3b6e7e74	0.003639129
165	0xbabe50b6	-0.0014519903
166	0xbbc4d950	-0.006007351
167	0xbb2f61d0	-0.0026761182
168	0xbd07794b	-0.03307466
169	0xbda344d5	-0.07972113
170	0xbccfa47d	-0.025346989
171	0x3c05aa53	0.008158284
172	0xbbdc37ae	-0.0067205047
173	0x3b6b3db0	0.0035894923
174	0x3d3e4c5f	0.046459552
175	0xbd3a277d	-0.045447815
176	0x3cf7911e	0.030220564
177	0xbac73bbd	-0.0015200299
178	0xb99ef623	-0.00030319495
179	0xbb7a3354	-0.0038177567
180	0xbb1a60cc	-0.002355623
181	0xbc924060	-0.017852962
182	0xbac7a10d	-0.0015230492
183	0x3b0d8702	0.0021595364
184	0xbbf519f1	-0.007479899
185	0x3b6b0281	0.0035859647
186	0x3d0a427d	0.033754814
187	0x3db25e3d	0.08709381
188	0x3d499d16	0.049222074
189	0xbd81b5e3	-0.0633352
190	0xbd7c5fd8	-0.06161484
191	0xbc9fbb08	-0.019498363
192	0x3d0fff9b	0.035155874
193	0xbd8401f2	-0.064456835
194	0x3d4a0064	0.04931678
195	0x3c9f84eb	0.01947256
196	0xbaabbee5	-0.0013103156
197	0x3b4cff63	0.0031280152
198	0x3ce6d0d3	0.028175747
199	0xbcedfed8	-0.029052183
200	0x3cd50845	0.02600492
201	0x3bee7eb2	0.007278287
202	0x3a8daa41	0.0010808186
203	0xbb7a7ded	-0.003822203
204	0x3dd0adde	0.101894125
205	0xbc44891a	-0.011995578
206	0x3d018062	0.031616576
207	0xbc03cf67	-0.008045054
208	0x3cba7461	0.022760572
209	0xbb6e5b04	-0.0036370168
210	0x3ab0ddbe	0.0013493819
211	0x3d6bd813	0.05757911
212	0xbe291330	-0.16511226
213	0xbca910ac	-0.020637833
214	0xbd32fe70	-0.04369968
215	0xbc029630	-0.007970378
216	0x3de312d8	0.110875785
217	0xbd6dc4b5	-0.058048923
218	0xbcca058d	-0.02466085
219	0x3c23bc2f	0.009993597
220	0x3cbefa37	0.023312671
221	0xbcb801f6	-0.022461873
222	0xbd90b330	-0.07065427
223	0xbde05fd3	-0.10955777
224	0x3dd20ce3	0.10256364
225	0xbbce0aa5	-0.00628789
226	0x3c8d5ba5	0.017255614
227	0x3b2142c8	0.0024606455
228	0xbdc63220	-0.09677529
229	0xbc10ffcb	-0.008850048
230	0xbdce3e0a	-0.10070427
231	0xbc857afe	-0.016293999
232	0xbc5f56d5	-0.013631542
233	0x3bab4e37	0.00522783
234	0xbe187b8c	-0.1489088
235	0xbda03377	-0.07822316
236	0xbd5c3ace	-0.053767018
237	0xbc5decc4	-0.013545219
238	0x3d63cf15	0.05561741
239	0x3bd66f31	0.006544017
240	0xbc2cbee9	-0.010543563
241	0x3c5cb6a8	0.013471283
242	0xbc8a3389	-0.016870277
243	0xbb1e12db	-0.0024120125
244	0xbc0a9004	-0.008457188
245	0xbb3e33d8	-0.00290226
246	0x3c95ad13	0.018271005
247	0xbd9d82a6	-0.07690935
248	0x3d9b7393	0.075904034
249	0x3bab03e9	0.005218972
250	0xbb2d3301	-0.0026428106
251	0xba23b688	-0.0006245156
252	0xbd68f3e9	-0.056873236
253	0x3e0fdd6e	0.14049312
254	0xbdd4ea9e	-0.10396312
255	0x3c41e723	0.011834892

lstm.lstm1.weight_hh_l0 f4 [228, 76]
0	0xba9ab0c3	-0.0011801947
1	0xba83648c	-0.0010024472
2	0xbac4a12d	-0.0015001647
3	0xbabe8fc5	-0.0014538696
4	0xba7950c7	-0.0009510633
5	0x375cdfc3	1.316512e-05
6	0xbaa4bced	-0.0012568511
7	0x3a5f0031	0.00085068034
8	0xbae47cdf	-0.0017432234
9	0xba12d8e8	-0.00056017796
10	0x3a2cdc88	0.0006594141
11	0x3a709f6b	0.00091790286
12	0x3a949d9f	0.0011338479
13	0xba250bc7	-0.00062960054
14	0xb9546d7e	-0.00020258685
15	0x39512291	0.0001994467
16	0xbb9f4511	-0.0048605283
17	0x3abcd56a	0.0014406864
18	0x397aa041	0.00023901557
19	0xba4bdcd4	-0.00077767414
20	0x3a68c417	0.00088793173
21	0x3a51b606	0.0007999841
22	0xb8be0662	-9.061095e-05
23	0xbad428bb	-0.0016186455
24	0xba0ac9ed	-0.00052943715
25	0xb99c6a21	-0.0002983371
26	0x3b4b2a0e	0.0031000408
27	0xba9050f4	-0.0011010454
28	0x39ac0aa2	0.0003281432
29	0xba2a9e23	-0.00065085496
30	0xb9f674c6	-0.0004700778
31	0xb8b87edb	-8.7974324e-05
32	0x38993f13	7.307357e-05
33	0x399b9408	0.00029674196
34	0xba5c8d4f	-0.00084133906
35	0xba362ed2	-0.0006949726
36	0x3abf5154	0.0014596381
37	0x3a0fd18f	0.0005486244
38	0x3943d932	0.00018677561
39	0xb954a679	-0.00020279911
40	0xba9b52c0	-0.0011850223
41	0x39c0dfb9	0.0003678778
42	0xbb08fc3b	-0.0020902294
43	0x3a995624	0.0011698646
44	0x3ad5d783	0.0016314838
45	0xba605f59	-0.000855913
46	0xba5ffd37	-0.0008544507
47	0xba95dcc5	-0.0011433592
48	0x3a2aace6	0.0006510749
49	0x3a2bcfc0	0.00065540895
50	0x39d7de2f	0.00041173535
51	0xb93f1da7	-0.00018226226
52	0xb9fb8acf	-0.0004797787
53	0xba0887bc	-0.0005208214
54	0xb850af5a	-4.9754373e-05
55	0xba27cebd	-0.0006401351
56	0x396e9c3c	0.0002275565
57	0x3923c987	0.00015619966
58	0x3a86d8b5	0.0010287972
59	0xbab9d9c2	-0.0014179277
60	0xba073668	-0.00051579485
61	0x3a795c74	0.0009512373
62	0xba70b7ec	-0.000918268
63	0x398f812e	0.00027371332
64	0xb9a88302	-0.00032141065
65	0x3a815059	0.0009865864
66	0xb975a508	-0.000234265
67	0x3ab4e34a	0.0013800648
68	0x3a2150a2	0.0006153678
69	0xbaabe0a2	-0.001311321
70	0x3a82cd2e	0.0009979361
71	0xba2ccff9	-0.00065922696
72	0x3abce336	0.0014410976
73	0xba4a2bc3	-0.00077122095
74	0xba5f99f5	-0.0008529716
75	0xba7b5997	-0.000958824
76	0x39bac694	0.00035624637
77	0x39fb0114	0.00047875254
78	0x38ddd27d	0.00010577308
79	0x3877881d	5.9016154e-05
80	0x399fd97c	0.00030488882
81	0xb9c0145a	-0.00036636257
82	0x3941c892	0.00018480633
83	0x3990e3ff	0.0002763569
84	0xb97b802a	-0.0002398497
85	0x3a2297b0	0.0006202413
86	0xb992b158	-0.0002797942
87	0x39d688d0	0.00040919194
88	0xbb32c7cc	-0.0027279733
89	0xba40884f	-0.00073445303
90	0x3a223bf3	0.00061887427
91	0xb9a272b3	-0.00030984505
92	0x3b645bc4	0.0034844736
93	0x39ec2f08	0.0004504847
94	0x39f6c133	0.0004706472
95	0xb816ce1c	-3.595474e-05
96	0x3916100d	0.00014311094
97	0x38ef695b	0.00011416032
98	0x39d4ef8f	0.00040614276
99	0x3a1e01a9	0.0006027469
100	0x393935c8	0.0001766301
101	0xba2c46e2	-0.00065718417
102	0xbaa49234	-0.0012555779
103	0x392500c3	0.0001573591
104	0x3978f254	0.00023741397
105	0x3957b1fc	0.00020570302
106	0xb93e809d	-0.00018167724
107	0xba59cab1	-0.00083080964
108	0xba055a79	-0.0005087029
109	0x3a4982ee	0.00076870515
110	0x380d08fc	3.3625387e-05
111	0x3955d632	0.00020393057
112	0xb9052286	-0.0001269673
113	0xba1da877	-0.0006014178
114	0x3a08f8a7	0.00052250404
115	0xba9448a9	-0.0011313158
116	0x39948c70	0.00028333394
117	0x3a28ccc0	0.00064392015
118	0x398bb38e	0.00026645925
119	0x3962454b	0.00021578853
120	0x3954d767	0.00020298139
121	0xba2abf0d	-0.0006513454
122	0x39a06dea	0.0003059947
123	0x361bac7e	2.3197204e-06
124	0x39b2b57d	0.00034086025
125	0xb6e2abfd	-6.755347e-06
126	0xb93ae697	-0.00017824244
127	0x3a252c8b	0.0006300888
128	0x3a02544a	0.00049716665
129	0x39bace5b	0.0003563043
130	0x39d7c633	0.00041155666
131	0xb9f2c87f	-0.00046307218
132	0x39dad4a9	0.00041738644
133	0xb993ed54	-0.00028214848
134	0x37473d07	1.1875533e-05
135	0x399833e0	0.0002903035
136	0x3966a014	0.00021994143
137	0x37746cc5	1.4568858e-05
138	0x36ecf164	7.0614497e-06
139	0x3ae35495	0.0017343933
140	0x39a92473	0.0003226135
141	0xb841aa6e	-4.617351e-05
142	0xba8b7534	-0.0010639788
143	0xb9813a1c	-0.00024648092
144	0xb91cfc78	-0.00014971371
145	0xb9968961	-0.00028712585
146	0x390d909e	0.00013500682
147	0xba09b4f2	-0.0005253098
148	0xb9ab806a	-0.00032711338
149	0xb9684a8e	-0.00022153018
150	0xb8823f1e	-6.2106395e-05
151	0xb88297a5	-6.227129e-05
152	0xbc239f17	-0.00998666
153	0xbc554157	-0.0130160665
154	0xbc27272c	-0.01020221
155	0xbbf60a94	-0.007508585
156	0xbc4f741d	-0.012661961
157	0x37df7472	2.6637896e-05
158	0xbc1d8ca1	-0.009616048
159	0x3b4932ce	0.0030700448
160	0xbbdaff9c	-0.006683303
161	0xbc452df2	-0.01203488
162	0x3bbea6be	0.005818217
163	0x3bb69043	0.0055713966
164	0x3b8e83e4	0.0043492187
165	0xbba24230	-0.004951738
166	0xbc75e3c0	-0.015007913
167	0x3c10109c	0.0087930225
168	0x3b4a95e4	0.0030912096
169	0x3bd70758	0.0065621547
170	0xbba76e84	-0.00510961
171	0xbbbca131	-0.00575652
172	0x3b5fbe48	0.0034140516
173	0x3bfc759d	0.0077044503
174	0xbbf45288	-0.0074561276
175	0xbc36093e	-0.011110602
176	0xbc4b2bfc	-0.012400623
177	0xbbf8e4d5	-0.0075956383
178	0x3be03f09	0.006843452
179	0xbc1a752b	-0.009427349
180	0x3c2b371d	0.010450152
181	0xbc0ccab5	-0.008593251
182	0xbc04b0e7	-0.008098817
183	0xbbc72663	-0.006077574
184	0x3c0d5a78	0.008627526
185	0x3ba9fa93	0.0051873415
186	0xbb5b39a8	-0.0033451114
187	0x3b975ece	0.004619456
188	0x3c0091a7	0.007847226
189	0x3c57bd23	0.013167652
190	0xbb4d504b	-0.0031328376
191	0x3bb29a68	0.0054505356
192	0xbc065501	-0.008198977
193	0x3a2c4753	0.00065719074
194	0xbbf46725	-0.007458585
195	0x3b85bd8e	0.0040814346
196	0x3b932d22	0.0044914642
197	0xbbd214dd	-0.0064111785
198	0xbbaa06ed	-0.005188814
199	0xbc066af1	-0.008204208
200	0x3bd2fc41	0.0064387624
201	0x3b98cadd	0.004662855
202	0x3b24023f	0.0025025753
203	0xbc087f05	-0.008331065
204	0xbb093842	-0.0020938073
205	0xbb7b7c7a	-0.0038373754
206	0xbbba569e	-0.005686595
207	0xbb2a8a8a	-0.0026022517
208	0xbb4615c3	-0.0030225373
209	0xba0f1bc6	-0.00054591557
210	0x3b9f2ee4	0.0048578847
211	0xbbee02ea	-0.007263531
212	0xbbb2d443	-0.0054574325
213	0x3bb9fd05	0.005675914
214	0xbb977183	-0.004621686
215	0xbaa32918	-0.001244816
216	0xba25279e	-0.0006300154
217	0x3be131af	0.006872378
218	0x3bdfdbfa	0.006831643
219	0x3c040d3e	0.008059798
220	0x3b78fdfe	0.0037993188
221	0xbbcf95b9	-0.006334987
222	0x3b8c0478	0.0042729937
223	0x3b2265d3	0.002477993
224	0x3c2864ac	0.010277908
225	0xbb7094ef	-0.0036709865
226	0xbc1c72af	-0.009548827
227	0xbbafd183	-0.005365552
228	0xbab4185b	-0.0013740169
229	0xbac4c295	-0.0015011603
230	0xbaec0117	-0.0018005696
231	0xba839253	-0.0010038115
232	0xbb6bc67c	-0.003597646
233	0x3a7e3b15	0.0009698135
234	0xbabe44f7	-0.0014516403
235	0xbabdf50f	-0.0014492589
236	0xba8a9d6a	-0.0010575477
237	0xbadfc0e9	-0.0017071042
238	0x398d9348	0.0002700335
239	0xb74a3a30	-1.2053686e-05
240	0x3be08d0b	0.006852751
241	0x3aa1f750	0.001235703
242	0xba948b26	-0.0011332973
243	0x3ab699f3	0.0013931378
244	0x3a226548	0.00061949017
245	0x3a4b1b8f	0.0007747942
246	0xba297322	-0.00064639945
247	0x38c21045	9.253671e-05
248	0xbac5ddd7	-0.0015096021
249	0x3a94ccd5	0.0011352549
250	0xba4f0970	-0.00078978296
251	0xbb34c215	-0.0027581502
252	0xba5ba62d	-0.0008378949
253	0xba7ee519	-0.0009723469
254	0x3bd08f80	0.006364763
255	0xb9d47285	-0.00040521115

lstm.lstm1.bias_ih_l0 f4 [228]
0	0xba9cb4ba	-0.0011955716
1	0xbaa6895a	-0.0012705729
2	0x3a0c1392	0.00053434924
3	0x3ad20ea8	0.0016026096
4	0xbbc12ddb	-0.005895359
5	0x3bbb0cec	0.0057083275
6	0x3b0da9cb	0.0021616097
7	0x3b869812	0.0041074837
8	0xbcdb5d00	-0.026777744
9	0x3b907689	0.0044086617
10	0x3b8d1fbc	0.0043067615
11	0x3c1bc2e9	0.009506919
12	0x3dd48f6c	0.10378918
13	0x3be00c4f	0.006837405
14	0x3cac5e9e	0.02104121
15	0xbb82e2df	-0.0039943303
16	0xbd06069c	-0.032721147
17	0x3c9c5101	0.019081594
18	0x3a58bf37	0.00082682393
19	0x3b08e66d	0.0020889298
20	0x3be4184b	0.0069609038
21	0x3a85d4b8	0.001021049
22	0x3cc09675	0.023509244
23	0xbc0c835e	-0.008576242
24	0xbc77a6d4	-0.0151154585
25	0x3c68d9e7	0.014212108
26	0x3c110cea	0.008853177
27	0x3b631bb9	0.0034653975
28	0xbc473a03	-0.012159827
29	0xbb03b3c1	-0.0020096155
30	0x3ab52f91	0.001382338
31	0x3d9f6bb2	0.07784213
32	0x3cb4db5c	0.022077255
33	0x3c4c9b8f	0.01248826
34	0x3c0ec1ae	0.008713169
35	0xbcbd105f	-0.023079095
36	0xbce0ecf7	-0.027456744
37	0xb9e1e47d	-0.0004308558
38	0xbcd97f4d	-0.02654996
39	0x3d9d5396	0.076819584
40	0xba5e5f83	-0.000848286
41	0x3c5d68df	0.013513773
42	0xba247a57	-0.00062743336
43	0x39deede3	0.0004252038
44	0xbcc2c98d	-0.023777748
45	0xbcf5fa64	-0.030026622
46	0xbafbb2da	-0.0019203082
47	0x3b5b53cb	0.0033466693
48	0x3c01fbac	0.007933538
49	0x3a9e7b06	0.0012091107
50	0xbce20553	-0.02759043
51	0xbb5d9316	-0.0033809594
52	0x3c22a873	0.009927857
53	0xbcb0a633	-0.021563625
54	0xbc0c59d9	-0.008566343
55	0x3c0057e2	0.007833453
56	0x3b2591bd	0.0025263869
57	0x3c84f220	0.016228735
58	0x3b552014	0.003252034
59	0xbae06718	-0.0017120568
60	0xbd26a909	-0.04068855
61	0x3ae919ae	0.0017784142
62	0x3c374147	0.011184997
63	0x3daa87f9	0.08326716
64	0x3a1937d5	0.00058448064
65	0x3b552a6b	0.0032526504
66	0xbd9b7232	-0.075901404
67	0xbca38c34	-0.019964315
68	0xbbb67ec8	-0.0055693127
69	0xbd2ec2fa	-0.042666413
70	0x3b8f5d87	0.004375163
71	0x3d7bfdca	0.06152133
72	0x3b3db57e	0.002894729
73	0x3c3c816f	0.011505469
74	0x3c32bef1	0.010909782
75	0x3b92c8f5	0.0044795224
76	0xbb855ea7	-0.0040701213
77	0xbb56e846	-0.0032792254
78	0xbc896ba4	-0.01677496
79	0xbb78ce25	-0.0037964669
80	0xbb34ca98	-0.0027586576
81	0xbb8ea125	-0.004352706
82	0xbb3aa236	-0.0028478033
83	0xbb118cae	-0.0022209096
84	0xbc499882	-0.012304427
85	0xbbd0f410	-0.006376751
86	0xbbac8c87	-0.0052657756
87	0xbb94f77e	-0.004546105
88	0xbd59c54e	-0.05316668
89	0xbc43a14d	-0.011940313
90	0xbbefdf06	-0.0073202876
91	0xbb1ae8d4	-0.0023637312
92	0xbced59c6	-0.028973471
93	0xbc81f737	-0.015864952
94	0xbc052b8f	-0.008128061
95	0xba869701	-0.0010268391
96	0x3a6ad52f	0.00089581584
97	0xbb136f84	-0.0022496888
98	0xbb86c48f	-0.004112787
99	0xbc12c2cb	-0.008957575
100	0xbaa36938	-0.0012467271
101	0xbbf58e18	-0.0074937455
102	0xbce45720	-0.027873576
103	0xbb9c55e1	-0.0047709798
104	0xbb909813	-0.00441266
105	0xbb4415b0	-0.0029920153
106	0xbae1e394	-0.0017233961
107	0xbc35f49e	-0.011105685
108	0xbb4fee66	-0.003172779
109	0xbb5c433a	-0.0033609406
110	0xbbd2e483	-0.006435932
111	0xbbf551ba	-0.007486549
112	0xbaf90199	-0.0018997669
113	0xbbd04d99	-0.0063569066
114	0xbb7ba2f6	-0.0038396693
115	0x3b605a99	0.0034233688
116	0xbb38df18	-0.0028209146
117	0xbbd7a8d5	-0.0065814056
118	0xbba56338	-0.005047228
119	0xbb6faa76	-0.0036570108
120	0xbb644597	-0.0034831518
121	0xbc085be5	-0.008322691
122	0xbba5be23	-0.0050580665
123	0xbb82b8c2	-0.00398931
124	0xbc1490cc	-0.009067725
125	0xbb5c8515	-0.003364866
126	0xbb0d8315	-0.0021593024
127	0xbbb4f80b	-0.005522733
128	0xbbd1cc63	-0.0064025386
129	0xbb0290e6	-0.0019922792
130	0xbabc7129	-0.0014376986
131	0xbb61a462	-0.0034430255
132	0xbbf31655	-0.0074184337
133	0xbb8909fd	-0.004182099
134	0xbb70b507	-0.0036728994
135	0xbb954b2f	-0.0045560817
136	0xbb1deb61	-0.0024096596
137	0xbb0b58ec	-0.0021262718
138	0xbbb49007	-0.0055103335
139	0xbced4319	-0.028962659
140	0xbb1d72bc	-0.0024024686
141	0xbba044a7	-0.0048909965
142	0xbd1fe8a0	-0.039040208
143	0xbb68071c	-0.0035404628
144	0xbb4f8451	-0.003166456
145	0xbb319af8	-0.0027100425
146	0xb97fea48	-0.00024405972
147	0xbbddaad9	-0.0067647514
148	0xbb79c620	-0.0038112476
149	0xbc083c59	-0.008315169
150	0xbc49cd67	-0.012317038
151	0xbab57343	-0.0013843555
152	0xbd94806e	-0.072510585
153	0xbda904fb	-0.08252903
154	0xbd7bd5a9	-0.06148306
155	0x3c67e0b7	0.014152697
156	0x3dcbce77	0.099514894
157	0x3daae515	0.08344475
158	0x3d2ecc52	0.042675324
159	0xbc525115	-0.012836714
160	0x3de01129	0.10940773
161	0xbd1ed3c2	-0.038776167
162	0x3db199da	0.08671923
163	0xbd1da429	-0.038486633
164	0x3dbed9df	0.09318899
165	0x3d9c8c30	0.07643926
166	0xbba501c5	-0.0050356113
167	0x3d993d36	0.07482378
168	0x3de95d4c	0.11394748
169	0xbd62233b	-0.05520938
170	0xbc538420	-0.012909919
171	0xbda7cd59	-0.08193464
172	0xbb78e787	-0.0037979798
173	0xbd8edb0b	-0.06975373
174	0xbcd97d08	-0.026548877
175	0x3d304278	0.04303214
176	0xbd720040	-0.05908227
177	0xbcc0ad2e	-0.023520079
178	0x3b9db696	0.0048130257
179	0xbd3d3f6d	-0.046203066
180	0xbcbb9c0a	-0.022901554
181	0xb98f7974	-0.00027365575
182	0xbd04df61	-0.032439593
183	0x3e0e95f7	0.13924395
184	0xbd127071	-0.035751764
185	0xbd0b0e85	-0.033949394
186	0xbdbb97f3	-0.091598414
187	0xbc03e19c	-0.008049395
188	0xbd8ba25c	-0.06818077
189	0x3d948109	0.07251174
190	0xbddde0be	-0.10833882
191	0xbde74a85	-0.1129351
192	0xbcfbe33a	-0.030747999
193	0xbd33d65e	-0.04390561
194	0x3d9f68d6	0.07783668
195	0xbd0df5fb	-0.034658413
196	0xbe0b7d4f	-0.1362202
197	0x3d806c1f	0.062706225
198	0x3d260318	0.040530294
199	0xbcecec0d	-0.028921152
200	0x3dc55b6e	0.096365795
201	0x3bb5570c	0.0055340584
202	0x3dc7adf9	0.097499795
203	0xbd9a5285	-0.075352706
204	0xbc5a501e	-0.0133247655
205	0x3d189d36	0.037259303
206	0xbdae6303	-0.08514979
207	0xbbfef786	-0.007780972
208	0xbcaaa046	-0.020828377
209	0xbd87f890	-0.066392064
210	0xbd0358cf	-0.032067116
211	0x3be9df60	0.007137224
212	0x3d6cc2c3	0.057802927
213	0x3dac2a68	0.08406526
214	0xbdd065aa	-0.10175641
215	0xbc0ab55b	-0.00846609
216	0xbd28a0ae	-0.04116886
217	0x3d42032e	0.047366314
218	0xbe06b827	-0.13156186
219	0x3d7dd0c0	0.061966658
220	0x3d26d6f0	0.040732324
221	0x3c8c7203	0.017144209
222	0x3d8b64bb	0.06806322
223	0xbc8774e4	-0.01653523
224	0x3b2be726	0.0026230305
225	0xbc97c83a	-0.018528093
226	0x3b6196c8	0.0034422148
227	0xbdcabf99	-0.098998256

lstm.lstm1.bias_hh_l0 f4 [228]
0	0xbb2ef6fe	-0.0026697512
1	0xbaa68939	-0.001270569
2	0x3c783464	0.01514921
3	0x3ad20ea8	0.0016026096
4	0x3d085982	0.033288486
5	0x3bfd08c9	0.0077219945
6	0x3b0dab3c	0.0021616956
7	0x3b864d88	0.004098598
8	0x3cd67b88	0.026181951
9	0xbc228e54	-0.009921629
10	0x3bea9e73	0.007160002
11	0x3bf9bf6c	0.007621696
12	0x3d97e602	0.074169174
13	0x3c0f8896	0.008760592
14	0x3c3aefca	0.011409709
15	0x3c9dea34	0.019276716
16	0xbb9ac377	-0.0047230083
17	0xbc87a5c5	-0.016558537
18	0x3b4d4149	0.003131943
19	0x3b08e66d	0.0020889298
20	0x3c6a657f	0.014306425
21	0xbbd5c077	-0.0065231877
22	0xbbc8851e	-0.0061193844
23	0xbc69d9df	-0.014273136
24	0xbcb11021	-0.021614136
25	0x3d5388a3	0.05164398
26	0xbd2a0d93	-0.04151685
27	0x3b6317c0	0.0034651607
28	0x3c8e1153	0.017342245
29	0x3c77bcd7	0.0151207065
30	0x3abb51e9	0.0014291379
31	0xbc23b991	-0.009992973
32	0x3c1766e9	0.009240844
33	0x3c4c9b8e	0.012488259
34	0x3b789c61	0.0037935006
35	0xbba52b68	-0.005040575
36	0xbca352cf	-0.019936947
37	0xbd06089b	-0.03272305
38	0xbbf21f40	-0.007388979
39	0xbcf0143c	-0.029306524
40	0xba6627b1	-0.0008779718
41	0x3c77da73	0.015127766
42	0xbced9b82	-0.029004816
43	0xba75cf81	-0.0009376929
44	0xbc1cda84	-0.009573583
45	0xbd3a7090	-0.045517504
46	0xbc8c0e82	-0.017096762
47	0x391627b8	0.00014319911
48	0x3c01fbef	0.007933601
49	0x3aff5195	0.0019479269
50	0x3b850780	0.004059732
51	0x3c300c76	0.010745158
52	0x3c729171	0.014805184
53	0x3cf551df	0.029946266
54	0x3b39cc5c	0.0028350567
55	0x3c0404b1	0.008057759
56	0x3bd52553	0.0065046935
57	0xbc219fb8	-0.00986474
58	0x3b553ca0	0.0032537356
59	0xbae0642a	-0.0017119695
60	0xbcccd998	-0.0250061
61	0x3b51f1f5	0.0032035087
62	0x3bf18d2f	0.0073715667
63	0xbdaa357f	-0.08310985
64	0x3a1937d5	0.00058448064
65	0x3b55a576	0.0032599843
66	0xbd8cbc47	-0.068718486
67	0xbcab84be	-0.02093732
68	0xbb6f8acf	-0.0036551242
69	0x3cdea4ba	0.027178157
70	0x3ad3a654	0.0016147592
71	0xbd0220d6	-0.031769596
72	0xbbda3cfe	-0.006660103
73	0x3c140f97	0.00903692
74	0x3d13220f	0.035921153
75	0x3b993c5a	0.004676384
76	0xbb84656d	-0.004040411
77	0xbb56785b	-0.0032725546
78	0xbc896ba4	-0.01677496
79	0xbb7ce08b	-0.0038585986
80	0x3956172e	0.00020417265
81	0xbb8eac81	-0.00435406
82	0xbb3aa231	-0.0028478021
83	0xbb11872a	-0.0022205808
84	0xbc49987e	-0.012304423
85	0xbbd27cd0	-0.00642357
86	0xbbac7a1d	-0.0052635805
87	0xbb94f77e	-0.004546105
88	0xbd68fffd	-0.056884754
89	0xbc734aa1	-0.014849336
90	0xbbeaf91c	-0.0071708094
91	0xbb19d871	-0.0023474956
92	0xbcecb828	-0.028896406
93	0xbc81f732	-0.015864942
94	0xbc00f8f4	-0.007871855
95	0xba86b6fa	-0.001027792
96	0x3ad1784d	0.0015981287
97	0xbb133401	-0.0022461417
98	0xbb86bcd8	-0.0041118674
99	0xbc209bf4	-0.009802807
100	0xbaa3294a	-0.0012448218
101	0xbbf58de2	-0.0074937204
102	0xbcbc3077	-0.022972329
103	0xbb9ceb93	-0.004788825
104	0xbb898db2	-0.0041977996
105	0xbb4417f6	-0.0029921508
106	0xbad128d7	-0.0015957606
107	0xbc3714d9	-0.011174404
108	0xbb874a3b	-0.004128722
109	0xbb5c433d	-0.0033609413
110	0xbbd2c302	-0.006431938
111	0xbbee8dcc	-0.007280087
112	0xbaf90184	-0.0018997644
113	0xbc20f62d	-0.009824318
114	0xbb7bf432	-0.0038445112
115	0xbc9206e9	-0.01782556
116	0xbb2d899a	-0.0026479722
117	0xbbd7a119	-0.0065804836
118	0xbbad5cc4	-0.0052905995
119	0xbb6faa76	-0.0036570108
120	0xbb6877e2	-0.0035471846
121	0xbc085be5	-0.008322691
122	0xbbaff837	-0.0053701657
123	0xbb82356e	-0.0039736545
124	0xbc14917b	-0.009067888
125	0xbb5c6daf	-0.0033634712
126	0xbb0d8d16	-0.0021598986
127	0xbbf4bad8	-0.0074685626
128	0xbbd24b5b	-0.0064176745
129	0xbb0439e4	-0.0020176107
130	0xbac026e2	-0.0014660025
131	0xbb616b17	-0.0034396106
132	0xbbf0b0fa	-0.007345316
133	0xbb8fb3e9	-0.0043854606
134	0xbb6d3c1f	-0.0036199165
135	0xbb954b2c	-0.0045560803
136	0xbb425187	-0.0029650645
137	0xbb0b58ec	-0.0021262718
138	0xbba7721b	-0.005110038
139	0xbcf96a58	-0.030446216
140	0xbb1d72bc	-0.0024024686
141	0xbba0706e	-0.004896215
142	0xbd23dcd4	-0.04000552
143	0xbb6fd366	-0.003659451
144	0xbb4d4201	-0.003131986
145	0xbb319af8	-0.0027100425
146	0xb97fea4a	-0.00024405975
147	0xbc1dcc10	-0.009631172
148	0xbbc8227e	-0.0061076274
149	0xbc088fa2	-0.008335026
150	0xbc417c1d	-0.011809376
151	0xbab8e600	-0.0014106631
152	0x3c8109e7	0.015751792
153	0x3cca92ab	0.02472814
154	0x3c25076d	0.010072571
155	0x3d85d3e6	0.06534557
156	0xbc77043a	-0.015076691
157	0x3d0ae976	0.033914052
158	0x3cda75bd	0.02666747
159	0xbc6cd38e	-0.014454735
160	0x3d954715	0.072889484
161	0x3d12392f	0.035699066
162	0xbcbe7ca9	-0.023252802
163	0xbc3e99f5	-0.011633386
164	0x3d8b3394	0.06796947
165	0x3d69429b	0.056948286
166	0xbda7b6d4	-0.081891686
167	0xbba5151c	-0.005037917
168	0xbd7930af	-0.060837444
169	0x3b8b1210	0.0042440966
170	0x3c016891	0.007898466
171	0x3d78cc34	0.06074162
172	0x3daaa19e	0.08331607
173	0x3d5e9f4a	0.05435113
174	0xbdbbf76e	-0.09178053
175	0xbd9f8a60	-0.07790065
176	0x3c58cdd2	0.013232665
177	0xbce1ce08	-0.027564064
178	0xbdaaaaa1	-0.08333326
179	0xbbdba9cc	-0.006703591
180	0xbd07d5c1	-0.033162836
181	0x3c2b88d2	0.010469632
182	0xbd81516a	-0.063143566
183	0x3db74733	0.08949127
184	0x3d4f0fe2	0.050552256
185	0xbd4d258a	-0.05008463
186	0xbd0effc4	-0.034911886
187	0x3c853b87	0.016263736
188	0x3c119046	0.008884495
189	0x3bb8f113	0.0056439727
190	0x3cf93b58	0.030423805
191	0x3c04a756	0.008096537
192	0x3b35d01a	0.0027742446
193	0xbd5603a3	-0.052249562
194	0xbd02007b	-0.03173874
195	0x3c961820	0.01832205
196	0xbdeb0cef	-0.11477076
197	0x3da33bc9	0.079703875
198	0xbd9eca1f	-0.07753395
199	0x3d0e4499	0.03473339
200	0xbcccb337	-0.0249878
201	0xbc8859c2	-0.016644362
202	0x3cb857d7	0.022502823
203	0xbd55cfcc	-0.052200124
204	0xbd3ff213	-0.04686172
205	0xbd5a7892	-0.05333764
206	0xbd903b69	-0.070425816
207	0xbc7733a1	-0.015087993
208	0xbd35a551	-0.04434711
209	0x3d419e87	0.047270324
210	0xbc550276	-0.013001075
211	0xbca35143	-0.01993621
212	0xbd8e4fb0	-0.06948793
213	0xbd3b8cab	-0.04578845
214	0x3c606043	0.013694826
215	0xbcb2d380	-0.021829367
216	0xbc46d522	-0.012135776
217	0x3d9074e9	0.07053549
218	0xbc8b9ee7	-0.017043544
219	0xbda33270	-0.079686046
220	0xbbe71756	-0.0070523424
221	0xbab35115	-0.001368078
222	0xbd08f1b8	-0.033433646
223	0x3d7a1531	0.061055366
224	0xbcbc5a2f	-0.022992222
225	0x3d856a73	0.06514444
226	0x3d45101e	0.048111074
227	0x3c12cc52	0.008959847

lstm.fc1.weight f4 [30, 76]
0	0xbd8fe659	-0.07026357
1	0xbd981e2b	-0.07427629
2	0xbdf5edb8	-0.12008232
3	0xbd79ef38	-0.061019152
4	0x3d2fad7d	0.04289006
5	0x3dabd197	0.083895855
6	0xbdc1af8f	-0.09457313
7	0x3d4a2729	0.049353752
8	0xbd63bdae	-0.055600815
9	0xbd831433	-0.06400337
10	0x3de3b925	0.11119298
11	0x3d0705d9	0.03296456
12	0xbe45fff2	-0.19335917
13	0x3d72dd32	0.05929298
14	0xbd217463	-0.039417636
15	0x3dbbbe92	0.09167208
16	0xbda4bb86	-0.0804358
17	0x3de6b8cd	0.11265717
18	0x3cc10abd	0.02356469
19	0x3ca210bd	0.019783372
20	0x3cbff3ad	0.023431623
21	0x3cb88e2f	0.022528736
22	0xbc162af3	-0.009165513
23	0xbde85ef7	-0.11346238
24	0xbd1c75ea	-0.03819839
25	0x3c062b34	0.008189011
26	0xbcd961d5	-0.026535908
27	0x3c7fcaf5	0.015612354
28	0x3bc74cc8	0.006082151
29	0xbdc6618e	-0.09686576
30	0xbd97996c	-0.0740231
31	0x3d74f0a0	0.05979979
32	0x3dfda586	0.12385087
33	0x3c1a390e	0.009413017
34	0xbddeeb58	-0.10884732
35	0xbde36cd1	-0.111047395
36	0x3d409297	0.0470148
37	0xbd449b9f	-0.047999974
38	0x3db8426f	0.08997046
39	0xbe3f42f2	-0.18677881
40	0xbd92e19d	-0.071719386
41	0xbcf68cdc	-0.030096464
42	0xbc8b5b6a	-0.017011363
43	0x3da5ffb7	0.08105414
44	0x3e07ef49	0.13274874
45	0xbd4aca67	-0.049509432
46	0xbde0a88b	-0.10969647
47	0xbdb1c1e7	-0.08679562
48	0x3c13f276	0.009029975
49	0x3e04410f	0.12915443
50	0x3da9e7da	0.08296175
51	0x3d03fcb7	0.03222343
52	0xbe0a858a	-0.13527504
53	0xbdb2b997	-0.08726805
54	0xbcf1ca51	-0.029515417
55	0xbd91410c	-0.07092485
56	0xbc79ba27	-0.015242136
57	0x3d802484	0.06256965
58	0x3d2bc1d9	0.041932914
59	0xbcf8fa15	-0.030392686
60	0x3c6dad56	0.014506659
61	0xbc98950c	-0.018625759
62	0xbccb589d	-0.024822528
63	0x3e3c10df	0.18365811
64	0x3b7d7c38	0.0038678776
65	0xbccc555f	-0.024943052
66	0xbeb5d309	-0.3551257
67	0x3ae593d3	0.0017515369
68	0x3e069cbc	0.13145727
69	0xbcee3163	-0.029076284
70	0x3dbf4dae	0.09340988
71	0xbdca6787	-0.098830275
72	0x3d8ffe00	0.070308685
73	0xbd943707	-0.07237058
74	0x3b6c2b70	0.0036036633
75	0xbe28616c	-0.16443413
76	0xbc930ed3	-0.017951405
77	0x3db47fdb	0.08813449
78	0x3e1f2385	0.15540893
79	0x3d285b4f	0.041102704
80	0xbc0b02b9	-0.008484536
81	0x3d2271cb	0.039659303
82	0x3df79bee	0.12090288
83	0xbc5200ec	-0.012817603
84	0x3d5c464d	0.05377798
85	0x3dd460f4	0.10370055
86	0xbddc5423	-0.10758235
87	0xbdcdab3d	-0.10042427
88	0x386ca01c	5.6415898e-05
89	0xbc08d301	-0.0083510885
90	0x3d3ab107	0.045578983
91	0xbdfb1552	-0.12259926
92	0xbc971c69	-0.018446164
93	0xbe2094f5	-0.15681823
94	0xbc735e3d	-0.014854011
95	0x3e075781	0.13216974
96	0x3caf12a4	0.021371193
97	0xbd86ed04	-0.06588176
98	0x3dc16c4a	0.094444826
99	0x3db81b10	0.08989537
100	0x3b2979f5	0.0025860046
101	0x3e242554	0.16029865
102	0xbe6f22c2	-0.23353103
103	0x3d38357c	0.04497288
104	0xbe06dbca	-0.1316978
105	0x3d14d49c	0.036335573
106	0x3e1c3775	0.1525553
107	0x3ca8a260	0.020585239
108	0xbd99cbb4	-0.075095564
109	0xbdf5223a	-0.11969419
110	0xbcede746	-0.029040944
111	0xbdc23e64	-0.09484556
112	0xbd88e9b1	-0.06685198
113	0xbe0f0798	-0.1396774
114	0x3ccc3090	0.0249255
115	0xbd720085	-0.059082527
116	0x3e0a6291	0.13514163
117	0x3dad964e	0.08475934
118	0x3d35f1d8	0.044420093
119	0xbc0aa49d	-0.008462098
120	0xbd5004cc	-0.050785825
121	0x3e2dc49f	0.16969536
122	0x3ca2ab5d	0.019857103
123	0x3ac3e1c7	0.0014944606
124	0xbc7eb370	-0.015545711
125	0xbcdad157	-0.02671115
126	0xbd94ff70	-0.07275283
127	0x3d663b04	0.056208625
128	0x3d286bd1	0.041118447
129	0xbc8a4cf4	-0.016882397
130	0xbcb6d2c5	-0.0223173
131	0xbc4138db	-0.011793341
132	0x3dec393f	0.11534356
133	0xbdb23f36	-0.08703463
134	0xbe12433b	-0.14283459
135	0x3cf7676d	0.030200684
136	0x3dd5e1a9	0.10443432
137	0x3b97e229	0.0046351147
138	0x3d9d46c7	0.07679515
139	0x3da36f10	0.07980168
140	0x3bbbddc0	0.005733222
141	0xbe12a8cc	-0.14322203
142	0xbc98d541	-0.018656375
143	0xbddb2d4b	-0.10701998
144	0xbc2904f5	-0.010316123
145	0x3debd04f	0.11514341
146	0xbe00a34a	-0.1256229
147	0x3bba66e0	0.005688533
148	0xbdedc627	-0.1161006
149	0x3de2aace	0.11067735
150	0x3dc3bf05	0.095579185
151	0x3dced034	0.10098305
152	0x3c5ae68b	0.01336063
153	0xbe15927f	-0.14606665
154	0xbd8270c4	-0.063691646
155	0xbd6af06e	-0.057358198
156	0xbdc495f4	-0.09598914
157	0x3d479fb0	0.048736274
158	0xbdad4b79	-0.08461661
159	0xbc37a2d3	-0.011208254
160	0xbd25dfe4	-0.040496722
161	0xbdadf6ba	-0.08494325
162	0x3dada3db	0.084785186
163	0x3dbdc18c	0.09265432
164	0x3ddbcf4c	0.10732898
165	0x3e04c52a	0.12965837
166	0xbda84e7a	-0.08218093
167	0x3e160c30	0.14653087
168	0xbe132ec4	-0.14373308
169	0x3db13f55	0.08654658
170	0xbe16e88e	-0.1473715
171	0xbd84218b	-0.0645171
172	0x3d2514fa	0.040303208
173	0x3cd68d01	0.026190283
174	0xbdf522b1	-0.119695075
175	0xbe06b68b	-0.13155572
176	0x3c749be5	0.014929746
177	0x3d55ceca	0.052199163
178	0xbc3df647	-0.011594362
179	0xbd320ec6	-0.04347112
180	0x3d748a15	0.059701998
181	0xbc34e179	-0.011040085
182	0x3c1416ad	0.009038609
183	0xbcbec77e	-0.023288485
184	0xbd1f43c9	-0.038883004
185	0xbcfe3b6f	-0.0310342
186	0xbd194db4	-0.03742762
187	0x3bf42dee	0.0074517643
188	0xbaf43415	-0.0018631244
189	0xbccceeef	-0.025016276
190	0xbd4c1ec4	-0.049834028
191	0xbcc8afd4	-0.024497904
192	0xbda1ffab	-0.07910093
193	0x3bb25f97	0.005443524
194	0xbde59e63	-0.112118505
195	0x3d7686ba	0.06018708
196	0x3d0aa7b2	0.033851333
197	0xbcc91bd5	-0.024549404
198	0xbd20c060	-0.039245963
199	0xbda2da82	-0.07951833
200	0xbc7eb982	-0.015547158
201	0xbcb1e5d6	-0.02171604
202	0x3df39659	0.11893911
203	0xbda19578	-0.07889837
204	0xbd87bb2f	-0.06627499
205	0xbdf0cf34	-0.11758271
206	0xbe0375e1	-0.12837936
207	0x3ccc7935	0.02496014
208	0xbdf90806	-0.121597335
209	0x3db1ee8d	0.08688078
210	0x3d00b1ba	0.031419493
211	0x3cb6a2cc	0.022294424
212	0xbe03b077	-0.12860285
213	0xbb7d0dce	-0.0038612965
214	0xbdf6028b	-0.12012204
215	0x3e246f9e	0.16058204
216	0xbd2130e4	-0.039353266
217	0xbcdd744a	-0.02703299
218	0xbdb153c5	-0.08658556
219	0x3df53647	0.11973243
220	0xbbaf88af	-0.00535687
221	0xbc44469f	-0.011979728
222	0xbc3f10ce	-0.011661721
223	0xbc7182e2	-0.014740678
224	0x3d8f403b	0.06994673
225	0xbd7afa72	-0.061274
226	0x3c4c14fa	0.012456173
227	0x3b176d8f	0.0023106073
228	0x3d5948bb	0.053047877
229	0x3b49452d	0.0030711398
230	0xbcd7a8e4	-0.02632565
231	0xbcebc72a	-0.028781492
232	0x3c8d85b3	0.017275667
233	0x3cee9d36	0.029127698
234	0xbdc1cf85	-0.09463409
235	0x3e09e641	0.13466741
236	0xbd06806d	-0.03283732
237	0xbc450cf1	-0.012027011
238	0x3d92871d	0.07154677
239	0x3daab100	0.08334541
240	0xbe180e13	-0.14849119
241	0x3caaa3a9	0.020829992
242	0xbdced609	-0.10099418
243	0x3d82c5c4	0.06385377
244	0xbdedb913	-0.11607566
245	0x3cd3374c	0.025783204
246	0x3d3b0efa	0.04566858
247	0x3ae0a30e	0.0017138438
248	0x3dcac110	0.09900105
249	0x3dade5d4	0.08491102
250	0xbd7f5a27	-0.062341835
251	0x3cc55c25	0.02409179
252	0xbca277e2	-0.019832555
253	0xbdf0f1eb	-0.11764892
254	0xbcfe92e2	-0.031075899
255	0xbde6ffb4	-0.1127924

lstm.fc1.bias f4 [30]
0	0x3d2740a0	0.040833116
1	0xbc437766	-0.011930322
2	0x3dcac117	0.0990011
3	0x3d8ecee1	0.06973053
4	0xbde72b30	-0.11287534
5	0xbc99ef3b	-0.018790832
6	0x3d2baeef	0.041914877
7	0xbce3e959	-0.02782123
8	0x3e1de27c	0.15418428
9	0xbca229ca	-0.019795317
10	0xbdabd190	-0.0838958
11	0x3d9923ec	0.07477555
12	0xbd518b0b	-0.051157992
13	0x3d597717	0.05309209
14	0x3c1faf28	0.00974635
15	0x3da40cd4	0.08010259
16	0x3cb72fb1	0.022361608
17	0x3c2af3b1	0.010434077
18	0x3cc6e6ec	0.024280034
19	0x3d1f9c18	0.038967222
20	0xbcc236b4	-0.023707725
21	0x3dfa61af	0.12225663
22	0xbc8ee714	-0.017444171
23	0x3e17e5d8	0.14833772
24	0x3d233873	0.039848756
25	0x3d5bd2b9	0.053667758
26	0x3da73c9d	0.08165858
27	0xbd2b900e	-0.041885428
28	0xbdf9b3ec	-0.121925205
29	0x3d874d40	0.06606531

exp_avg f4 [228, 6]
0	0x355874a5	8.063601e-07
1	0xb532ebed	-6.6653485e-07
2	0x353c2b08	7.0098076e-07
3	0x33a89f37	7.8520706e-08
4	0x33c4d975	9.1665164e-08
5	0xb3937165	-6.865847e-08
6	0xb4e0a357	-4.1842097e-07
7	0x34c2bbf4	3.627207e-07
8	0xb4d05e01	-3.8811416e-07
9	0xb376c3e2	-5.7454493e-08
10	0xb35c8265	-5.1341335e-08
11	0x32be087c	2.212277e-08
12	0x3506592c	5.004865e-07
13	0xb4c930f8	-3.7474797e-07
14	0x35030f15	4.882325e-07
15	0x3314cdef	3.464623e-08
16	0x33525732	4.897374e-08
17	0xb407ad6e	-1.2635948e-07
18	0x33de07b9	1.0339085e-07
19	0xb3a2a4d8	-7.573698e-08
20	0x33ba2af3	8.6691124e-08
21	0x32456fe8	1.1492354e-08
22	0x325a9e41	1.2725253e-08
23	0xb293626e	-1.7157813e-08
24	0x35c76d20	1.4858415e-06
25	0xb591845b	-1.0841862e-06
26	0x35a16b57	1.2026675e-06
27	0x33356029	4.2229804e-08
28	0x33ba1fd7	8.6670916e-08
29	0xb49be7b1	-2.9039577e-07
30	0x3512ebf0	5.473257e-07
31	0xb4d15967	-3.8994332e-07
32	0x34dc5ebf	4.104713e-07
33	0x33a91e31	7.8751675e-08
34	0x33ef7c8a	1.1151958e-07
35	0x32cc8559	2.3809365e-08
36	0x351e12e9	5.8887105e-07
37	0xb50c4bf6	-5.22646e-07
38	0x351490e5	5.5345146e-07
39	0x33a8936f	7.8499276e-08
40	0x33a5ad9d	7.714991e-08
41	0xb36c8ef3	-5.5078043e-08
42	0x33f48cc7	1.1387743e-07
43	0xb3e3e0fe	-1.0611437e-07
44	0x33e76521	1.0775171e-07
45	0x32acf97e	2.0136891e-08
46	0x3301fc96	3.026488e-08
47	0x31e6da27	6.718682e-09
48	0xb6c53410	-5.8771184e-06
49	0x36b06537	5.2569917e-06
50	0xb6babed0	-5.5654455e-06
51	0xb54a3c4b	-7.53386e-07
52	0xb5311f07	-6.598279e-07
53	0x35522223	7.828077e-07
54	0x3625e36c	2.4719293e-06
55	0xb60b0ed8	-2.0721254e-06
56	0x3614f22e	2.2194686e-06
57	0x348debd1	2.6434876e-07
58	0x349724be	2.8152675e-07
59	0xb4436dbe	-1.8200714e-07
60	0x3581994f	9.655868e-07
61	0xb56c5dcf	-8.805336e-07
62	0x357a3719	9.3212435e-07
63	0x3424002a	1.527375e-07
64	0x34130bf1	1.3694786e-07
65	0xb107bf35	-1.9753774e-09
66	0xb4d899e4	-4.0345105e-07
67	0x34dcd750	4.1134854e-07
68	0xb4ea6ef7	-4.3666634e-07
69	0xb36f20d7	-5.567639e-08
70	0xb323e033	-3.8155303e-08
71	0x3324016b	3.8185515e-08
72	0x3631e7e5	2.6510036e-06
73	0xb5ef9039	-1.7848862e-06
74	0x360e7ea0	2.1233354e-06
75	0x34660c4f	2.1424897e-07
76	0x345f119c	2.07749e-07
77	0xb49381de	-2.7475375e-07
78	0x358dd55e	1.0567417e-06
79	0xb55693c5	-7.9936245e-07
80	0x356f9d9b	8.9263784e-07
81	0x33d95659	1.01205565e-07
82	0x3406d124	1.2555807e-07
83	0xb3972ef7	-7.040028e-08
84	0x360429b2	1.9693803e-06
85	0xb5ea0a88	-1.7437424e-06
86	0x35f4e7be	1.8246863e-06
87	0x3484f632	2.4766047e-07
88	0x348880d1	2.54257e-07
89	0xb4205f75	-1.4935888e-07
90	0x35b3c009	1.3392429e-06
91	0xb5933ba4	-1.0969711e-06
92	0x35a29a32	1.2114817e-06
93	0x340d6f2d	1.3172094e-07
94	0x3403a42e	1.2260054e-07
95	0xb419e7a8	-1.4333511e-07
96	0x36d33ad3	6.295138e-06
97	0xb6ad7fa7	-5.1706625e-06
98	0x36b7f41a	5.482242e-06
99	0x351c0d59	5.813395e-07
100	0x355f042d	8.308005e-07
101	0x34788318	2.3144491e-07
102	0xb6888211	-4.0682576e-06
103	0x366af624	3.501199e-06
104	0xb677fc89	-3.6952863e-06
105	0xb5091e0c	-5.10802e-07
106	0xb4e40119	-4.2469108e-07
107	0x3517240d	5.6304344e-07
108	0x35b2b762	1.3315405e-06
109	0xb5903b5c	-1.0746112e-06
110	0x35a617a6	1.2374846e-06
111	0x342fdf41	1.6379364e-07
112	0x34445748	1.8285675e-07
113	0xb31ddab3	-3.6753317e-08
114	0x32fc75fc	2.9390314e-08
115	0xb2c434a6	-2.2841345e-08
116	0x32dd447b	2.5758927e-08
117	0x3183fd19	3.8413757e-09
118	0x31a9b3a0	4.9389683e-09
119	0x3058589c	7.8706264e-10
120	0x357b2ca8	9.356977e-07
121	0xb54b05a4	-7.56316e-07
122	0x355e59ab	8.283193e-07
123	0x33eeb0cc	1.1114898e-07
124	0x3424f7d6	1.5363852e-07
125	0x329acd0e	1.8021208e-08
126	0x34f961f5	4.6451137e-07
127	0xb50246a1	-4.853155e-07
128	0x3502235c	4.848023e-07
129	0x3389a241	6.4090734e-08
130	0x33469196	4.6232877e-08
131	0xb3699c80	-5.4391876e-08
132	0x3549dc52	7.5198943e-07
133	0xb581e49d	-9.677784e-07
134	0x35840952	9.837479e-07
135	0x34459d26	1.8404225e-07
136	0x3429ba2d	1.5807082e-07
137	0x33017e51	3.0150037e-08
138	0xb43a8bd7	-1.7373473e-07
139	0x33528dbc	4.9023342e-08
140	0xb31850d2	-3.5463763e-08
141	0xb2fc40de	-2.936616e-08
142	0xb20ef8a0	-8.322019e-09
143	0xb39c5013	-7.2788815e-08
144	0x35cdb715	1.5326974e-06
145	0xb5be5877	-1.418185e-06
146	0x35ceebd5	1.5416832e-06
147	0x34697a6a	2.174435e-07
148	0x345a4221	2.032689e-07
149	0xb406131e	-1.2486677e-07
150	0xb5e85871	-1.7311087e-06
151	0x35fc38d5	1.8792003e-06
152	0xb5fec3e4	-1.8981486e-06
153	0xb4cc19a3	-3.8016614e-07
154	0xb45904f6	-2.0211505e-07
155	0x348632fc	2.499654e-07
156	0xb7603d02	-1.3365645e-05
157	0x3750d185	1.2446549e-05
158	0xb76708a1	-1.3770682e-05
159	0xb5ac2294	-1.2825062e-06
160	0xb45be76b	-2.0480154e-07
161	0x36849348	3.9510523e-06
162	0x3382d962	6.0931384e-08
163	0xb3100995	-3.3536327e-08
164	0x33397fd7	4.318994e-08
165	0x318e9f72	4.1508708e-09
166	0x317e4b82	3.7004786e-09
167	0x2f2eadf9	1.5887015e-10
168	0x356deede	8.863698e-07
169	0xb5808683	-9.575891e-07
170	0x356e4cc7	8.8773635e-07
171	0x34234f63	1.5209439e-07
172	0x33c661a8	9.237857e-08
173	0xb3b20e65	-8.291389e-08
174	0x34aeca98	3.2557432e-07
175	0xb4d070f6	-3.882521e-07
176	0x34b9a91a	3.4581973e-07
177	0x3319a08f	3.5769116e-08
178	0x3391d3db	6.790625e-08
179	0x32018a35	7.540213e-09
180	0xb49bbb86	-2.900744e-07
181	0x342f4d0f	1.6326179e-07
182	0xb46ba732	-2.1946906e-07
183	0xb28686bf	-1.5660929e-08
184	0xb30cb2e7	-3.2759e-08
185	0x328577c9	1.553771e-08
186	0xb66e3a64	-3.5498751e-06
187	0x3647c0bb	2.9765495e-06
188	0xb6581e5b	-3.2204177e-06
189	0xb4ee9a4e	-4.4443226e-07
190	0xb48dc786	-2.640847e-07
191	0x3537c16e	6.845429e-07
192	0x362a2273	2.5352026e-06
193	0xb6162844	-2.237518e-06
194	0x361dd37c	2.3517923e-06
195	0x349eb3b1	2.9560536e-07
196	0x34a230ff	3.02105e-07
197	0xb458ede6	-2.0203115e-07
198	0xb395006b	-6.938429e-08
199	0x3325392b	3.846905e-08
200	0xb350aa5d	-4.858372e-08
201	0xb249c951	-1.1745514e-08
202	0xb27e0cbc	-1.4787641e-08
203	0xb1dde49b	-6.457936e-09
204	0x348609c9	2.4966565e-07
205	0xb43e9f57	-1.7753096e-07
206	0x343c652a	1.7545668e-07
207	0xb217b111	-8.829617e-09
208	0x33491a94	4.6823132e-08
209	0x32b463a0	2.1000062e-08
210	0xb6d694a4	-6.395001e-06
211	0x36bb53c0	5.582784e-06
212	0xb6cdbc2d	-6.1313826e-06
213	0xb574b9e9	-9.116762e-07
214	0xb5412b27	-7.19609e-07
215	0x3558c50f	8.075303e-07
216	0x3572d7fd	9.046633e-07
217	0xb54ed825	-7.705551e-07
218	0x35409cff	7.1754033e-07
219	0x33833b89	6.110992e-08
220	0x33d34564	9.838075e-08
221	0xb390ae56	-6.737234e-08
222	0x362f0aee	2.6083394e-06
223	0xb61384f1	-2.198209e-06
224	0x3621300a	2.4018832e-06
225	0x34747769	2.2767712e-07
226	0x3489b4cf	2.5649794e-07
227	0xb4a25f16	-3.0244036e-07
228	0x35909e42	1.0774895e-06
229	0xb513a639	-5.5003653e-07
230	0x352d625b	6.459065e-07
231	0x328d9d8d	1.6486206e-08
232	0x334e7e2f	4.8077876e-08
233	0xb4210d79	-1.4999195e-07
234	0xb62b9d8c	-2.557269e-06
235	0x36a4781f	4.901565e-06
236	0xb6912b03	-4.326344e-06
237	0xb5a840d0	-1.2535838e-06
238	0xb57efe22	-9.4992185e-07
239	0xb4c32464	-3.6348058e-07
240	0xb4d8c48b	-4.037614e-07
241	0x34bc5d13	3.508545e-07
242	0xb4ca84d1	-3.772207e-07
243	0xb355e133	-4.9797745e-08
244	0xb33ba494	-4.3689013e-08
245	0x331a169a	3.5876475e-08
246	0x35c99391	1.5018614e-06
247	0xb5a61d08	-1.2376413e-06
248	0x35b402a7	1.3411817e-06
249	0x34188228	1.4203454e-07
250	0x343ad5fb	1.7400446e-07
251	0xb40f4bf9	-1.3345552e-07
252	0xb6ebe231	-7.029878e-06
253	0x36c51ff7	5.8747787e-06
254	0xb6d48cc3	-6.334479e-06
255	0xb54f30ac	-7.7184336e-07

exp_avg_sq f4 [228, 6]
0	0x2d43fd92	1.1140771e-11
1	0x2d7fef1e	1.45481665e-11
2	0x2d7700a1	1.4040464e-11
3	0x2b619809	8.014705e-13
4	0x2ab5df6d	3.2307092e-13
5	0x296bdfcd	5.23746e-14
6	0x2bcb19f1	1.4431218e-12
7	0x2ba0a7d2	1.1415263e-12
8	0x2bb5b0d5	1.2909904e-12
9	0x293c1830	4.1765365e-14
10	0x28365971	1.0122424e-14
11	0x286345a8	1.2616136e-14
12	0x2dd34543	2.4018681e-11
13	0x2e703632	5.4617817e-11
14	0x2e48b50b	4.5635534e-11
15	0x2c82a4cd	3.713119e-12
16	0x2beab0fa	1.6675821e-12
17	0x2a148c68	1.3193754e-13
18	0x2b1c7bc8	5.5594114e-13
19	0x2b5b968b	7.801335e-13
20	0x2b46ff04	7.0697636e-13
21	0x290d650d	3.1395937e-14
22	0x27cce8cb	5.687377e-15
23	0x27aa6106	4.728967e-15
24	0x2f6e7e51	2.169085e-10
25	0x3008d4e6	4.977906e-10
26	0x2fe52b05	4.1685425e-10
27	0x2e19483d	3.4852333e-11
28	0x2d8e4cea	1.6177688e-11
29	0x2b41a77a	6.8799794e-13
30	0x2e38c3d9	4.2010704e-11
31	0x2e6c7b33	5.376961e-11
32	0x2e674e28	5.2592736e-11
33	0x2c5e5b75	3.1598866e-12
34	0x2bbf73ee	1.3603543e-12
35	0x28d2858b	2.3372599e-14
36	0x2ce6d932	6.5611067e-12
37	0x2d06fca7	7.673118e-12
38	0x2d073bb6	7.68712e-12
39	0x2ae63965	4.0896033e-13
40	0x2a38d0d3	1.6414933e-13
41	0x29314ce2	3.936858e-14
42	0x2cb64364	5.180233e-12
43	0x2ccf96bb	5.9000283e-12
44	0x2cd4760b	6.038508e-12
45	0x2ac9e30e	3.5862323e-13
46	0x2a3e99cc	1.6928749e-13
47	0x287dfe28	1.4099433e-14
48	0x30c60254	1.4407058e-09
49	0x30f07db3	1.7498024e-09
50	0x30ee56d0	1.7341453e-09
51	0x2ecbc877	9.266981e-11
52	0x2e1ef090	3.6138703e-11
53	0x2d13bcce	8.397906e-12
54	0x2ec34eb4	8.881554e-11
55	0x2f11080d	1.3190533e-10
56	0x2f06941e	1.2239851e-10
57	0x2d0b64df	7.923633e-12
58	0x2c718db4	3.432682e-12
59	0x2acfbae6	3.6900273e-13
60	0x2d19e179	8.747108e-12
61	0x2d828a75	1.4840776e-11
62	0x2d686d65	1.3211964e-11
63	0x2b874b69	9.613257e-13
64	0x2aecd0bf	4.2066868e-13
65	0x27c86780	5.5623366e-15
66	0x2d72851d	1.37856645e-11
67	0x2d80df41	1.465106e-11
68	0x2d86b580	1.5314638e-11
69	0x2b65c79d	8.163416e-13
70	0x2acf8c3a	3.6867888e-13
71	0x28a48efb	1.8269665e-14
72	0x2faa7001	3.1002403e-10
73	0x2fde8b41	4.048051e-10
74	0x2fd747d3	3.9159306e-10
75	0x2dce7c78	2.3474764e-11
76	0x2d27dc5a	9.541779e-12
77	0x2bec0200	1.6769364e-12
78	0x2dcbb9c1	2.316092e-11
79	0x2e1c7796	3.5576507e-11
80	0x2e1092d5	3.2872222e-11
81	0x2c2255ca	2.3069207e-12
82	0x2b9bbeed	1.1066405e-12
83	0x2982cc30	5.8085806e-14
84	0x2e80384f	5.8307685e-11
85	0x2ee4908e	1.0393918e-10
86	0x2ec984d8	9.1640195e-11
87	0x2ce906a4	6.6229956e-12
88	0x2c510b4e	2.9706962e-12
89	0x2a700365	2.131746e-13
90	0x2e7afa93	5.7065973e-11
91	0x2efc97d1	1.1486601e-10
92	0x2ed902a2	9.868485e-11
93	0x2d02bb62	7.431252e-12
94	0x2c6aea2e	3.3383396e-12
95	0x2a7968f9	2.2152062e-13
96	0x311856de	2.216829e-09
97	0x3116f61f	2.1967776e-09
98	0x3120c355	2.3394098e-09
99	0x2f1c44a9	1.421251e-10
100	0x2e70b7c7	5.473291e-11
101	0x2c0c5276	1.9940972e-12
102	0x30699b2e	8.498543e-10
103	0x306c8007	8.603824e-10
104	0x30797a60	9.075958e-10
105	0x2e38abd7	4.198938e-11
106	0x2d87fd22	1.5460137e-11
107	0x2cbd44b5	5.379331e-12
108	0x2e0cd122	3.2018062e-11
109	0x2e8b5516	6.3361025e-11
110	0x2e6fb590	5.450357e-11
111	0x2c95ffb1	4.263222e-12
112	0x2c0daa7c	2.0131943e-12
113	0x291fa360	3.5446797e-14
114	0x299856c3	6.765207e-14
115	0x2a444de1	1.7435317e-13
116	0x2a187b5a	1.3543108e-13
117	0x2801c2c4	7.2031716e-15
118	0x26f4895b	1.6968131e-15
119	0x2500effb	1.1183539e-16
120	0x2e0b6c1c	3.170096e-11
121	0x2e455023	4.486379e-11
122	0x2e3917e2	4.2085342e-11
123	0x2c3ff987	2.7281248e-12
124	0x2b9fa7e9	1.1344234e-12
125	0x287a397b	1.3890252e-14
126	0x2d7da82f	1.4418729e-11
127	0x2e060a56	3.0477253e-11
128	0x2de3af5c	2.5884787e-11
129	0x2c04987b	1.8842972e-12
130	0x2b5e9dfa	7.908948e-13
131	0x28c18c00	2.148802e-14
132	0x2e09b448	3.1310315e-11
133	0x2ea04a28	7.2891304e-11
134	0x2e85871e	6.0721414e-11
135	0x2cb09ba8	5.019502e-12
136	0x2c236b01	2.3223092e-12
137	0x291a2a5d	3.4231613e-14
138	0x2e0f91b4	3.2643846e-11
139	0x2f03a09e	1.1971443e-10
140	0x2ec819d4	9.099535e-11
141	0x2d17f8ed	8.638629e-12
142	0x2c8e7d34	4.049783e-12
143	0x28f085a8	2.6703317e-14
144	0x2e759045	5.5834688e-11
145	0x2ef5ad5e	1.1172106e-10
146	0x2ed35e99	9.611973e-11
147	0x2cfc2104	7.1659362e-12
148	0x2c5e7be1	3.1616864e-12
149	0x2a48c754	1.7832724e-13
150	0x2fe04b42	4.0798837e-10
151	0x30094164	4.9933235e-10
152	0x30083013	4.954483e-10
153	0x2dee9540	2.7123748e-11
154	0x2d427e1d	1.1055626e-11
155	0x2b8839db	9.679439e-13
156	0x337b3d03	5.849598e-08
157	0x339b6239	7.2356166e-08
158	0x33995990	7.140909e-08
159	0x318bd453	4.069571e-09
160	0x30e3d6e3	1.6577498e-09
161	0x2f86c092	2.4511287e-10
162	0x2a0fb41e	1.2763442e-13
163	0x2a4c21e2	1.8130595e-13
164	0x2a42416b	1.7253358e-13
165	0x2882672c	1.4477643e-14
166	0x2816af98	8.3647485e-15
167	0x2605f18d	4.6471007e-16
168	0x2e160609	3.411141e-11
169	0x2ea11ac5	7.3261876e-11
170	0x2e879806	6.166094e-11
171	0x2c9c865b	4.448703e-12
172	0x2bfc30ed	1.7919257e-12
173	0x29c0cf30	8.562454e-14
174	0x2db41e80	2.0477176e-11
175	0x2e34f1dc	4.1142076e-11
176	0x2e1c3855	3.5520326e-11
177	0x2c450dac	2.8002973e-12
178	0x2bb57dba	1.289572e-12
179	0x293482f5	4.0081616e-14
180	0x2c247485	2.3370483e-12
181	0x2ce245d5	6.4310592e-12
182	0x2cac2dea	4.8936315e-12
183	0x2ad952e0	3.860445e-13
184	0x2a197fc5	1.3633459e-13
185	0x289e1c59	1.7553818e-14
186	0x30c61fdf	1.4415454e-09
187	0x3102ae7e	1.9016677e-09
188	0x30fc951e	1.8377795e-09
189	0x2ef08770	1.0937995e-10
190	0x2e43f2d7	4.4553552e-11
191	0x2cfbdf49	7.1586387e-12
192	0x2ef721bc	1.1238252e-10
193	0x2f6542dd	2.0851183e-10
194	0x2f4944d8	1.8305302e-10
195	0x2d6f04d4	1.3586649e-11
196	0x2cd902c2	6.167817e-12
197	0x2ae94c6d	4.1442145e-13
198	0x2bc5356e	1.4012522e-12
199	0x2c19c3bb	2.185126e-12
200	0x2c09086d	1.9473548e-12
201	0x29cafdd9	9.0146376e-14
202	0x28d6613a	2.3800938e-14
203	0x26e82a6d	1.6109733e-15
204	0x2e00ef4a	2.9316362e-11
205	0x2e103c09	3.279513e-11
206	0x2e12fa19	3.3418688e-11
207	0x2c09ad56	1.9565092e-12
208	0x2b768ad0	8.75894e-13
209	0x29e9b6fe	1.0379023e-13
210	0x30ef9ce4	1.743413e-09
211	0x30c3104f	1.4192753e-09
212	0x30dddf22	1.6143284e-09
213	0x2e756e28	5.580439e-11
214	0x2d847cb5	1.5062044e-11
215	0x2d889d63	1.5531304e-11
216	0x2e31efea	4.0458227e-11
217	0x2e87f8c3	6.183278e-11
218	0x2e7cf7ff	5.751843e-11
219	0x2c8978b2	3.907174e-12
220	0x2bffe1b6	1.8181487e-12
221	0x299419c9	6.576993e-14
222	0x2f3a88d7	1.6965217e-10
223	0x2f933ab1	2.6780847e-10
224	0x2f86665a	2.4447183e-10
225	0x2d8f285c	1.6275141e-11
226	0x2cf3edee	6.932891e-12
227	0x2b7bc144	8.9441323e-13
228	0x2ec91b31	9.145252e-11
229	0x2f391c6f	1.6835754e-10
230	0x2f22230f	1.474627e-10
231	0x2d34aa06	1.0269568e-11
232	0x2c960421	4.263715e-12
233	0x2ac8f69b	3.5698254e-13
234	0x308da8f6	1.0307122e-09
235	0x31812aa2	3.759241e-09
236	0x314563f8	2.8724099e-09
237	0x2f998fd9	2.7932748e-10
238	0x2f097c2f	1.2504196e-10
239	0x2bea37f9	1.6642236e-12
240	0x2c3f48ab	2.7183071e-12
241	0x2c68a59b	3.3061112e-12
242	0x2c67e326	3.2953167e-12
243	0x2a65d082	2.0411626e-13
244	0x29d1821d	9.3040355e-14
245	0x289e7051	1.7590233e-14
246	0x2e47aeea	4.5402716e-11
247	0x2eaf04b2	7.958913e-11
248	0x2e9b47f1	7.061363e-11
249	0x2cb93fca	5.2650983e-12
250	0x2c2c03b7	2.4444732e-12
251	0x2a349d05	1.6041689e-13
252	0x308d802b	1.0295528e-09
253	0x30a31165	1.1864755e-09
254	0x30a41861	1.1939499e-09
255	0x2e87e646	6.179994e-11
