Weights/model_LSTM_Tempo_Salinity_AC_interpol_(1500-3000)_(7500-8500).pth.tar (torch, 270598 bytes, 18 tensors)

lstm.lstm1.weight_ih_l0 f4 [231, 6]
00000000: 51d9 09b9 6720 fbbc 62dc 59bd 370d d03d
00000010: 237d c73d dff4 c13c e638 e439 097b 073d
00000020: 7487 70bd 07c5 763b 1a73 2bbe ce7c 8bbd
00000030: b6c7 03bd 001d fcbc 6483 b53d 5ee8 cfbc
00000040: 2ce9 a5bd ffff e43c 376a f0bd 54ae d0bc
00000050: d79c 9d3d 5d38 9cbb bd83 81bd 03a4 bdbd
00000060: 4588 24bc a7c8 913c cfa0 8ebd ccd1 a2bd
00000070: 9be4 5fbd f5ed 83be 5cf5 a6bd 7923 3abc
00000080: b295 a23c 944d 313d 4399 f63c 530b 16be
00000090: 4dca bbbd 17ca ee3d 322e 18bd 0663 883d
000000a0: e8a4 92be 977d 67bd 0002 093e 8ef0 38bc
000000b0: 5224 8bbd 0dc6 a2bd 752a f2bd 3243 023d
000000c0: d482 80bc 219d 923d 19b3 9fbd bc25 c1bc
000000d0: 162d 433d 5509 da3d 62d6 14be 848e 0a3e
000000e0: f558 34bc 41a5 bebd 8c1d 94bb 24ba f23d
000000f0: 3542 6cbd 1e46 d43d 48e8 80bd df56 49bd
00000100: 8320 8ebd 600d 21be 76a2 eb3c 1632 d43d
00000110: bcb7 b4bd b9f2 5dbd a6f2 8dbc 999b 503d
00000120: c8b0 93bd 9348 9f3d ff03 b3bb 3c01 2dbc
00000130: fd33 0e3d 59c8 dfbc af79 fcbd 247a bb3c
00000140: 2cc1 cbbd 71af 463d 0fbb 8bbd 82e8 533d
00000150: fd3c 1e3d ea7f ad3d f3f8 f8bd 82b1 863d
00000160: 65be 5e3d b4a0 3a3d dc19 7b3d a860 3bbc
00000170: 8ec7 b63d 53ac b5bd 3308 fabd b63a 7b3d
00000180: c1ad 08bb 0fae 623d a1fe 88bd bf2e 4a3c
00000190: f843 e73d a9dc 833d 564f 17be 9677 19bd
000001a0: 77a6 363d bbf8 81bc f626 06be e4bd 83bd
000001b0: cf32 01be 1830 963d 2638 7fbd a885 ed3c
000001c0: 7b8b c3bd dfb1 b63c 647f 67bc 356b 5d3d
000001d0: 2706 31bc 733c 6e3a 4c48 e23c f508 0bbd
000001e0: a8da 11be c801 e03d 98f2 f7bd a582 87bd
000001f0: bfcd 4f3c 45bb fe3c 7c51 dbbd a180 80bd
00000200: eae3 00be 450e 4ebb d881 8f3d 09a3 093b
00000210: e0fc 47bd 445f cc3c 3f59 073d 7ac5 78bd
00000220: 3aa5 ab3c 517f 913d 3915 d3bd 3e58 853d
00000230: 923d e1bd e325 58bd 07c7 a63c a072 5cbd
00000240: b14c fd3c 0c20 05bd 96e2 07bd 0f59 9f3d
00000250: fcc4 48bd c56e a93d 08c6 a8bc c1a4 32bd
00000260: cec4 c13a 449a cb3d e122 cc3d ab2c af3d
00000270: 2202 4a3d 3849 233e 3d81 0e3e 73b1 15be
00000280: 0ecd 4b3c 9e0b 34be f144 05be 1d24 66be
00000290: a765 72bc ce54 223e 35f3 0abc 4ff5 fbbd
000002a0: e2b4 4f3c e0c7 2a3d 55a0 c5bc 8b10 ea3c
000002b0: c6ff ddbd 1d33 eebd 7015 41bd 537e 903c
000002c0: 26fa e63d 4659 003e 2f28 2c3c ef81 93bd
000002d0: b3e4 28bc e9fb 21bd 8c01 34bc 65db 16bd
000002e0: 5a12 abbd fa40 76b9 a162 3bbd 73f7 3dbd
000002f0: 269c 04bc 31a3 5dbd 3053 363d 81ef 403c
00000300: 3615 ecbc 1228 043d 298e ffbd 96e2 05be
00000310: 93fa 27be fbc6 5cbe d640 84bd ab9a 023e
00000320: be4c c0bd 1006 0a3b f184 8f3d 6869 ae3c
00000330: c1d9 1c3c 9934 723d 816a 03be 226f f0bd
00000340: 9643 4dbc c1fa 4dbe 9891 23bb e396 35bd
00000350: 7b07 fbbb 1f4c 823d 269d 473b cd32 08be
00000360: b6d7 973b 1037 d73d 1e51 2b3c cbe3 c43d
00000370: 856b eb3c 3639 5bbd dde0 2fbd e29d 913d
00000380: 5a38 8cbd 01ed 3b3d 50c8 dfbd da2f c3bc
00000390: 9343 01be 6632 a63d 3419 e03d 3275 e93d
000003a0: 0da6 08be 4be0 503d 6b8c 383d 9be2 e83d
000003b0: 90fe fd3d a3e2 32be 6180 bbbc e50d f7bc
000003c0: 4ea9 8d3d f33c 9fbd 6fae d4bd aeac 913d
000003d0: 8a1a cabd ae22 14be f5a9 62bb 4667 a63c
000003e0: 071b c53d 286e 05be 8fda 20be 78cc 263d
000003f0: 6554 b53d 8bef 783d 50b2 c63c 7874 18be
-0.00013146295 -0.0306551 -0.05318869 0.101587705 0.09740665 0.023676334 0.00043529941 0.03307632
-0.05872293 0.0037654059 -0.16743127 -0.06810914 -0.03217288 -0.030775547 0.088629514 -0.025379356
-0.08101115 0.0279541 -0.11739009 -0.025473751 0.076959305 -0.004767461 -0.06323955 -0.092597984
-0.010042255 0.017795874 -0.069642656 -0.07950172 -0.054661375 -0.25767484 -0.08152267 -0.011360996
0.01984677 0.043286875 0.030102378 -0.14652757 -0.09169445 0.11659639 -0.03715343 0.06659512
-0.28641438 -0.056516256 0.13379669 -0.011287821 -0.06794037 -0.079479314 -0.11824504 0.031802364
-0.015687384 0.07158876 -0.07797832 -0.023577563 0.04765042 0.10646311 -0.14534906 0.13530928
-0.011007537 -0.093088634 -0.004520124 0.1185191 -0.057680327 0.10364936 -0.06294304 -0.049155112
-0.06939795 -0.15727758 0.02876399 0.10361116 -0.08824107 -0.054186556 -0.017327618 0.05092964
-0.07211453 0.07777514 -0.005463123 -0.010559376 0.03471755 -0.027317213 -0.12327897 0.02288539
-0.09948954 0.048507158 -0.06822788 0.05173541 0.03863238 0.08471663 -0.12156858 0.06576826
0.054380793 0.045563415 0.06130396 -0.011436619 0.08924781 -0.08870759 -0.12208595 0.061335288
-0.0020855519 0.055341776 -0.066891916 0.012340247 0.11292261 0.06438572 -0.14776358 -0.03746756
0.044592347 -0.015865674 -0.131008 -0.06432703 -0.12617038 0.07333392 -0.062309407 0.028994396
-0.09548088 0.022301612 -0.014129493 0.05405732 -0.0108046895 0.0009087987 0.027622364 -0.03394409
-0.14243567 0.1093784 -0.12106818 -0.06616715 0.012683331 0.031095156 -0.10708901 -0.06274534
-0.12586942 -0.003144161 0.070071876 0.0021001718 -0.048825145 0.02494777 0.033044096 -0.060735203
0.02095281 0.07104362 -0.10306782 0.065109715 -0.10998072 -0.052770507 0.020358576 -0.053820252
0.030920358 -0.032501265 -0.033175074 0.077806585 -0.049015984 0.08273081 -0.020602241 -0.043614153
0.0014783384 0.09941533 0.0996759 0.085534416 0.04931844 0.159459 0.13916488 -0.14618473
0.012439026 -0.17582557 -0.1301458 -0.22474714 -0.014794744 0.15852663 -0.008480837 -0.12302648
0.012677403 0.041694522 -0.024124304 0.028572341 -0.108398005 -0.11630843 -0.047139585 0.017638361
0.11278181 0.12534055 0.010507627 -0.07202517 -0.010308432 -0.03954688 -0.010986697 -0.036830325
-0.0835311 -0.00023484594 -0.045748357 -0.046378564 -0.008093869 -0.05411071 0.044512928 0.011775852
-0.028818708 0.032264777 -0.12478287 -0.13074717 -0.1640418 -0.2156028 -0.06457679 0.12754314
-0.093896374 0.0021060742 0.070077784 0.021290496 0.009573401 0.059132192 -0.12833597 -0.11739947
-0.012528321 -0.20115186 -0.0024958607 -0.04433335 -0.007660804 0.06362175 0.0030458658 -0.13300629
0.004633869 0.10508549 0.010456352 0.096137606 0.028737793 -0.053521357 -0.042939056 0.07110192
-0.06846686 0.04588032 -0.109268785 -0.023826528 -0.12623434 0.081150815 0.10942307 0.11399306
-0.13344593 0.050995152 0.045055788 0.113713466 0.124020696 -0.17469268 -0.022888364 -0.030157993
0.06917058 -0.07775297 -0.10384833 0.07113014 -0.09868343 -0.14466354 -0.0034586166 0.020312916
0.09624296 -0.13030303 -0.15708373 0.04072234 0.088539876 0.06077532 0.024254948 -0.1488818

lstm.lstm1.weight_hh_l0 f4 [231, 77]
00000000: e4b3 e9bd e894 d43d 55a7 793d bbd9 ae3c
00000010: ff28 213d dc2f cd3d f2a6 d53d 6c41 c6bd
00000020: 919c a53c 4c62 863d 3316 e13d 7b7f 6c3d
00000030: b937 efbd f38a acbd 1619 43bd ef60 53bd
00000040: 1627 5b3d f2ae 23bd 9b26 aebc 0079 8abd
00000050: f1f8 263a dde3 20bd 70d2 6fbd 493f 493d
00000060: c36d acbc 3290 7ebc 2546 2a3b 44c9 14bb
00000070: dce5 11be 8a6c 193d 3bd8 cbbd 02f6 e83b
00000080: 5a7a 65bc 1d7f 5e3d 7184 99bd 97ef 09bd
00000090: 78aa 99bc 444c 74bd 2a3a 0e3e 0818 0fbe
000000a0: cd7a 783d a190 c4bd f54e 51bd c223 a53c
000000b0: 964c 5a3d b1cd e0bc fadb c9bd 3f17 f1bc
000000c0: dc60 dc3d 927f cabc e76d 9cbd 32ee 673d
000000d0: a030 b5bd ba58 193e 3867 bdbd 1d36 e1bd
000000e0: 4622 f83d 63c8 3d3d f9d7 273d 4744 0ebe
000000f0: 8151 22bd b6d5 bcbd 9d6d 343d 29ff 61bd
00000100: 3127 753c f100 33bd 144d 833d 63c3 f13c
00000110: 8ca2 013e 4ad8 933d 46c5 01be 1990 0b3d
00000120: 055b 1cbd 2e39 29bd 8b51 4dbd ab9a 733c
00000130: 9e10 02bd 1312 43bd c58b f53d 5ea1 3b3d
00000140: c59e 20bc ca54 083e f5cb bb3d e507 a63d
00000150: bc12 fcbd b084 e93c 3f18 e73b 44da 583d
00000160: 4433 123e 5ec6 e6bd ca68 0e3b 3775 e23d
00000170: b35a a63d 09e5 69bd f266 303d 4032 0f3e
00000180: a49e 2bbd 7a79 2dbd 4ebb 723b 0bc7 5ebc
00000190: 750f 073e 19c9 1a3d de7f 02bd 167d 27be
000001a0: 5a59 703d c086 02be ef0d aabd 39a5 98bd
000001b0: ccc5 033e d784 ae3d ffdd c43b d1f8 0dbb
000001c0: e4e8 123d da6b 3bbd 6f56 41bd e23f 123d
000001d0: b181 be3c eadf 0c3e 6134 863c 7f3d aa3d
000001e0: 3b6c 293d b4e8 843c be8a 683d 4c5f 08be
000001f0: bbad 2d3d c7d9 e03c 2f6b 89bc fc83 92bd
00000200: 1296 18be b516 123d 8ec0 8bbc 6075 6abd
00000210: 50ab a6bd 2464 0a3e 6403 c63d e14a cdbd
00000220: cc3b ffbc e9dd 06bd a4e8 e1bc ce46 13be
00000230: 910b d6bd 8aee dfbc 5c1d f8bd 41ef 253d
00000240: 74a7 523d 93c6 b7bc 788b 1a3d 670e 5abc
00000250: 0a78 073e b7eb 0f3e 0289 a53c 4117 27be
00000260: e616 913c a3d2 b1bc 4c07 dcbc 7332 d93b
00000270: 1b0f 05be 037d 7a3d 4a6c 133c e16e b03b
00000280: 4db8 bcbc 3cbf c8bc 2071 d63c 6b62 23bb
00000290: 2467 fd3d 4308 023e 879e a23d 2e62 e9bd
000002a0: 96b8 19bd adf4 be3d c0cd ae3b 2575 07bc
000002b0: dd4f 6bbb c6af 75bd 1c44 7a3d 4c42 dabd
000002c0: ecfb 6e3c 25b6 d43d f001 a13d dc71 82bd
000002d0: 5290 5c3c 9f42 513d 029b 3dbd 1cef 4a3d
000002e0: 791a 373c 9640 9a3d f5a8 063e 4967 d03d
000002f0: b34a cdbd a5bf af3d 11e6 df3d cf7d 2b3b
00000300: 1ffc 02bd c23b f1bd 414b 71bc 4261 0abd
00000310: 5d73 973d bde0 273c 18a6 75bd 8ac4 cb3d
00000320: 4674 7bba 0f15 643d de6a dc3d b56d 71bd
00000330: 767d debd 3745 fbbd a1a9 87bd 0a4a 13bd
00000340: fd1b 9e3c 4861 5fbd 273c 24bd 1057 5dbd
00000350: 51ea 113c 4fe5 fdbd 8411 99bc 7205 9fba
00000360: 92e3 a0bd 3c40 69bd e437 0dbd 1b1e 50bd
00000370: 705a 873d 9177 9fbd f7c7 813d 72ba 5b3d
00000380: 63a9 3e3d cb7d bb3c 0f42 d9bd 725a 233d
00000390: aee2 62bd 9638 203b 88d6 163c da0c 99bd
000003a0: e1ec 91bd 1e7f e1bd f062 41bd 0972 8a3c
000003b0: 65b3 1a3e 120d d33c 25ff 6c3b 2c73 3bbd
000003c0: 96c5 a4bd 6e59 6cbc 5671 d43d aa32 b33c
000003d0: 8b85 5ebd 7027 b43d 7ef6 b13c 3d3f 92bd
000003e0: 842d c2bd 1f39 9f3d 4546 be3d 25e7 09bb
000003f0: 5fb4 2c3d 7ea7 833d f862 aabc 2c8d ab3d
-0.114112645 0.10379964 0.060950596 0.021344056 0.039345738 0.10018894 0.10432233 -0.09680447
0.020216258 0.065617174 0.10990562 0.057738762 -0.1168055 -0.0842494 -0.047631346 -0.051606115
0.053504072 -0.039961763 -0.021258643 -0.0676136 0.00063694926 -0.039279807 -0.0585503 0.04913262
-0.021048432 -0.0155373085 0.002598175 -0.0022702971 -0.1424784 0.037457027 -0.09953352 0.0071094045
-0.014006222 0.054320443 -0.07495964 -0.033675756 -0.018758044 -0.059643045 0.13889375 -0.13974011
0.060663987 -0.09597898 -0.05110069 0.020158652 0.053295694 -0.027441831 -0.0985641 -0.02943003
0.10760662 -0.024719033 -0.0763815 0.056623645 -0.08847165 0.14975253 -0.09248203 -0.109966494
0.12115912 0.04633368 0.040977452 -0.13893233 -0.03962851 -0.092204496 0.044049848 -0.05517498
0.014962957 -0.04370207 0.06411186 0.029512113 0.12659663 0.07218988 -0.1267291 0.03407297
-0.03817274 -0.041314296 -0.050126594 0.014868419 -0.03175413 -0.04762466 0.119895495 0.04580819
-0.009803479 0.13313594 0.09169761 0.081069745 -0.12308261 0.028505653 0.007052451 0.05294253
0.14277369 -0.11268304 0.002172994 0.11057513 0.08122768 -0.05710319 0.043066926 0.13984013
-0.04189934 -0.042352177 0.0037037912 -0.01359726 0.1318949 0.037789438 -0.031860225 -0.1635631
0.058678962 -0.12746716 -0.08303439 -0.07453389 0.12868422 0.08521431 0.0060079093 -0.0021663199
0.035866633 -0.045757152 -0.04720157 0.035705455 0.023255201 0.13757291 0.016382398 0.08312511
0.041362982 0.016224243 0.05677294 -0.13317603 0.04240201 0.027447594 -0.016774742 -0.0715408
-0.14900997 0.035666186 -0.01705959 -0.057240844 -0.08138144 0.13514763 0.096686155 -0.10024048
-0.031156443 -0.032926474 -0.027576752 -0.14382479 -0.10451425 -0.027335424 -0.12114975 0.040511373
0.051429227 -0.022433555 0.037730664 -0.013309098 0.13229385 0.14054762 0.020206932 -0.16317464
0.017711114 -0.021706885 -0.026858948 0.0066283285 -0.12994044 0.061154377 0.008997986 0.0053843115
-0.0230371 -0.02450525 0.02617699 -0.0024930488 0.12373188 0.12698464 0.07940393 -0.113956794
-0.03752955 0.09324012 0.005334586 -0.0082676755 -0.0035905757 -0.059982084 0.06110011 -0.106571764
0.01458643 0.10386304 0.07861698 -0.06369373 0.013462143 0.051088925 -0.046290405 0.04954444
0.011175745 0.0753185 0.1315039 0.1017595 -0.10024013 0.08581475 0.109325536 0.0026167517
-0.031978723 -0.11778976 -0.014727415 -0.03378416 0.07395051 0.010246453 -0.059972852 0.09949596
-0.0009592216 0.055684146 0.10762571 -0.058942515 -0.108637735 -0.12269061 -0.06624151 -0.03595928
0.019300455 -0.054536134 -0.04009643 -0.054038107 0.008905963 -0.12397253 -0.01868511 -0.001213236
-0.078559056 -0.056946024 -0.03447713 -0.05080996 0.066090465 -0.07786477 0.063369684 0.053644605
0.04654826 0.022887131 -0.10608303 0.039881177 -0.05539196 0.002444779 0.009206422 -0.07473154
-0.07125259 -0.11010574 -0.047213495 0.01690008 0.15107496 0.025763068 0.003616282 -0.045764133
-0.08045499 -0.014425619 0.103731796 0.021874744 -0.054326575 0.087965846 0.021723982 -0.07140968
-0.09481338 0.07774567 0.092907466 -0.0021042314 0.042164203 0.06428431 -0.020799145 0.08376536

lstm.lstm1.bias_ih_l0 f4 [231]
00000000: d0f2 d53d 79e7 573c 5733 8c3c 5477 6cbd
00000010: ffdd 29bc e292 9f3d 0578 cb3d 33fa 9bbd
00000020: 1387 e43b 866b 61bd af52 d3bd b638 95bd
00000030: d842 6e3d e7ed 6cbd 357a 3dbd fa41 773d
00000040: a1f8 ba3d dd7b 34bc 34fe d83c fab7 8fbd
00000050: d329 b7bd 877e b33d 2ede d33b 38d8 72bd
00000060: 4925 f93d 0a62 bbbd 90a8 d7bd aebf 063d
00000070: 75d9 aabd e9c6 293d 9ed2 eebc dcec dd3d
00000080: 309a 1f3d 98ec 32bd 49c7 a1bb d493 ea3c
00000090: ce61 73bb 0e12 a53c 3625 6fbd 7119 30bd
000000a0: 22c8 0cbd d670 cb3c 5141 d7bd f0be c4bd
000000b0: 2720 d63d fba8 b53d cf60 71bc 21ae f03d
000000c0: a3dd 0f3d e98a 2a3c 5841 e83d a2b1 283c
000000d0: 92b9 b33d 104d c2bc c1e9 3dbd 21fd 83bc
000000e0: 8b00 293d e023 073e 83b6 1c3d 16ff dc3d
000000f0: b531 35bd 8898 f7bc fdd1 4a3d 8c3e 6ebd
00000100: 8299 86bd c9f5 d5bd 048e afbd 7d21 a83c
00000110: a089 003a 55eb 35bd 2a25 0cbd d15e 963c
00000120: 2250 32bc da93 8a3d 6103 d23c 8c9f 9f3d
00000130: ebc7 9bbc fe0d d4bd b79f cdbd 7274 ea3d
00000140: 0ec0 af3d 8a24 e5bd 30bf b3bc a17c ae3d
00000150: cdc2 c6bd 9a5d 9a3d 85cd bb3c f82d e83d
00000160: be34 c4bc 81ec 0b3d 6ca3 90bd a722 74bd
00000170: 96b6 813d 4e47 023e 3045 04bd e179 183d
00000180: b29a 5a3d 5c98 cbbd ee8f b0bd 022d 813d
00000190: 1a00 353c 78f3 88bd 0f77 863d 8788 debc
000001a0: 3060 32be 47aa 9abc 63dd dc3d 63c0 6bbc
000001b0: 7f10 db3d c719 9ebd 30a3 50bc fa9d 673d
000001c0: 20db ed3d c432 043d d69c da3d 1340 b33d
000001d0: 5291 5bbd 26ab 9ebd d896 053d c57a be3c
000001e0: 9564 34bc 4688 623d 117d c3bd 8322 ac3d
000001f0: 5b00 5ebd 52c3 2d3d 55fb ef3d 0018 0bbe
00000200: 780d 8fbc 266d eabd ffab 4bbd 65be 993d
00000210: 5efe d33d 030c c63c e19f 4fbd 345a 9e3c
00000220: 075f fabd d9e2 fabc b969 c43d 5199 6f3d
00000230: 9b62 f33d d658 ea3d 6a58 c3bd 7803 0e3b
00000240: 1996 8c3d 3c2a a93c 8aec 3dbe 323e 41be
00000250: 348b d73d 6697 d5bd e15b 9a3d 8ba3 3b3d
00000260: 8529 383d 13a1 87bd 031e a5bd a7c7 5bbc
00000270: 20cf 72bd b8df 7c3c 1079 3d3d c07a 923d
00000280: 60af 673c 59e1 92bd a2e9 0c3d a21d 8fbb
00000290: 584d 5ebd d7e5 7ebb 9730 07be e271 4a3d
000002a0: 20f0 98bd 9760 f63d b008 e23b 7a95 653d
000002b0: 50ca aabd 78e1 4e3d 7abf 20bd f602 8cbd
000002c0: 32be cebd eb4c 71bd 6e0f 0f3c aeea 12bc
000002d0: 99ab 0f3e 0cf7 ddbc 900f ebbd 1c04 903d
000002e0: 8d95 cf3d 123a d1bd 9c7f 213d 3112 df3d
000002f0: d006 013e b175 ba3d b776 8f3d 79fc babd
00000300: 218e f63d 791d 413d 8ce6 fe3d 9039 82bd
00000310: 3de3 ed3c 72bb d3bd db90 113e 3512 be3c
00000320: 80c5 2ebd bfca 46bd 8c85 923c 2d92 ee3d
00000330: 2621 5639 5f47 e53d 9f66 87bd 85ae ec3d
00000340: aac1 a1bd 449e 9bbd bcc6 4f3c fc81 7b3d
00000350: 4af4 05be bb53 3f3d 1223 a03d 1bd9 cfbd
00000360: 6442 f0bd 568d 56bd 7e4a 573d 2139 953d
00000370: 4bb6 d3bd b961 c4bd 021c 983d 62d9 dbbd
00000380: d52a 9b3d dd95 98bc d69c 37be 8068 5abd
00000390: 5a80 4d3c 7d58 51bd db9a a83d
0.104467034 0.013177746 0.017114324 -0.057730988 -0.010367869 0.077916875 0.09935001 -0.07616081
0.00697411 -0.055034183 -0.10318505 -0.072862074 0.058169216 -0.05784407 -0.046259124 0.060365655
0.091294535 -0.011015859 0.026488401 -0.070175126 -0.08943524 0.087643676 0.006465695 -0.059288234
0.12165315 -0.09149559 -0.105301976 0.032897644 -0.08342258 0.04144946 -0.029153164 0.10836193
0.038965404 -0.043682665 -0.0049370867 0.028634943 -0.0037137154 0.02015021 -0.058385096 -0.042993013
-0.03437055 0.024834078 -0.10510505 -0.09606731 0.10455351 0.08870121 -0.014732554 0.117519625
0.03512348 0.010409095 0.11340588 0.010296257 0.08775629 -0.023718387 -0.046365503 -0.016111912
0.041260283 0.13197279 0.038259994 0.10790841 -0.044236857 -0.0302241 0.049516667 -0.058165118
-0.06572248 -0.104472704 -0.08572009 0.020523781 0.000490332 -0.044413883 -0.03421513 0.018355759
-0.010883363 0.06766482 0.025636377 0.07794103 -0.019016227 -0.10354231 -0.10040229 0.114479914
0.085815534 -0.1118861 -0.021941751 0.08519865 -0.09705124 0.07537384 0.022925148 0.11336893
-0.02395093 0.034161095 -0.0706242 -0.05960336 0.06333654 0.12722513 -0.032292545 0.037225608
0.053370185 -0.099411696 -0.086212024 0.06307413 0.0110473875 -0.06687063 0.065656774 -0.02716471
-0.17419505 -0.018880023 0.10784414 -0.01438913 0.10696506 -0.077197604 -0.012734219 0.056547143
0.116140604 0.032274976 0.10674445 0.087524556 -0.053605385 -0.07747488 0.03261456 0.0232519
-0.011010309 0.05530574 -0.09545339 0.0840502 -0.054199558 0.0424226 0.1171786 -0.13583374
-0.017462477 -0.114466 -0.049724575 0.07507018 0.10351251 0.02417565 -0.05068958 0.019330122
-0.12225156 -0.030625748 0.095904775 0.058495823 0.11884042 0.11442725 -0.09538348 0.0021669548
0.06864566 0.020650022 -0.18547264 -0.18871382 0.10524598 -0.104292676 0.07537056 0.045810264
0.04496147 -0.06622519 -0.08062365 -0.0134143 -0.05927956 0.015434198 0.046258032 0.07152319
0.014140934 -0.07171888 0.034402497 -0.004367546 -0.05427298 -0.003889432 -0.1320213 0.049425013
-0.07467675 0.12030142 0.0068980083 0.056050755 -0.08339369 0.050507993 -0.039245106 -0.06836502
-0.100948706 -0.058911245 0.008731706 -0.008967085 0.14030303 -0.02709534 -0.11477578 0.07032034
0.101359464 -0.10216154 0.03942834 0.108921416 0.12600255 0.09104479 0.07005065 -0.091301866
0.12038828 0.047147248 0.12446317 -0.063586354 0.02903902 -0.10338487 0.14215414 0.023202041
-0.04266882 -0.048533197 0.017885946 0.116489746 0.00020420979 0.111952536 -0.0661137 0.115567245
-0.078982666 -0.07598546 0.012681659 0.06140326 -0.1308147 0.04671071 0.07819189 -0.101488315
-0.11731413 -0.052380882 0.052561276 0.07286287 -0.10337504 -0.095889516 0.07427217 -0.10734822
0.07576529 -0.018626148 -0.17930922 -0.053322315 0.012542808 -0.05110978 0.08232661

lstm.lstm1.bias_hh_l0 f4 [231]
00000000: 5567 4fbd 087c 0c3d debe 2cbd 9843 07bc
00000010: 69fe 3d3d 9314 943d 125b 43bb 8633 023d
00000020: 12ab 41bd ccd1 e1bb 5744 cb3b fe61 58bb
00000030: 3860 07be c260 12bd 9cf9 073e 956d c93d
00000040: 98f4 85bc de40 5d3d 05b9 9c3d 541b a23d
00000050: 516a 01bd 3952 4ebd e599 a3bd 0923 75bd
00000060: de8b 5b3c 66bf 61bd 485e 9c3d 5396 88bd
00000070: 9f9b f9bd 02c4 9a3d 895e 4b3d 6538 fd3d
00000080: 591f 85bd 4995 de3d c21d a83d f654 9c3c
00000090: fd44 a4bc 4d93 0abd 340c 7ebd b442 3f3d
000000a0: c2f3 0f3e a6f1 463d d386 b83d f3ea ac3d
000000b0: f6cb ce3d 33ed 96bd a7d9 cf3d cafb 8839
000000c0: fbc1 a2bd c88e 37bd 219f f83d a24b fa3d
000000d0: 8c06 463b f0b4 bf3d db16 febc 9c16 963c
000000e0: ebdd 2f3d fc6b 33bd 1559 d03d c3a6 823d
000000f0: 32a4 163e 7768 213d 8c1d 863d 29aa 5d3d
00000100: 48f4 b2bd eaac 00be e901 dc3d bc33 c9bd
00000110: a157 43bd 10e1 db3d 9379 c53d 01ae 893c
00000120: b8c2 4cbd 2de7 5fbb 06e9 793d 7bc4 acbd
00000130: 5695 d73d 542e b9bd f51d 093b 4acd 40bd
00000140: af12 eb3d 39cc 00bd 63bb 6bbd aaa6 dc3d
00000150: 6396 88bc 58f4 82bd e271 25bd b763 df3d
00000160: 102d 36bd cf1c 063e e451 aa3d 6898 fdbc
00000170: bd47 0abd 0d0c 22bd 8fa3 a4bd b7f6 d83d
00000180: 0d03 f63c 2486 2d3d 6f16 8cbd a467 033e
00000190: 37c7 f23c eab1 7cbc 0d39 b43d a458 313d
000001a0: faae e1bd d789 9bbd 9e9c b6bc 07cd 2c3c
000001b0: 6075 09bd d9b3 19bd 2f65 b3bd 782f d43c
000001c0: 7106 17bd 9943 803c fc78 f03d 840d 87bd
000001d0: 413c ad3c 7e8d c0bd 8e07 073e 5e66 dfbc
000001e0: 4230 dc3a ef98 ad3d 50dc 763c fb05 87bd
000001f0: 3dce 913c c62d 903d c5a0 5f3d f9c8 89bb
00000200: 6c6a 93bd 631e 82bd d5b9 d43d b439 be3c
00000210: be5a a93c fec0 af3d 9261 1bb9 a539 e1bb
00000220: b943 c0bd 70ad 753c cbb1 a0bb d3da 8bbd
00000230: be91 fd3c 4f57 893d 4b25 05bd 3eac 893d
00000240: 693e 9cbc 397c 9b3b 9e17 4cbe 7190 40be
00000250: adee 0f3d c42d 65bd 084a d53c 167e a23c
00000260: 6b26 9dbd baed 143d 36fc b6bc e49c 0cbc
00000270: ee27 8cbd 99be b43d b51a e3bd 2c64 eebd
00000280: 0b85 e5bd 6f54 583c 5d5d 213c 65fa 8e3d
00000290: a3f7 8f3d 4733 703d 6c1b 933d 7623 e5bd
000002a0: b5fa d73d 1f21 0d3d 77ec cabd 3aec 81bd
000002b0: a6f4 ffbb b32b 343d bc11 203b 0689 9f3d
000002c0: 630f d0bd f9e8 02be 383b 8f3d 4480 673d
000002d0: dab2 7b3d 1041 c03c 5f32 9abc 725c e23d
000002e0: 8d14 57bd 2c43 133b cb01 dfbd fce8 0e3d
000002f0: 3739 bfbc b8fe 813c 2364 e3bc d414 cfbc
00000300: 4acf 233d 0bd2 8c3b a53a 0fbd a0c3 b83d
00000310: 62c1 89bd 5ed3 953d ed42 d83c 8f32 4cbd
00000320: 6520 163d 23f7 a2bd 91d2 a93c f5d6 3abd
00000330: bf36 073e 5878 c73d 5c07 833c db41 ab3d
00000340: b215 99bd 33fd bdbb f261 5e3d 60ff 08be
00000350: 512b 713d bb60 92bc 0188 b6ba a9ba f43c
00000360: 28ee eb3c 3da5 273d 5eb3 92bd d1e2 acbd
00000370: a589 97bd 8001 b9bd 60fd 1dbe 8836 843c
00000380: 7358 99bc 871b d63c f7fe ab3c fa2c 313d
00000390: b96f 743d 01cc 223e 3794 bfbd
-0.050635654 0.034297973 -0.042174213 -0.008255862 0.046385203 0.07230487 -0.002980892 0.031787418
-0.047282286 -0.006891465 0.006203215 -0.0033017392 -0.13220298 -0.035736807 0.13278812 0.09835354
-0.016351983 0.05401694 0.07652477 0.07915369 -0.03159553 -0.050371382 -0.079883374 -0.059847865
0.013400046 -0.055114172 0.0763517 -0.06669297 -0.121878855 0.07556917 0.049650703 0.12364272
-0.0650012 0.10868318 0.08208801 0.019083481 -0.020052427 -0.033831883 -0.062023357 0.046694472
0.1405783 0.048570298 0.09010091 0.084432505 0.10097496 -0.07369461 0.10148936 0.0002612754
-0.07947155 -0.0448139 0.121397264 0.12221457 0.0030216305 0.09360683 -0.031016758 0.018321328
0.042936247 -0.043804154 0.10173241 0.063794635 0.14711073 0.039406266 0.06548604 0.054117355
-0.08737999 -0.12565961 0.10742552 -0.09824321 -0.04769099 0.10736287 0.09642329 0.016806604
-0.049990386 -0.003416489 0.061013244 -0.08435913 0.105265304 -0.090420395 0.0020922397 -0.04707078
0.11478173 -0.031444762 -0.057551753 0.10773976 -0.016673272 -0.06394261 -0.04039181 0.10907691
-0.04447657 0.13096927 0.08316401 -0.030956462 -0.03375982 -0.039562274 -0.08039009 0.10593932
0.030030752 0.042364255 -0.06840216 0.12832505 0.029636009 -0.015423277 0.08799944 0.043297425
-0.11019702 -0.0759465 -0.022291478 0.010546929 -0.033559203 -0.03752503 -0.087595336 0.025901541
-0.036871377 0.015657233 0.11741826 -0.06594375 0.021146895 -0.094019875 0.13186476 -0.027270492
0.001679905 0.084764354 0.015067175 -0.065929376 0.017798537 0.070399806 0.05459668 -0.004204866
-0.07198033 -0.06353452 0.10387007 0.023220874 0.020673152 0.08581732 -0.000148183 -0.006873327
-0.09387917 0.014994964 -0.004904007 -0.06828847 0.030953284 0.06706106 -0.03250627 0.06722306
-0.019072728 0.004745033 -0.19930884 -0.188051 0.03513973 -0.05595185 0.026036277 0.019835513
-0.07673343 0.036359526 -0.02233706 -0.0085823275 -0.068435535 0.08825416 -0.11089078 -0.116402
-0.112070166 0.013203724 0.00984892 0.06981353 0.07029655 0.058642652 0.07182965 -0.11188404
0.105458654 0.034455415 -0.09908383 -0.06343885 -0.007811147 0.043986987 0.0024424633 0.07789807
-0.10159185 -0.12784185 0.06993717 0.056518808 0.061449863 0.023468524 -0.018822847 0.11052789
-0.052509833 0.0022470457 -0.10889014 0.03489016 -0.023342712 0.01586853 -0.02775771 -0.025278486
0.039992608 0.0042975 -0.034968037 0.090216875 -0.06726338 0.07315706 0.0263991 -0.049852904
0.036651988 -0.07957294 0.020730289 -0.045615155 0.13204478 0.097397506 0.01599472 0.0836217
-0.07474841 -0.005798006 0.054292627 -0.13378668 0.0588792 -0.01786839 -0.001392603 0.029874163
0.028800085 0.040929068 -0.07163118 -0.08441699 -0.073993005 -0.09033489 -0.15428686 0.016139284
-0.018718934 0.026136173 0.0209956 0.043255784 0.05967686 0.15898134 -0.093544416

lstm.fc1.weight f4 [30, 77]
00000000: 3ea0 22bb c0fa adbd aa18 9c3d 458f 063d
00000010: 0666 893d 6beb 133e f3e6 473d 8cdf 9ebd
00000020: 11cf babd ae67 3a3d 0c50 2bbd 022d 06be
00000030: 5122 2d3d 3952 073e 1e29 513d 86f0 afbd
00000040: dd71 ef3b 4229 8abc 24d1 37bc e182 ce3d
00000050: 8cc6 eabd e57c 3ebd 4f28 b73c 2401 8ebd
00000060: 21b8 c5bd 2766 4fbc 96da 7f3d 9de6 33be
00000070: 6363 68bc edbd 3ebd ed52 2b3c 89f8 82bd
00000080: 5d12 30bd e98b c8bc 4d69 2ebc 207e adbd
00000090: 5faf 073d 087a d6bd dd9e f6bd 74fc 073e
000000a0: 8bb1 97bd 628c 8a3d 1afb aebd 49f3 7c3d
000000b0: 2dff 303d 341c 0138 6b10 bb3d 9406 05bd
000000c0: a02a e0bd 1b6e 08be 0255 1e3d 22de 913d
000000d0: 9bc1 fa3d 7986 82bd 17ff fe3d b4e1 0fbb
000000e0: 27de 4e3c 5835 973d a284 323d 6694 1f3d
000000f0: d793 a13c 4a9c f03d c6a7 e53d ee13 443d
00000100: 65ac a2bd f517 b9ba f6cf 9f3d d1aa e43d
00000110: a570 503d 3479 0dbe b3c6 783c de2e b8bd
00000120: 0440 d4bd 2677 073e 96a2 9b3d f77b 3dbc
00000130: c7e7 38bb e4bf a1bc 0c9e 0e3e 5371 03be
00000140: 2222 c6bc 8ea4 073e 1577 573e fea4 43bc
00000150: 0b65 4fbe a511 843c 9109 bbbd 012d 72bd
00000160: 64d8 603d b8bb babd c376 283d fa96 8abc
00000170: 7028 003e 08fb 18be 910f 7fbd a96a 8f3d
00000180: dc95 fcbd 1d69 ae3d 985a 513d e97a f93c
00000190: ebea 07bd b816 0a3e d74a 2ebc ae96 33be
000001a0: 0ed7 31be 7ca6 00be d955 23bc 468c 6dbd
000001b0: 7a87 963d a566 cf3d 7134 e43d d4f3 ae3d
000001c0: 1a0b 6bbc e034 1d3d 7f06 053d c3db c0bc
000001d0: 06c7 f4bd d71b 223e e38c 13bc 8912 753d
000001e0: 0ce4 1a3d 0f12 d43d f742 73bd 328a ff3b
000001f0: 4dd0 acbd f8fb ecbc f56b 723d 199c 823c
00000200: 1856 1fbe 94d7 fb3c 0165 bb3b 0708 a1bd
00000210: 4c05 04be 0f29 2b3b a6a9 0e3e 3783 23be
00000220: c0fe 97bc 10ed db3d 2f35 0dbe 5374 aabd
00000230: 318c 833d ca6e b7bd 80a3 0bbd e447 07bd
00000240: a44a 213d 2b41 b03d 29c7 01bc d176 c73c
00000250: e511 46bd 0f88 10be f237 91bd ff9e 8b3c
00000260: 0c75 063c 8b3a 99bc f052 efbc 7bef d73d
00000270: 123c b7bc a6d3 79bc b4bd 26bd 1260 82bd
00000280: d846 9abc 6ee8 0ebd 4a21 113c 688d 443c
00000290: 462a cbbd d3fc b2bd 25ef 9c3d 0208 ff3d
000002a0: e1c1 483d 77cd 87bb cfe8 89bd ac9f 04bd
000002b0: 1b36 a6bd 8ee7 c43d 400f 00be b50c 3c3d
000002c0: 9bde 34bd 7c43 033e f6cd cf3b 50b0 65bd
000002d0: 6ef6 143d ac48 02bb c303 c4bd f20f 233c
000002e0: d7ff 263d 5a1b 59bd ab96 433e 6b59 b5bc
000002f0: 00e7 173c d48d 5abd 24bf ebbd 7970 87bd
00000300: 7b25 88bd 182d f23c da26 39bc b496 ba3d
00000310: edc4 a2bd 3019 fb3d cff5 e7bd e7ee 2ebd
00000320: 2b56 43bd 204c 1ebc c96b 8cbd 8f9b 58bd
00000330: 0c65 0ebd 3849 da3d 0e49 d8bd f55a 45bd
00000340: e143 d63c 35c2 d3bb 6910 cabd e959 d33d
00000350: f194 b7bd b92b afbd 97b1 7f3d c93b a7bd
00000360: 96cd 353c b7e1 033e b09b f23d 9ada 70bd
00000370: f903 0c3e e313 9abd ded0 1f3e dd5b a33d
00000380: 1dbc bbbd d447 35bd 756f 5cbd d9b2 8bbd
00000390: 84de 6b3d 8ad7 82bb 378d 143e 8052 e93d
000003a0: a9c2 5d3b dd05 723d d75f 1f3e 93bb 87bd
000003b0: 5bd4 cf3d 89bc a63d 3659 7bbc 1845 0fbe
000003c0: 148d 143d 9816 ec3c 7d3a e23c f415 033e
000003d0: 5e78 ff3d db7e 633d 41e1 bbbc 39fc b33c
000003e0: 906a cfbd ff7d 04be b759 893c 120e 75bd
000003f0: 2515 2dbd 49fc 06bd 7d98 19be c83c afbd
-0.002481475 -0.084950924 0.07621892 0.032851476 0.067089126 0.14445274 0.048804235 -0.07757482
-0.09121526 0.045509033 -0.041824386 -0.13103107 0.042269055 0.13214959 0.051064603 -0.08590798
0.0073072747 -0.016865376 -0.011219297 0.10083557 -0.11463651 -0.046505827 0.022358088 -0.06933811
-0.096542604 -0.012658632 0.06246432 -0.1756844 -0.014183852 -0.046567846 0.010456783 -0.063950606
-0.042986263 -0.024480777 -0.010645223 -0.08471322 0.03312623 -0.10472494 -0.120420195 0.13279897
-0.074069105 0.06765057 -0.085439876 0.061755452 0.043212105 3.0782263e-05 0.09133991 -0.032476977
-0.1094563 -0.13323252 0.03865529 0.071224466 0.122439586 -0.06373305 0.12450998 -0.0021954598
0.012626207 0.073832214 0.04358352 0.038959883 0.019723816 0.1174856 0.11213641 0.04787057
-0.07943038 -0.001412152 0.07803337 0.11165393 0.050888676 -0.13815767 0.015184092 -0.08993314
-0.103637725 0.13229045 0.0759937 -0.0115652 -0.0028214322 -0.01974482 0.13927478 -0.12836199
-0.024186198 0.13246366 0.2104152 -0.011941193 -0.20253389 0.016121695 -0.09132684 -0.05912495
0.054893866 -0.09117836 0.041128885 -0.016917694 0.12515426 -0.14939511 -0.062270705 0.07002766
-0.12333271 0.085161425 0.051111788 0.030454116 -0.03318302 0.13485229 -0.01063796 -0.17537948
-0.17367193 -0.12563509 -0.009969198 -0.057995103 0.07350059 0.10127 0.11142815 0.085426
-0.014345909 0.038380504 0.0324769 -0.02354229 -0.11952023 0.15830933 -0.009005758 0.05983213
0.03781514 0.10355007 -0.059390035 0.0077984566 -0.08438168 -0.028928742 0.059184987 0.015943574
-0.15560186 0.030742444 0.0057188277 -0.07862859 -0.12892646 0.0026117002 0.13931903 -0.15968023
-0.018554091 0.107385755 -0.13789819 -0.08322968 0.06423224 -0.08956678 -0.034091473 -0.033027545
0.039377823 0.0860618 -0.007921019 0.024348648 -0.04835691 -0.14114402 -0.07090749 0.017043589
0.008206617 -0.018704673 -0.029214352 0.10543724 -0.022367511 -0.015248215 -0.04070826 -0.0636598
-0.018832609 -0.03488963 0.008858034 0.0119966045 -0.099201724 -0.08739629 0.07662801 0.12452699
0.049013022 -0.0041443664 -0.06733858 -0.032378837 -0.081157885 0.09614478 -0.12505817 0.045910556
-0.044157606 0.12818712 0.006341691 -0.056076348 0.036367826 -0.0019879742 -0.0957103 0.009952532
0.04077133 -0.0530046 0.19100444 -0.022137364 0.009271383 -0.053357914 -0.115110666 -0.06613249
-0.06647774 0.029562518 -0.011300767 0.091107756 -0.07947717 0.122606635 -0.11326181 -0.042708304
-0.047689598 -0.009661704 -0.06856496 -0.052882727 -0.034764335 0.106584966 -0.10560809 -0.048182447
0.026155414 -0.0064623603 -0.09866411 0.103198834 -0.08963955 -0.08553261 0.062425222 -0.081657
0.011096379 0.12879072 0.11846101 -0.058802225 0.1367339 -0.07523324 0.1560702 0.07976506
-0.09166739 -0.044257954 -0.05381723 -0.06821222 0.057585254 -0.0039929794 0.14506994 0.11392689
0.003383795 0.059087623 0.15563904 -0.06627574 0.101479255 0.08141429 -0.015341094 -0.13991201
0.036267355 0.028819367 0.02761578 0.12801343 0.1247413 0.0555409 -0.022934558 0.021970855
-0.10127747 -0.12938689 0.016766412 -0.05982787 -0.042256493 -0.03295544 -0.14999576 -0.08556515

lstm.fc1.bias f4 [30]
00000000: 8555 44bd 352d 87bc 594c 4abc 198c 1a3d
00000010: 75d3 64bd 43d6 873d 9777 17be bbfc 373d
00000020: 7947 923c 5fa4 8a3c 0a85 b13d 1994 d83d
00000030: fb45 01be 2470 fc3c 91d3 3fbd 2aa0 ba3c
00000040: 9765 d3bc 412e 883c e345 38bd bf6a 863d
00000050: 53f1 8e3d 8f60 b43c bfe8 df3c e965 c33c
00000060: b52b ffbd 752f b7bc 9451 3f3d 0884 163c
00000070: 2c0f b73c e657 08bd
-0.04793312 -0.016501049 -0.012347304 0.037731264 -0.055865724 0.06632664 -0.14791714 0.044918757
0.017856346 0.016924081 0.08667953 0.105751224 -0.12624352 0.030815192 -0.046832625 0.02278145
-0.025805278 0.016623618 -0.044988524 0.06563329 0.06979623 0.022018699 0.027332662 0.023852305
-0.12459508 -0.022361496 0.04670866 0.009186752 0.022346102 -0.03328695

exp_avg f4 [231, 6]
00000000: 616e 4c35 a028 21b5 1dc9 f734 7594 afb4
00000010: 9684 53b4 d66e e6b3 8760 3034 b292 98b4
00000020: c29f 1334 32ba b0b3 7fac 7ab2 72de 3a31
00000030: dd03 0d35 2abb 8cb4 785a 9c34 bd0b 67b4
00000040: b78a 5fb4 95db 68b4 2c83 8ab5 02e3 8835
00000050: 0fc3 3db5 9ca0 2c35 c80c 7c34 e249 8233
00000060: 02df 83b3 4167 b4b3 1786 0832 1857 88b3
00000070: 9856 6cb4 042c 6ab3 78e3 4eb4 e1fc b8b4
00000080: 23c5 73b3 611e ea34 8e50 2734 015b 8034
00000090: 3a1f 8335 5673 5ab5 a8e7 1d35 e1e7 c4b4
000000a0: a542 84b4 e324 31b4 a1bc d1b4 7c12 91b4
000000b0: 010f 3ab4 a3fd 3a35 a787 1635 4875 c934
000000c0: f344 5035 08bf 15b5 8ff0 ef34 ee3e 9ab4
000000d0: c6ce ebb3 ef5b e7b3 eef4 b933 8045 7033
000000e0: 2cc2 0833 171e 87b3 7831 2db3 bcaf ddb3
000000f0: 62c3 0536 55ab dab5 1f2b a135 a1dd 54b5
00000100: 2698 0cb5 91f4 e0b4 155b 55b4 7c66 8c34
00000110: 9e52 1fb4 a56f 9832 c922 b132 fcea 6bb3
00000120: d274 9034 fd13 83b4 0627 3634 80a2 f0b3
00000130: 347c 4eb3 067e 82b3 006a e9b4 1734 9735
00000140: b1f0 dfb4 549b 6933 a56f 1ab4 070e 8ab4
00000150: d86e 6a34 0a23 6933 71cf b833 8ee6 19b4
00000160: 6902 9fb3 38f8 19b4 eb84 a435 f0cf 8eb5
00000170: 33fe 4f35 ebf9 05b5 c8a2 abb4 f39b 26b4
00000180: 6603 1eb5 087c 5435 bf00 edb4 b3f0 5234
00000190: 0d4a 1433 7fb4 30b4 af7b 8336 c067 80b6
000001a0: a736 2936 422d e5b5 3b8a aeb5 4221 03b5
000001b0: bb68 0335 484c 92b4 0ca4 9734 8058 83b4
000001c0: 6795 48b4 2efa 10b4 ac43 6634 b84b a134
000001d0: 7bf4 4d32 7cfb b3b3 db2e 9eb3 2fcd a4b4
000001e0: 6342 5cb3 837d 4634 6a06 6bb3 28ec 81b3
000001f0: da54 39b3 b815 98b3 fbd4 7d34 0459 7cb4
00000200: f83d 2034 8cda ffb3 22c8 7eb3 ddd2 edb2
00000210: 0cc2 9835 853c 67b5 c92b 3635 b6dd feb4
00000220: 12d1 8fb4 2721 80b4 8a99 a133 34ce 58b4
00000230: db04 ab33 874c 2ab3 5886 2032 fb26 2e32
00000240: 344b 8b34 d68e 5ab2 13ee cb33 e190 5ab3
00000250: 23ec 92b3 827e 05b4 af39 4534 465b 2533
00000260: 8f51 7933 1e6f 3b33 e9b0 c633 ce87 02b4
00000270: 08a5 7db4 4d5e f534 da66 62b4 a13c d033
00000280: 0912 94b3 081f e8b2 2cf2 1f36 daaa 3fb6
00000290: 93be db35 57a9 9fb5 4b07 acb5 57be b2b4
000002a0: 4c10 2335 4761 22b5 0d96 cd34 3070 42b4
000002b0: 447d cfb3 bec1 bbb3 0597 81b5 9d39 5d35
000002c0: ca38 2db5 6e4b 5135 0f07 b834 2121 4334
000002d0: 05b7 0c35 4f7c 1eb5 5015 b634 8b6a a7b3
000002e0: 174b 0233 6090 a533 8964 0635 d31f ecb4
000002f0: a26d a634 04bc 5fb4 7a9e f5b3 96cf 26b3
00000300: f1de fc35 7449 e3b5 a9b2 9835 62f7 29b5
00000310: 2e97 f2b4 bf27 2ab3 b4f7 5534 ec30 86b2
00000320: 075a ae33 accd 89b3 b828 5bb3 ddea c9b3
00000330: a3bb a735 bce4 b3b5 f151 5a35 6e1a ccb4
00000340: 4694 39b4 004c a332 4d89 03b5 150b 3235
00000350: 0306 c0b4 f3cd 0b34 c886 ac33 576d 6eb4
00000360: 8537 5334 1077 e9b3 61ae f233 8df6 50b3
00000370: aa9f 05b3 0c63 4cb3 35e0 2433 faf7 9e33
00000380: 5cab d5b2 884a ce33 2a20 a733 cdb1 8fb1
00000390: c3c2 0135 084e 97b4 6f27 9b34 1dbb 7bb4
000003a0: ed10 1fb4 6820 2eb4 19be dfb4 8365 0735
000003b0: 1da1 a2b4 85d5 a034 06cb 2634 bccf b732
000003c0: 00bd ac34 5640 d2b4 f1bd 5f34 fb1d b3b3
000003d0: b3a9 3cb3 b533 b332 ed9a ebb3 45c6 1034
000003e0: 3661 89b3 c203 c3b2 1340 c4b0 7ec2 00b4
000003f0: 2e3f 7635 256b 1eb5 1674 0f35 9df0 f5b4
7.6156545e-07 -6.003629e-07 4.6153664e-07 -3.2704307e-07 -1.9699141e-07 -1.07303705e-07 1.6426394e-07 -2.841894e-07
1.3748561e-07 -8.2295074e-08 -1.4591136e-08 2.7193008e-09 5.2532215e-07 -2.6213212e-07 2.912309e-07 -2.1517822e-07
-2.0818958e-07 -2.1686567e-07 -1.0319977e-06 1.0198858e-06 -7.0691834e-07 6.430871e-07 2.3473979e-07 6.067036e-08
-6.140728e-08 -8.400685e-08 7.94673e-09 -6.348836e-08 -2.2010715e-07 -5.4522403e-08 -1.9267998e-07 -3.4456664e-07
-5.675714e-08 4.3608e-07 1.5582393e-07 2.3908072e-07 9.769349e-07 -8.1379164e-07 5.882416e-07 -3.667656e-07
-2.4635406e-07 -1.6497829e-07 -3.906653e-07 -2.7021804e-07 -1.7328058e-07 6.965949e-07 5.6076755e-07 3.75245e-07
7.758637e-07 -5.578481e-07 4.4692248e-07 -2.8730523e-07 -1.0980652e-07 -1.07734984e-07 8.659286e-08 5.5942564e-08
3.1841566e-08 -6.291901e-08 -4.0324693e-08 -1.032308e-07 1.9932272e-06 -1.629213e-06 1.2007985e-06 -7.9298667e-07
-5.237547e-07 -4.1901197e-07 -1.9870306e-07 2.61516e-07 -1.4838085e-07 1.7745899e-08 2.062133e-08 -5.492892e-08
2.6907088e-07 -2.4415195e-07 1.6964268e-07 -1.12054295e-07 -4.8076075e-08 -6.07652e-08 -4.3476757e-07 1.1265537e-06
-4.1712113e-07 5.439081e-08 -1.4382984e-07 -2.571471e-07 2.1833273e-07 5.4281408e-08 8.605901e-08 -1.433311e-07
-7.404453e-08 -1.4339537e-07 1.2257636e-06 -1.0640342e-06 7.748342e-07 -4.991004e-07 -3.196967e-07 -1.5516689e-07
-5.886453e-07 7.9156644e-07 -4.4145233e-07 1.964534e-07 3.4526284e-08 -1.6456941e-07 3.918503e-06 -3.8267754e-06
2.5214774e-06 -1.7075001e-06 -1.3004241e-06 -4.88497e-07 4.8953706e-07 -2.725012e-07 2.8245302e-07 -2.4465044e-07
-1.8680804e-07 -1.350206e-07 2.1445038e-07 3.004368e-07 1.1988159e-08 -8.381082e-08 -7.365971e-08 -3.069667e-07
-5.128312e-08 1.8485848e-07 -5.4721035e-08 -6.049987e-08 -4.315084e-08 -7.082002e-08 2.3639943e-07 -2.3501713e-07
1.4923705e-07 -1.1914116e-07 -5.9321003e-08 -2.768632e-08 1.1381358e-06 -8.6142273e-07 6.7864e-07 -4.7472503e-07
-2.6787944e-07 -2.386598e-07 7.525075e-08 -2.0191584e-07 7.963691e-08 -3.965081e-08 9.343772e-09 1.0136996e-08
2.5945485e-07 -1.2721747e-08 9.4962296e-08 -5.0888847e-08 -6.841608e-08 -1.2432614e-07 1.836804e-07 3.850007e-08
5.8049007e-08 4.364039e-08 9.252273e-08 -1.2156599e-07 -2.3622499e-07 4.570342e-07 -2.1085307e-07 9.696783e-08
-6.8950676e-08 -2.7022466e-08 2.383381e-06 -2.8560667e-06 1.6372236e-06 -1.1895708e-06 -1.2817121e-06 -3.3293574e-07
6.0745947e-07 -6.049126e-07 3.8293402e-07 -1.8108472e-07 -9.661974e-08 -8.7431076e-08 -9.655201e-07 8.2412754e-07
-6.453016e-07 7.796833e-07 3.4277807e-07 1.8172842e-07 5.242039e-07 -5.904048e-07 3.391565e-07 -7.7959236e-08
3.0336277e-08 7.709673e-08 5.006519e-07 -4.398158e-07 3.0999678e-07 -2.0836893e-07 -1.1437528e-07 -3.8838685e-08
1.8840348e-06 -1.6934196e-06 1.137688e-06 -6.3317395e-07 -4.518601e-07 -3.961736e-08 1.9927285e-07 -1.56219e-08
8.118882e-08 -6.416971e-08 -5.1026944e-08 -9.402513e-08 1.2497079e-06 -1.340311e-06 8.133057e-07 -3.801719e-07
-1.7283409e-07 1.9010258e-08 -4.90011e-07 6.6326294e-07 -3.576716e-07 1.3020308e-07 8.033891e-08 -2.2205255e-07
1.9671104e-07 -1.0871565e-07 1.13007225e-07 -4.865301e-08 -3.111169e-08 -4.7587534e-08 3.838814e-08 7.402555e-08
-2.4874389e-08 9.60618e-08 7.782394e-08 -4.1820614e-09 4.833966e-07 -2.8182717e-07 2.8899692e-07 -2.3444268e-07
-1.4814186e-07 -1.6216802e-07 -4.16753e-07 5.043914e-07 -3.0292077e-07 2.9957678e-07 1.5533814e-07 2.139847e-08
3.2175012e-07 -3.916236e-07 2.0837594e-07 -8.3407905e-08 -4.39265e-08 2.0861856e-08 -1.0971221e-07 1.3483175e-07
-6.397242e-08 -2.2702697e-08 -1.4279088e-09 -1.1991685e-07 9.173408e-07 -5.90155e-07 5.344058e-07 -4.5809875e-07

exp_avg_sq f4 [231, 6]
00000000: d3c3 492f 0fe0 6e2f 5645 a82e 8973 852d
00000010: eb7f ba2c 930d 132a 10cc a22d 088d 1c2e
00000020: e5e7 282d 2e1b 9b2b b7f0 ca2a 1448 8529
00000030: a549 b930 fdca df30 59d4 1b30 b626 ec2e
00000040: 6bf3 232e 972a cb2b f9ff f530 1ed6 2131
00000050: 8f19 5630 99f3 122f c533 552e 3629 e62a
00000060: 7be3 5330 4549 0d30 e931 8e2f 54b8 a72e
00000070: c9bc d12d be63 d329 841b 8730 a7d4 e730
00000080: c5c3 0430 5654 972e f752 e82d 97da 042c
00000090: 5d3a 1e30 a99a 2f30 a0c2 802f 9174 592e
000000a0: 6262 9a2d 7026 0f2b 10a4 a431 1563 bd31
000000b0: 270a 0831 42de e52f 57e6 272f 7977 8a2c
000000c0: 2d3d b42f f1fc c62f 01d5 112f 3fff fa2d
000000d0: 45eb 2d2d 3808 cf2a 2d5c cf2f 094a fb2f
000000e0: 97e9 2d2f 3b2e fb2d de93 262d bb07 052b
000000f0: a9f7 6830 dd62 8930 9d2b c22f 7383 9e2e
00000100: 2239 db2d 0afe 3a2c 3d3f a12f 0418 a12f
00000110: e0b9 fb2e 58ca e82d 5a93 232d 3191 c429
00000120: 9786 4f2e c5fc 462e 4c38 9f2d 2272 972c
00000130: 2226 d42b 8bc0 5829 827e 0331 306f 3c31
00000140: 6e67 6d30 eea9 132f d0d7 472e 444a 6c2c
00000150: 3a41 af2f 0509 0130 b9d8 1f2f 8bab be2d
00000160: 6ce2 ef2c e902 882b 6f77 9e2f 92c6 b82f
00000170: 9f7b 032f 4f6e d52d a24e 182d a6b3 aa2a
00000180: 1de0 d730 ba15 f930 84f4 3130 fa6e 0b2f
00000190: 01f7 402e 98b3 a02b 8d5a 7431 c01f 4231
000001a0: e2f8 af30 8b2d cc2f b9cb 152f fa39 4b2c
000001b0: 3196 cc2f d897 0730 89ef 322f 6440 fc2d
000001c0: c0de 322d 8068 182b b07d 2f31 f427 6031
000001d0: 6206 9730 6f94 592f 83db 932e a877 8c2c
000001e0: 967d fc2e bc27 212f b59a 582e 00f6 192d
000001f0: 5fc9 4b2c 4fcd 2e2a 1b4f 0d2e 1c26 1e2e
00000200: 89e4 652d 9a31 372c b625 752b c1de b027
00000210: 29e9 4530 f976 7430 ad55 a82f e032 822e
00000220: 5700 b62d 1b9a b62b 64ac 912d 01e1 fa2d
00000230: 6ac3 0f2d cdbe 972b 72dd c22a e003 7e29
00000240: 7c9d 6b30 3ea9 9530 97fa c92f b9eb 8d2e
00000250: 6b2b c02d a4b8 572b 7230 6130 2c8b 7630
00000260: ef76 b52f a96b 962e 9632 ce2d e01b 3f2b
00000270: ece4 0a2f f802 8c2f a380 902e 850c dc2c
00000280: 381b 022c 9a54 172b e5e1 9d32 be3a 3a32
00000290: 0c2b c931 402f e830 1b97 f12f 4119 932c
000002a0: b31f 502f fda6 4f2f 1b8c a22e 3694 962d
000002b0: 93cb d32c 2a97 112a 94a4 2831 ab0b 5231
000002c0: ff6f 8f30 157d 502f 6012 932e cf70 d32a
000002d0: bc21 852f c717 8c2f eeef d32e 5eea bd2d
000002e0: 442f 072d 7f84 302a 25e7 002e 8f35 0d2e
000002f0: 7ceb 502d 1cab 352c c73c 832b 95be 1528
00000300: 8b3b 2b30 bf50 0e30 365c 7a2f 86a8 882e
00000310: 8273 c42d 14e9 9e29 a344 482f 308d 672f
00000320: 2f6c a52e 4774 842d f985 b62c 3d64 302a
00000330: 7151 5230 a063 7a30 842b b02f f68c 8b2e
00000340: 06e6 c52d 45f7 6c2b e9a1 c630 14bd dd30
00000350: 58a0 2130 3e02 042f 0166 342e 7168 ca2b
00000360: 5243 b12e e1de e62e 5792 192e 6f43 d52c
00000370: 64e5 0f2c edbe 362a 672a 1f30 f6af 1f30
00000380: 207b 782f 9e99 602e bd77 9a2d 2906 092a
00000390: bf8a b12f f5e9 d72f 04ac 152f 7204 e82d
000003a0: 7cd5 202d d86c 222b d399 9030 656e ab30
000003b0: e6eb f02f b913 b82e 291f ff2d de91 b12a
000003c0: ead4 a92e 94a7 e02e f6f9 132e c5b1 c32c
000003d0: 8ea0 052c d8e7 f029 c06e 942f 3777 9d2f
000003e0: b7cd eb2e e902 c62d 0ebb 052d 417e 732a
000003f0: 469f 1530 7de9 3730 aa12 7d2f bee0 3c2e
1.8350414e-10 2.1725576e-10 7.652072e-11 1.5171657e-11 5.3006397e-12 1.3060932e-13 1.850789e-11 3.5595554e-11
9.601185e-12 1.1020956e-12 3.6049438e-13 5.91889e-14 1.3481453e-09 1.6283078e-09 5.6690436e-10 1.0738914e-10
3.7278108e-11 1.4435839e-12 1.7898848e-09 2.3550295e-09 7.788907e-10 1.3365166e-10 4.8476573e-11 4.0884803e-13
7.708462e-10 5.1399623e-10 2.5865113e-10 7.627024e-11 2.3844387e-11 9.387585e-14 9.830363e-10 1.6867902e-09
4.8299525e-10 6.881666e-11 2.641219e-11 1.887967e-12 5.7563004e-10 6.3884414e-10 2.3421354e-10 4.944362e-11
1.7551464e-11 5.085715e-13 4.79168e-09 5.5118883e-09 1.9796376e-09 4.181278e-10 1.5270395e-10 3.93546e-12
3.2785277e-10 3.6195716e-10 1.3263347e-10 2.8535061e-11 9.886152e-12 3.677629e-13 3.7718575e-10 4.570924e-10
1.5817246e-10 2.8555927e-11 9.468841e-12 4.726182e-13 8.4753055e-10 9.996161e-10 3.5319384e-10 7.208358e-11
2.492279e-11 2.657321e-12 2.9330663e-10 2.9302794e-10 1.14471765e-10 2.6465205e-11 9.298196e-12 8.729335e-14
4.718589e-11 4.5244492e-11 1.8101208e-11 4.3043494e-12 1.507409e-12 4.812864e-14 1.913492e-09 2.7420803e-09
8.636708e-10 1.3429943e-10 4.543904e-11 3.3578843e-12 3.187866e-10 4.6942744e-10 1.4537961e-10 2.167668e-11
6.8179264e-12 9.664189e-13 2.8824895e-10 3.3610498e-10 1.19583e-10 2.4264283e-11 8.65766e-12 3.0322722e-13
1.5707006e-09 1.812331e-09 6.47397e-10 1.2681403e-10 4.387513e-11 1.1418531e-12 3.5558145e-09 2.8248763e-09
1.2803663e-09 3.7139744e-10 1.3623848e-10 2.8880219e-12 3.72141e-10 4.9328497e-10 1.6274106e-10 2.8677678e-11
1.0167589e-11 5.414627e-13 2.5537297e-09 3.2619e-09 1.098851e-09 1.9788769e-10 6.723779e-11 3.992324e-12
1.1481942e-10 1.4656981e-10 4.925012e-11 8.751666e-12 2.8959818e-12 1.5525535e-13 3.2129948e-11 3.595889e-11
1.3067888e-11 2.6033399e-12 8.709382e-13 4.9091323e-15 7.1999523e-10 8.8935753e-10 3.0619898e-10 5.920753e-11
2.0691155e-11 1.2974651e-12 1.6561148e-11 2.8521631e-11 8.1719995e-12 1.0782153e-12 3.461498e-13 5.640269e-14
8.57163e-10 1.0889278e-09 3.6739742e-10 6.4538104e-11 2.1847154e-11 7.6639584e-13 8.192337e-10 8.9692054e-10
3.3008216e-10 6.8403345e-11 2.3441953e-11 6.7895516e-13 1.2632356e-10 2.546796e-10 6.571212e-11 6.254166e-12
1.848922e-12 5.3763385e-13 1.837993e-08 1.0839981e-08 5.854764e-09 1.6893651e-09 4.3945012e-10 4.180795e-12
1.8928752e-10 1.8885866e-10 7.391795e-11 1.7118845e-11 6.019582e-12 1.2931033e-13 2.454077e-09 3.0565654e-09
1.0436451e-09 1.8961928e-10 6.68805e-11 3.7559406e-13 2.421653e-10 2.5482746e-10 9.637789e-11 2.1590892e-11
7.684357e-12 1.5677909e-13 2.9309128e-11 3.2107258e-11 1.1875719e-11 2.5816632e-12 9.324979e-13 8.3124874e-15
6.2294053e-10 5.1774046e-10 2.2770127e-10 6.2145e-11 2.2333916e-11 7.057042e-14 1.8214279e-10 2.1059487e-10
7.5225486e-11 1.50583e-11 5.187625e-12 1.5666717e-13 7.651329e-10 9.1091046e-10 3.2045133e-10 6.346028e-11
2.2498458e-11 8.41872e-13 1.4452414e-09 1.6133606e-09 5.879932e-10 1.2006127e-10 4.101786e-11 1.4381952e-12
8.0609866e-11 1.049878e-10 3.4918148e-11 6.0613107e-12 2.044886e-12 1.6231088e-13 5.790412e-10 5.809392e-10
2.2599211e-10 5.1068143e-11 1.7560947e-11 1.2170182e-13 3.2294697e-10 3.927451e-10 1.3612583e-10 2.637732e-11
9.14235e-12 5.770501e-13 1.0521098e-09 1.2473264e-09 4.3823362e-10 8.370855e-11 2.9003982e-11 3.1542732e-13
7.7230514e-11 1.02161085e-10 3.364594e-11 5.5619697e-12 1.8989563e-12 1.06983595e-13 2.6999736e-10 2.864284e-10
1.0723105e-10 2.2511286e-11 7.601709e-12 2.1626539e-13 5.4432225e-10 6.690682e-10 2.3016847e-10 4.2945862e-11
