Weights/model_best_LSTM_Spatial_Salinity_interpol.pth.tar (torch, 514074 bytes, 33 tensors)

encoder.LSTM.weight_ih_l0 f4 [280, 1]
0	0x3e520e0a	0.20513168
1	0xbcca643e	-0.024706002
2	0xbd3c2316	-0.045931898
3	0xbc41be6e	-0.011825187
4	0x3c7b61be	0.015343128
5	0xbcec7d4d	-0.028868342
6	0x3d467eb8	0.048460692
7	0xbe297276	-0.1654757
8	0xbd5f459b	-0.05450974
9	0x3d666277	0.056246247
10	0x3e5073f2	0.2035673
11	0x3b90cc9a	0.0044189217
12	0x3bcfeb03	0.0063451543
13	0x3ce70b92	0.02820376
14	0xbb9a8267	-0.004715252
15	0x3e15eaa6	0.14640293
16	0xba80d148	-0.0009827996
17	0x3a6761fb	0.0008826551
18	0xbe8d1772	-0.2755695
19	0xbe6553a9	-0.22395195
20	0xbcc9849c	-0.024599366
21	0xbbc8e21f	-0.0061304714
22	0x3d5d6914	0.05405529
23	0x3ea5b8fe	0.323677
24	0x3cd5b7e3	0.02608866
25	0xbe58f7ed	-0.21188326
26	0xbd6d8eab	-0.057997387
27	0x3e6a208b	0.22863977
28	0x3e12c116	0.14331469
29	0xbdfcabce	-0.12337457
30	0x3e16f95b	0.14743559
31	0xbe8da53f	-0.27665135
32	0x3e8a3011	0.26989797
33	0xbdaee924	-0.08540562
34	0x3d1d0f51	0.038344685
35	0x3e06688e	0.13125822
36	0x3e3ac9b7	0.1824101
37	0x3d57b926	0.052666806
38	0x3deba6dd	0.11506436
39	0xbeb13511	-0.346108
40	0xbc8e0288	-0.017335191
41	0xbd0e3fa2	-0.034728654
42	0xbddd39a1	-0.108020075
43	0xbe06dad2	-0.13169411
44	0xbbf54c5a	-0.0074859085
45	0xbdabfca4	-0.08397797
46	0xbe41e6c6	-0.1893569
47	0x3ce9cdcd	0.028540516
48	0x3cce0f87	0.025153888
49	0x3e2976fa	0.16549292
50	0x3dc42e3f	0.09579133
51	0xbdf18401	-0.11792756
52	0x3d339b53	0.0438493
53	0xbabb8b02	-0.0014308395
54	0x3e0ba823	0.13638358
55	0xbe02fa8a	-0.12790886
56	0x3e32ec14	0.17472869
57	0xbbe69e99	-0.0070379493
58	0x3dc2aa56	0.09505145
59	0x3d65b440	0.056080103
60	0x3e110a22	0.14164022
61	0x3d4a5fb0	0.04940766
62	0x3e5638ad	0.20920058
63	0xbe1b2993	-0.15152578
64	0xbdc2be48	-0.095089495
65	0x3e7c668b	0.24648492
66	0xbd56c540	-0.052434206
67	0x3d6e78b9	0.0582206
68	0xbdb028e9	-0.08601553
69	0xbd8c9e66	-0.068661496
70	0x3e0e82dc	0.13917106
71	0x3de095c4	0.109660655
72	0x3e4d145d	0.20027299
73	0x3db65bbe	0.08904217
74	0x3cd9a24d	0.026566649
75	0xbdef615b	-0.11688491
76	0x3d8e2e43	0.069424175
77	0xbdb67a02	-0.0890999
78	0x3d365f77	0.044524636
79	0x3e0053d7	0.12531982
80	0xbd6e9ae6	-0.05825319
81	0xbe0edf18	-0.13952291
82	0xbd3a089d	-0.04541837
83	0xbdae778d	-0.08518896
84	0xbdc9256e	-0.09821592
85	0xbd3a6554	-0.04550679
86	0xbe7b1b7f	-0.24522208
87	0xbe24f03c	-0.16107267
88	0xbe8a88bc	-0.27057445
89	0xbed1dfa8	-0.4099095
90	0xbc813fd8	-0.015777513
91	0x3c1ab8f8	0.009443514
92	0x3d3fe7e1	0.046851996
93	0x3e550500	0.20802689
94	0x3c151058	0.009098135
95	0xbe49997d	-0.19687457
96	0xbe6cd276	-0.2312716
97	0x3d917b27	0.071035676
98	0xbdbbeb4c	-0.09175739
99	0xbd6492c7	-0.05580404
100	0x3dfc7c93	0.12328448
101	0x3a81d9c2	0.0009906816
102	0x3e0c5b43	0.13706689
103	0xbeafd827	-0.343446
104	0x3d28ee03	0.04124261
105	0xbd49b591	-0.04924542
106	0xbdb21348	-0.08695084
107	0xba66b913	-0.0008801382
108	0x3e2bc2cd	0.1677353
109	0xbde5f84b	-0.11228999
110	0xbccf7834	-0.025325872
111	0xbe2e6451	-0.17030455
112	0xbdc36c09	-0.095420904
113	0xbd921d3f	-0.071344845
114	0xbdcd93d8	-0.100379646
115	0xbe112106	-0.14172754
116	0xbe3f632c	-0.18690175
117	0xbdd3bac2	-0.103383556
118	0xbd1c7a78	-0.038202733
119	0x3db81389	0.08988101
120	0x3d91a3fd	0.071113564
121	0x3d93cb40	0.07216501
122	0x3ddff5ed	0.109355785
123	0xbd129e18	-0.0357953
124	0x3d2c7455	0.04210313
125	0xbdf5df12	-0.12005438
126	0xbc893e51	-0.016753348
127	0xbb65bcad	-0.0035055086
128	0x3e95f80e	0.29290813
129	0xbde041ca	-0.10950048
130	0x3c53ce8c	0.012927663
131	0x3d65ae26	0.056074284
132	0x3e027815	0.1274112
133	0xbd756513	-0.059910845
134	0xbc42c3ac	-0.011887472
135	0x3e19e3eb	0.1502835
136	0x3dbc340d	0.091896154
137	0x3dba8580	0.09107494
138	0xbdd03fd5	-0.10168425
139	0xbde22389	-0.11041934
140	0x3e597887	0.21237384
141	0x3dfa91cb	0.12234839
142	0xbe41307b	-0.1886615
143	0xbe1f88ab	-0.15579478
144	0x3da955a4	0.08268288
145	0xbe1d939b	-0.15388338
146	0x3e4431f5	0.19159682
147	0x3e1715ed	0.14754458
148	0xbdd8363f	-0.105572216
149	0x3d279663	0.040914904
150	0xbe45c8e0	-0.19314909
151	0x3d35f997	0.04442748
152	0x3e259d9f	0.16173409
153	0xbd8fbf3a	-0.070188954
154	0xbe168d0b	-0.14702241
155	0x3ddeab09	0.10872466
156	0xbe945455	-0.2897059
157	0xbd889ea3	-0.066708826
158	0xbd8cd2f7	-0.06876176
159	0xbea10161	-0.31446365
160	0xbe474094	-0.19458228
161	0xbdf21da4	-0.1182206
162	0x3e5f83c4	0.21827608
163	0x3e945406	0.28970355
164	0x3e13f8a2	0.14450315
165	0x3dda9d30	0.106745124
166	0x3eb89edc	0.360587
167	0x3e98acc2	0.29819304
168	0x3e2687b2	0.16262701
169	0x3e47d379	0.19514264
170	0x3e1e2d64	0.15447003
171	0x3d523001	0.05131531
172	0xbddabb39	-0.10680241
173	0x3e347acf	0.17624973
174	0xbe15af70	-0.14617705
175	0x3e1b90a7	0.15191899
176	0xbf1099bf	-0.564846
177	0x3ebe0c9b	0.37118992
178	0xbe7e4a1f	-0.24832962
179	0x3e1a0be4	0.15043598
180	0xbe3bc2eb	-0.18336074
181	0xbe8aa6b9	-0.27080324
182	0x3d811652	0.063030854
183	0x3de6df91	0.11273111
184	0xbe1ac6d7	-0.15114914
185	0xbc01c484	-0.007920388
186	0x3e42478a	0.18972602
187	0xbd438b19	-0.047740076
188	0xbe5527a6	-0.20815906
189	0x3e520d00	0.20512772
190	0x3df1339a	0.1177742
191	0x3d0f2df2	0.034955926
192	0xbe142675	-0.14467795
193	0xbc7729da	-0.015085662
194	0xbdf4ef12	-0.119596615
195	0x3e076d21	0.13225223
196	0xbebc0868	-0.36725163
197	0x3c35302b	0.011058847
198	0x3ef3b0a1	0.47595695
199	0x3da65087	0.08120828
200	0xbdc574f6	-0.09641449
201	0x3e8a4f00	0.27013397
202	0xbe67ab63	-0.22623973
203	0x3c60739a	0.013699437
204	0xbdaa44e3	-0.0831392
205	0xbd7b4792	-0.06134755
206	0x3d9a498f	0.075335614
207	0xbe4fd4a9	-0.20295967
208	0xbe91876d	-0.28423634
209	0x3da9d219	0.08292026
210	0x3e84e83d	0.25958434
211	0x3e142a54	0.14469272
212	0x3d4d4962	0.05011881
213	0xbe67ae25	-0.22625025
214	0xbd104e3f	-0.03523087
215	0x3e1e318c	0.15448588
216	0x3e0f4ccd	0.13994141
217	0xbe8bbbbc	-0.27291667
218	0x3e4bf381	0.19917108
219	0x3e3b05a6	0.18263873
220	0x3e6992b4	0.22809869
221	0x3c261f5d	0.0101393135
222	0x3e56740f	0.2094271
223	0xbe88be06	-0.26707476
224	0xbe469b72	-0.19395235
225	0x3d679e8d	0.05654769
226	0xbd9ccac4	-0.07655862
227	0x3eaa7060	0.3328886
228	0xbe3c1147	-0.18365966
229	0xbe53471a	-0.20632592
230	0xbdab70a3	-0.08371093
231	0xbe928992	-0.28620583
232	0xbd8ac82c	-0.06776461
233	0x3ee60f68	0.4493363
234	0xbe887ecb	-0.26659235
235	0xbe4f36d1	-0.20235755
236	0xbed80f96	-0.4219939
237	0x3ecf1903	0.4044877
238	0xbdc22109	-0.09478957
239	0xbdee0837	-0.116226606
240	0x3e20807e	0.15674016
241	0xbe414c56	-0.18876776
242	0x3e3196ef	0.17342733
243	0xbe582f8f	-0.21111892
244	0xbe263602	-0.1623154
245	0x3d785a7a	0.06063316
246	0xbd123320	-0.035693288
247	0x3dd6b12c	0.104830116
248	0x3e97f157	0.29676315
249	0xbe29fdbc	-0.16600698
250	0xbd400138	-0.046876162
251	0xbe815f90	-0.2526822
252	0x3d9d1d4a	0.07671602
253	0x3cb190e2	0.02167553
254	0xbdf0de65	-0.117611684
255	0xbdc3ae48	-0.09554726

encoder.LSTM.weight_hh_l0 f4 [280, 70]
0	0xbdc3f02c	-0.095672935
1	0x3bad9c1a	0.00529815
2	0x3dd2a0a8	0.10284549
3	0xbd7745f8	-0.06036946
4	0xbe0c8346	-0.13721952
5	0x3d02f523	0.03197206
6	0x3db497b4	0.088179976
7	0xbccd5de7	-0.02506919
8	0xbdcc63c3	-0.099799655
9	0xbce3898e	-0.027775552
10	0xbd4f2755	-0.05057462
11	0x3d60799c	0.054803476
12	0xbdfb8791	-0.122817166
13	0xbd392faa	-0.04521147
14	0x3d249a79	0.04018638
15	0x3b3bb41d	0.0028641291
16	0xbda312d8	-0.079625785
17	0x3c9c0109	0.019043462
18	0xbd020947	-0.03174713
19	0xbe2c1d89	-0.16808142
20	0xbd0c3a42	-0.034235246
21	0xbd5b4408	-0.053531677
22	0xbe15de4a	-0.14635578
23	0x3e0950a0	0.13409662
24	0x3af6d9cf	0.0018833223
25	0xbd7913a5	-0.06080975
26	0x3d719856	0.05898317
27	0xbde421d1	-0.111392625
28	0xbc939238	-0.018014058
29	0xbd83e11a	-0.06439419
30	0xbddfe459	-0.10932226
31	0x3dd55b6b	0.10417827
32	0xbdecabd5	-0.11556212
33	0x3ca360bf	0.019943593
34	0x3ce5e136	0.02806149
35	0xbdacb116	-0.08432214
36	0xbe195a6e	-0.14975902
37	0xbd109655	-0.035299618
38	0x3d51ae2b	0.05119149
39	0xbde0c806	-0.109756514
40	0xbd2ee683	-0.0427003
41	0xbdd572e0	-0.10422301
42	0x3d098988	0.033578426
43	0x3d888dcc	0.066676706
44	0x3da419b7	0.08012717
45	0x3d20263b	0.03909896
46	0x3e03f6e9	0.12887157
47	0xbe05848a	-0.13038841
48	0x3d711b04	0.058863655
49	0xbdd3c78c	-0.10340795
50	0xbd40d873	-0.047081422
51	0x3dba7bf0	0.091056705
52	0x3d731622	0.05934728
53	0x3aadc833	0.0013258517
54	0xbdde2f43	-0.10848858
55	0xbcfdcb30	-0.030980676
56	0xbd85c19f	-0.06531071
57	0xbd971aaf	-0.07378136
58	0xbcf99989	-0.03046872
59	0xbd87177d	-0.06596277
60	0x3dc92eb5	0.09823362
61	0xbdf70e92	-0.12063326
62	0xbdb02784	-0.08601287
63	0x3d0974f2	0.033558793
64	0xbdf8acd6	-0.12142341
65	0x3d5f15f7	0.054464307
66	0x3dd1b7a7	0.10240107
67	0xbdcccde3	-0.10000207
68	0xbdefc65f	-0.11707758
69	0x3d7ca24e	0.061678223
70	0xbd38a3d6	-0.04507812
71	0xbce806e2	-0.028323594
72	0xbdd18212	-0.10229887
73	0xbdaed0ba	-0.08535905
74	0x3dded425	0.10880307
75	0x3d8f727b	0.07004257
76	0xbd9ea706	-0.07746701
77	0xbd2b00ca	-0.0417488
78	0xbe4b6ba4	-0.1986528
79	0xbd0e39e4	-0.034723178
80	0xbe0e463f	-0.13893984
81	0x3c5a763e	0.013333855
82	0xbce461eb	-0.027878722
83	0xbdea56a4	-0.11442307
84	0xbd243959	-0.040093753
85	0x3934c75f	0.00017240409
86	0x3d4c620a	0.049898185
87	0xbdb8214a	-0.089907244
88	0xbe27cc7c	-0.16386598
89	0xbd36e8ca	-0.0446556
90	0xbda84811	-0.082168706
91	0x3da695e1	0.08134056
92	0x3c5dfe77	0.013549439
93	0x3ce38938	0.027775392
94	0xbddadb71	-0.106863864
95	0x3d24a4bd	0.04019617
96	0xbc441dfc	-0.011970039
97	0x3e2552f9	0.16144933
98	0x3d1917d6	0.037376247
99	0x3db00897	0.085953884
100	0xbda24597	-0.079234295
101	0xbb6b187e	-0.0035872753
102	0xbc1232a9	-0.008923211
103	0x3ca2a86e	0.019855704
104	0x3d455e77	0.04818579
105	0xbd29bdbb	-0.041440707
106	0xbe1b841d	-0.15187116
107	0x3d910f92	0.07083048
108	0xbe22c0c9	-0.15893854
109	0x3d672194	0.056428507
110	0xbc75c080	-0.014999509
111	0x3c74a680	0.014932275
112	0x3dbb5826	0.09147672
113	0xbce9aa94	-0.02852372
114	0x3b8169d0	0.0039493814
115	0xbd4abfaa	-0.04949919
116	0x3db94227	0.09045821
117	0x3de29e23	0.110653184
118	0xbd78a0e0	-0.060700297
119	0xbd79a4e0	-0.060948253
120	0x3e0da41c	0.13832134
121	0x3d47c4e4	0.048771754
122	0xbb451336	-0.0030071265
123	0x3e18b5e1	0.14913131
124	0xbdc198cb	-0.09452971
125	0xbd5ee32f	-0.054415878
126	0xbdcb6c60	-0.0993278
127	0x3d5d83eb	0.054080885
128	0x3d95b684	0.07310203
129	0x3d180ef7	0.037123647
130	0x3d27c116	0.040955625
131	0xbdc7162c	-0.09721026
132	0x3daced88	0.08443743
133	0xbc39c8b4	-0.011339355
134	0x385310f3	5.0322105e-05
135	0xbe3ba950	-0.18326306
136	0xbda02dac	-0.07821211
137	0x3a98ae13	0.0011648558
138	0xbd4020c2	-0.04690624
139	0x3d974317	0.07385843
140	0x3c51d9b6	0.012808254
141	0xbd7791d9	-0.060441826
142	0xbd1f110e	-0.038834624
143	0xbd81f560	-0.0634563
144	0x3c52eb80	0.01287353
145	0x3dda1ee6	0.10650425
146	0xbd9cd54f	-0.07657873
147	0xbdbcd80a	-0.09220894
148	0x3c5fe9b1	0.013666556
149	0x3d3e9032	0.046524234
150	0x3db52f05	0.08846859
151	0x3e06ebb5	0.13175853
152	0xbd8d7840	-0.069077015
153	0xbcef7fc9	-0.029235737
154	0xbd034a3f	-0.03205323
155	0xbdba844a	-0.091072634
156	0x3cb09d7e	0.021559473
157	0xbdcc201c	-0.09967062
158	0x3e05582d	0.13021918
159	0x3d8e5869	0.06950457
160	0x3d1b0e37	0.037855353
161	0xbc2380a7	-0.009979404
162	0x3cdc1d87	0.026869548
163	0x3debe9f9	0.11519236
164	0x3d25aeb6	0.04044982
165	0xbdd13521	-0.10215212
166	0x3dbed752	0.09318413
167	0xbcff45a6	-0.03116114
168	0x3e1777ef	0.14791845
169	0xbe00c9e5	-0.12577017
170	0xbb74ca3d	-0.0037351989
171	0xbbbebc23	-0.0058207675
172	0x3d64c8ba	0.05585549
173	0xbd6e1a6b	-0.058130663
174	0xbd36ef67	-0.044661906
175	0xbd809fa5	-0.0628045
176	0xbcdef3b7	-0.027215822
177	0xbe142cbb	-0.14470188
178	0x3d406300	0.046969414
179	0xbd8ee455	-0.06977145
180	0xbb5eb98b	-0.0033985104
181	0xbd8d8512	-0.06910147
182	0x3deae077	0.114685945
183	0xbd2610b9	-0.04054329
184	0x3c78162a	0.015142003
185	0xbda41b40	-0.0801301
186	0x3c80bfdf	0.015716491
187	0x3c9bbab5	0.019009927
188	0xbdd8c082	-0.10583593
189	0x3e045fed	0.12927218
190	0x3c50b64c	0.012738775
191	0xbdb07ad6	-0.08617179
192	0xbdd16f3f	-0.10226297
193	0x3d85021b	0.06494542
194	0xbe11d235	-0.14240344
195	0x3db9d686	0.0907412
196	0x3e0e22f5	0.13880523
197	0x3e07572d	0.13216849
198	0xbc523ef4	-0.012832392
199	0xbd839b3b	-0.06426092
200	0x3db4f098	0.08834952
201	0xbd3a2662	-0.04544676
202	0x3d9c49b3	0.076312445
203	0xbdabd3e0	-0.08390021
204	0xbd947160	-0.07248187
205	0xbd8671e5	-0.065646924
206	0x3d27f809	0.04100803
207	0xbe180141	-0.14844228
208	0x3d0f71c4	0.035020605
209	0x3e15386d	0.14572306
210	0x3b333bea	0.0027348944
211	0xbd846f9d	-0.06466601
212	0xbd9c1821	-0.0762179
213	0xbd8f57fc	-0.069992036
214	0x3bf61061	0.0075092767
215	0xbd3064d4	-0.043064907
216	0x3b896ed8	0.004194122
217	0xbe1ef359	-0.15522517
218	0xbe21d89d	-0.15805288
219	0x3dbb24dc	0.0913789
220	0x3d2d4475	0.042301614
221	0x3e311cd0	0.17296147
222	0xbd5869ab	-0.052835148
223	0x3aa6ad50	0.0012716446
224	0x3cbaa835	0.022785285
225	0x3e43486a	0.19070593
226	0x3dd5b947	0.104357295
227	0x3e1d4ae9	0.15360607
228	0xbd229983	-0.03969718
229	0xbdc4bb47	-0.09606033
230	0x3d85805d	0.06518624
231	0xbe404d44	-0.18779474
232	0xbdfd9500	-0.12381935
233	0x3ded0180	0.11572552
234	0xbe01e7b6	-0.12686047
235	0xbd6f2cda	-0.058392383
236	0xbd9f4f05	-0.07778744
237	0x3dbd781c	0.09251425
238	0x3e1b8da3	0.15190749
239	0xbd13e198	-0.036103815
240	0x3ddef17a	0.10885902
241	0xbc3f5484	-0.011677865
242	0xbe1acbd4	-0.15116817
243	0xbe175b61	-0.14780952
244	0xbe2dec96	-0.16984782
245	0x3d04385f	0.032280322
246	0x3ba72d4a	0.0051018344
247	0x3e89066a	0.26762706
248	0xbd99f4b8	-0.075173795
249	0x3dd39ec9	0.1033302
250	0xbd96e672	-0.07368173
251	0xbca4c579	-0.020113694
252	0xbcdbc3ea	-0.026826818
253	0x3c5dcdfb	0.013537879
254	0x3ca505c6	0.020144355
255	0xbcb57343	-0.022149688

encoder.LSTM.bias_ih_l0 f4 [280]
0	0x3c2c3dcf	0.010512783
1	0x3d22d108	0.03975013
2	0x3c6cc11b	0.014450337
3	0x3d3f0d90	0.046643794
4	0x3c337cf2	0.010955082
5	0x3d54bf6e	0.051940374
6	0x3ca613cd	0.020273114
7	0x3c5f3a28	0.013624705
8	0xbccd61fb	-0.025071135
9	0x3b88b840	0.004172355
10	0x3c8b6cc8	0.017019644
11	0xbb26870b	-0.0025410082
12	0x3d422454	0.047397926
13	0x3d70d011	0.058792178
14	0x3d8c03bf	0.06836652
15	0x3c8c59e1	0.017132701
16	0xbb9a89dc	-0.004716141
17	0x361e8a6f	2.3624414e-06
18	0xbd51eb42	-0.05124975
19	0x3d1f8e46	0.038954042
20	0x3d04bd08	0.032406837
21	0x3d9f380c	0.07774362
22	0x3d13d63c	0.03609298
23	0x3c8efa7b	0.017453423
24	0xbc27f3c7	-0.010250992
25	0xbcebb5e5	-0.028773258
26	0x3d5df422	0.0541879
27	0x3d878cc5	0.066186465
28	0x3d2500cb	0.04028396
29	0xbb4941bd	-0.003070935
30	0x3c7eeaf2	0.015558945
31	0xbd1c879d	-0.03821527
32	0xbd065865	-0.032799143
33	0xbd29f80c	-0.04149632
34	0x3db4f1a5	0.088351525
35	0x3d87dae1	0.06633545
36	0x3e457a9b	0.19285052
37	0x3de58e83	0.112088226
38	0x3ca12f3b	0.019675842
39	0xbbfaf6ec	-0.00765883
40	0x3de04f49	0.109526224
41	0x3d47e310	0.048800528
42	0x3ae936be	0.0017792804
43	0x3cd3372e	0.025783148
44	0x3c2d9380	0.010594249
45	0xbc4e1ede	-0.0125806015
46	0xbcef1d7d	-0.029188866
47	0x3c792a1d	0.0152077945
48	0x3d7fb0fc	0.062424645
49	0x3d50b02e	0.050949268
50	0x3cf4aec0	0.029868484
51	0xbd2f8bda	-0.042857982
52	0xbcaeb2b3	-0.021325445
53	0x3d4cfe75	0.050047357
54	0x3b55b078	0.0032606404
55	0x3c60f86c	0.013731103
56	0x3cb2321d	0.021752411
57	0xbc26cbba	-0.010180408
58	0x3da5117f	0.08059978
59	0x3cd2cfcf	0.025733856
60	0x3d592acd	0.053019334
61	0x3dc6617c	0.096865624
62	0x3d119e22	0.035551198
63	0xbd64c33c	-0.055850253
64	0x3c008198	0.007843398
65	0xbcd11672	-0.025523398
66	0x3d59b4b5	0.05315085
67	0xbb5915ba	-0.0033124522
68	0x3ca21cda	0.019789148
69	0x3ce52524	0.027971812
70	0xbbd7b1f7	-0.0065824944
71	0x3cfa8afb	0.03058385
72	0x3b0033d3	0.001956214
73	0x3d52e66c	0.05148928
74	0x3b22b5d3	0.0024827614
75	0x3d0b85c7	0.034063127
76	0x3ccf4479	0.025301205
77	0x3d094177	0.033509698
78	0xbc83d723	-0.016093796
79	0x3aee117c	0.001816317
80	0x3bab97c9	0.0052366
81	0x3afceab6	0.0019296024
82	0x3d61ef87	0.05516007
83	0x3d0560b5	0.03256293
84	0x3d6f14e5	0.058369536
85	0x3d2bbf8d	0.041930724
86	0x3cb0bae1	0.021573486
87	0xbc25d7fa	-0.010122294
88	0xbcf0b311	-0.02938226
89	0x3aa4eaa2	0.0012582133
90	0x3ce35d57	0.027754469
91	0x3d7704cb	0.060307305
92	0xbc744818	-0.014909767
93	0x3b379580	0.0028012693
94	0x38e6d432	0.00011006779
95	0xbd5c044e	-0.053715043
96	0x3a2d927c	0.0006621254
97	0x3c5213fa	0.012822146
98	0x3d606e2c	0.054792568
99	0xbcf4f3ad	-0.02990135
100	0x3ced28f7	0.028950198
101	0x3cda5281	0.026650669
102	0xbc97b8b3	-0.018520689
103	0xbd52b8ea	-0.05144588
104	0x3d74d415	0.05977257
105	0x3da442d7	0.08020561
106	0x3cbfd59b	0.023417285
107	0x3d421aa7	0.0473887
108	0xbae7279b	-0.0017635705
109	0x3a9e711d	0.0012088154
110	0x3d278a72	0.040903516
111	0x3d44233a	0.047885157
112	0x3c4ce62d	0.01250605
113	0x3d6bd97f	0.057580467
114	0x3ccda6cd	0.02510395
115	0x3bb1d650	0.0054271594
116	0xbc91c4fb	-0.017794123
117	0x3d012c95	0.031536657
118	0x3d18d5ef	0.037313398
119	0x3d8ea7df	0.069656126
120	0x3d10f4f6	0.035389863
121	0xbc270f43	-0.01019651
122	0xbcf6dbdf	-0.03013414
123	0x3bf8b5d3	0.0075900345
124	0x3c1c789c	0.00955024
125	0xbd03f7c8	-0.032218724
126	0xbc5df252	-0.013546543
127	0x3cf64884	0.030063875
128	0x3c274588	0.010209449
129	0x3cf8f309	0.030389326
130	0x3d389ae7	0.0450696
131	0x3dabd696	0.083905384
132	0xbb89e443	-0.004208119
133	0xbcc71ec8	-0.02430667
134	0xbb39794a	-0.0028301054
135	0x3c10c1a8	0.008835234
136	0x3d487e61	0.04894865
137	0xbc0166ba	-0.007898027
138	0x3c0af8fa	0.008482212
139	0x3d0b314f	0.03398257
140	0x3d59f5b9	0.053212855
141	0x3d412354	0.047152832
142	0xbcfaba2c	-0.030606352
143	0xbd5ab05d	-0.05339085
144	0x3c1415c5	0.009038393
145	0xbd50701d	-0.05088817
146	0x3d0dcdfa	0.034620263
147	0x3d2caa54	0.042154625
148	0x3b8c00c0	0.0042725503
149	0x3dc184b9	0.09449143
150	0xbc552f31	-0.01301174
151	0x3c743a20	0.014906436
152	0x3d4e4aa1	0.05036414
153	0xbdc5c915	-0.09657494
154	0xbd82ae76	-0.06380932
155	0x3d14940c	0.036274
156	0xbb3518fa	-0.0027633295
157	0xbc52bab8	-0.0128619
158	0xbd216a17	-0.039407816
159	0xbce18b83	-0.027532345
160	0xbd20c668	-0.039251715
161	0xbdc8cc29	-0.098045655
162	0x3c323414	0.010876674
163	0x3d6988e6	0.057015322
164	0x3cec137d	0.028817886
165	0xbd618d0e	-0.05506616
166	0x3bf8c984	0.007592382
167	0x3d7515ac	0.05983512
168	0x3d6743e0	0.056461215
169	0xbb2c312d	-0.0026274428
170	0x3d384edc	0.04499708
171	0xbbb233d6	-0.005438308
172	0xbbe5e32a	-0.0070156055
173	0x3c16754d	0.00918324
174	0xbddfe6de	-0.10932706
175	0x3d912aea	0.07088263
176	0xbd2ffbbe	-0.04296469
177	0x3b3df732	0.0028986451
178	0xbd22e975	-0.039773423
179	0xbd56a117	-0.05239972
180	0xbd64d8e7	-0.055870917
181	0xbd192ba7	-0.037395146
182	0xba678f3c	-0.0008833294
183	0x3cb21772	0.021739695
184	0xbcc8de19	-0.024519967
185	0x3d31ffd8	0.043456882
186	0xbb2ae873	-0.0026078492
187	0x3c218fa5	0.009860908
188	0xbdb07039	-0.08615155
189	0x3d72a95c	0.059243545
190	0x3d1b986e	0.037987165
191	0xbbe2c929	-0.006920953
192	0xbcb6f22a	-0.02233227
193	0x3df7b60e	0.12095271
194	0xbc6db239	-0.014507824
195	0x3c3365c1	0.010949553
196	0xbd2ef743	-0.042716276
197	0x3c815674	0.015788294
198	0x3cee92c9	0.029122727
199	0x3d49096d	0.049081255
200	0xbd8c3a8e	-0.06847106
201	0x3de444b8	0.111459196
202	0xbdc9601e	-0.09832786
203	0xb8ad0d80	-8.2517974e-05
204	0xbcd88c0c	-0.026433967
205	0xbc20d5f9	-0.00981664
206	0x3d421063	0.04737891
207	0xbd0bbd8b	-0.03411631
208	0xbd887bed	-0.06664262
209	0x3d6da34a	0.058017053
210	0xbc3273d7	-0.010891876
211	0x3d2ce350	0.04220897
212	0x3b28dc18	0.0025765952
213	0xbca56476	-0.020189505
214	0x3cf8f61f	0.030390797
215	0x3bf4ee29	0.00747468
216	0x3ce7e8d2	0.02830926
217	0xba1d0196	-0.0005989311
218	0x3d07f990	0.033196986
219	0x3bc15adc	0.005900724
220	0x3d157c95	0.036495764
221	0x3c332277	0.01093351
222	0x3d2bbaa3	0.041926038
223	0xbc3563d9	-0.011071169
224	0x3ca92827	0.020649029
225	0x3d2efdd8	0.042722553
226	0x3db6538b	0.08902653
227	0xbcebf2d6	-0.028802317
228	0xbd6d8dd8	-0.0579966
229	0x3e06d723	0.13168006
230	0xbb524343	-0.0032083548
231	0x3c3438ed	0.0109999
232	0x3d5c207f	0.05374193
233	0x3beffb47	0.0073236558
234	0xbc7977b6	-0.015226295
235	0xbd5ed6b7	-0.054403987
236	0x3b60d9f7	0.0034309605
237	0x3c71a41c	0.014748599
238	0x3cdc06fb	0.026858797
239	0xbc5d8977	-0.013521544
240	0x3c8aa282	0.016923193
241	0x3c31a6ab	0.010842959
242	0xbcaa0dc0	-0.02075851
243	0xbd2b65a7	-0.04184499
244	0xbcb28529	-0.021792011
245	0x3d2688eb	0.04065792
246	0x3e184ca1	0.14872982
247	0x3e161f9b	0.14660494
248	0xbbdaa23e	-0.006672173
249	0x3bcba631	0.00621488
250	0x3ced980c	0.029003166
251	0x3d1624b5	0.0366561
252	0xbc6af3b2	-0.014340328
253	0x3d1425cc	0.03616886
254	0xbbd3a7ce	-0.006459213
255	0x3c73a5f2	0.014871107

encoder.LSTM.bias_hh_l0 f4 [280]
0	0x3c2c3dcf	0.010512783
1	0x3d22d108	0.03975013
2	0x3c6cc11b	0.014450337
3	0x3d3f0d90	0.046643794
4	0x3c337cf2	0.010955082
5	0x3d54bf6e	0.051940374
6	0x3ca613cd	0.020273114
7	0x3c5f3a28	0.013624705
8	0xbccd61fb	-0.025071135
9	0x3b88b840	0.004172355
10	0x3c8b6cc8	0.017019644
11	0xbb26870b	-0.0025410082
12	0x3d422454	0.047397926
13	0x3d70d011	0.058792178
14	0x3d8c03bf	0.06836652
15	0x3c8c59e1	0.017132701
16	0xbb9a89dc	-0.004716141
17	0x361e8a6f	2.3624414e-06
18	0xbd51eb42	-0.05124975
19	0x3d1f8e46	0.038954042
20	0x3d04bd08	0.032406837
21	0x3d9f380c	0.07774362
22	0x3d13d63c	0.03609298
23	0x3c8efa7b	0.017453423
24	0xbc27f3c7	-0.010250992
25	0xbcebb5e5	-0.028773258
26	0x3d5df422	0.0541879
27	0x3d878cc5	0.066186465
28	0x3d2500cb	0.04028396
29	0xbb4941bd	-0.003070935
30	0x3c7eeaf2	0.015558945
31	0xbd1c879d	-0.03821527
32	0xbd065865	-0.032799143
33	0xbd29f80c	-0.04149632
34	0x3db4f1a5	0.088351525
35	0x3d87dae1	0.06633545
36	0x3e457a9b	0.19285052
37	0x3de58e83	0.112088226
38	0x3ca12f3b	0.019675842
39	0xbbfaf6ec	-0.00765883
40	0x3de04f49	0.109526224
41	0x3d47e310	0.048800528
42	0x3ae936be	0.0017792804
43	0x3cd3372e	0.025783148
44	0x3c2d9380	0.010594249
45	0xbc4e1ede	-0.0125806015
46	0xbcef1d7d	-0.029188866
47	0x3c792a1d	0.0152077945
48	0x3d7fb0fc	0.062424645
49	0x3d50b02e	0.050949268
50	0x3cf4aec0	0.029868484
51	0xbd2f8bda	-0.042857982
52	0xbcaeb2b3	-0.021325445
53	0x3d4cfe75	0.050047357
54	0x3b55b078	0.0032606404
55	0x3c60f86c	0.013731103
56	0x3cb2321d	0.021752411
57	0xbc26cbba	-0.010180408
58	0x3da5117f	0.08059978
59	0x3cd2cfcf	0.025733856
60	0x3d592acd	0.053019334
61	0x3dc6617c	0.096865624
62	0x3d119e22	0.035551198
63	0xbd64c33c	-0.055850253
64	0x3c008198	0.007843398
65	0xbcd11672	-0.025523398
66	0x3d59b4b5	0.05315085
67	0xbb5915ba	-0.0033124522
68	0x3ca21cda	0.019789148
69	0x3ce52524	0.027971812
70	0xbbd7b1f7	-0.0065824944
71	0x3cfa8afb	0.03058385
72	0x3b0033d3	0.001956214
73	0x3d52e66c	0.05148928
74	0x3b22b5d3	0.0024827614
75	0x3d0b85c7	0.034063127
76	0x3ccf4479	0.025301205
77	0x3d094177	0.033509698
78	0xbc83d723	-0.016093796
79	0x3aee117c	0.001816317
80	0x3bab97c9	0.0052366
81	0x3afceab6	0.0019296024
82	0x3d61ef87	0.05516007
83	0x3d0560b5	0.03256293
84	0x3d6f14e5	0.058369536
85	0x3d2bbf8d	0.041930724
86	0x3cb0bae1	0.021573486
87	0xbc25d7fa	-0.010122294
88	0xbcf0b311	-0.02938226
89	0x3aa4eaa2	0.0012582133
90	0x3ce35d57	0.027754469
91	0x3d7704cb	0.060307305
92	0xbc744818	-0.014909767
93	0x3b379580	0.0028012693
94	0x38e6d432	0.00011006779
95	0xbd5c044e	-0.053715043
96	0x3a2d927c	0.0006621254
97	0x3c5213fa	0.012822146
98	0x3d606e2c	0.054792568
99	0xbcf4f3ad	-0.02990135
100	0x3ced28f7	0.028950198
101	0x3cda5281	0.026650669
102	0xbc97b8b3	-0.018520689
103	0xbd52b8ea	-0.05144588
104	0x3d74d415	0.05977257
105	0x3da442d7	0.08020561
106	0x3cbfd59b	0.023417285
107	0x3d421aa7	0.0473887
108	0xbae7279b	-0.0017635705
109	0x3a9e711d	0.0012088154
110	0x3d278a72	0.040903516
111	0x3d44233a	0.047885157
112	0x3c4ce62d	0.01250605
113	0x3d6bd97f	0.057580467
114	0x3ccda6cd	0.02510395
115	0x3bb1d650	0.0054271594
116	0xbc91c4fb	-0.017794123
117	0x3d012c95	0.031536657
118	0x3d18d5ef	0.037313398
119	0x3d8ea7df	0.069656126
120	0x3d10f4f6	0.035389863
121	0xbc270f43	-0.01019651
122	0xbcf6dbdf	-0.03013414
123	0x3bf8b5d3	0.0075900345
124	0x3c1c789c	0.00955024
125	0xbd03f7c8	-0.032218724
126	0xbc5df252	-0.013546543
127	0x3cf64884	0.030063875
128	0x3c274588	0.010209449
129	0x3cf8f309	0.030389326
130	0x3d389ae7	0.0450696
131	0x3dabd696	0.083905384
132	0xbb89e443	-0.004208119
133	0xbcc71ec8	-0.02430667
134	0xbb39794a	-0.0028301054
135	0x3c10c1a8	0.008835234
136	0x3d487e61	0.04894865
137	0xbc0166ba	-0.007898027
138	0x3c0af8fa	0.008482212
139	0x3d0b314f	0.03398257
140	0x3d59f5b9	0.053212855
141	0x3d412354	0.047152832
142	0xbcfaba2c	-0.030606352
143	0xbd5ab05d	-0.05339085
144	0x3c1415c5	0.009038393
145	0xbd50701d	-0.05088817
146	0x3d0dcdfa	0.034620263
147	0x3d2caa54	0.042154625
148	0x3b8c00c0	0.0042725503
149	0x3dc184b9	0.09449143
150	0xbc552f31	-0.01301174
151	0x3c743a20	0.014906436
152	0x3d4e4aa1	0.05036414
153	0xbdc5c915	-0.09657494
154	0xbd82ae76	-0.06380932
155	0x3d14940c	0.036274
156	0xbb3518fa	-0.0027633295
157	0xbc52bab8	-0.0128619
158	0xbd216a17	-0.039407816
159	0xbce18b83	-0.027532345
160	0xbd20c668	-0.039251715
161	0xbdc8cc29	-0.098045655
162	0x3c323414	0.010876674
163	0x3d6988e6	0.057015322
164	0x3cec137d	0.028817886
165	0xbd618d0e	-0.05506616
166	0x3bf8c984	0.007592382
167	0x3d7515ac	0.05983512
168	0x3d6743e0	0.056461215
169	0xbb2c312d	-0.0026274428
170	0x3d384edc	0.04499708
171	0xbbb233d6	-0.005438308
172	0xbbe5e32a	-0.0070156055
173	0x3c16754d	0.00918324
174	0xbddfe6de	-0.10932706
175	0x3d912aea	0.07088263
176	0xbd2ffbbe	-0.04296469
177	0x3b3df732	0.0028986451
178	0xbd22e975	-0.039773423
179	0xbd56a117	-0.05239972
180	0xbd64d8e7	-0.055870917
181	0xbd192ba7	-0.037395146
182	0xba678f3c	-0.0008833294
183	0x3cb21772	0.021739695
184	0xbcc8de19	-0.024519967
185	0x3d31ffd8	0.043456882
186	0xbb2ae873	-0.0026078492
187	0x3c218fa5	0.009860908
188	0xbdb07039	-0.08615155
189	0x3d72a95c	0.059243545
190	0x3d1b986e	0.037987165
191	0xbbe2c929	-0.006920953
192	0xbcb6f22a	-0.02233227
193	0x3df7b60e	0.12095271
194	0xbc6db239	-0.014507824
195	0x3c3365c1	0.010949553
196	0xbd2ef743	-0.042716276
197	0x3c815674	0.015788294
198	0x3cee92c9	0.029122727
199	0x3d49096d	0.049081255
200	0xbd8c3a8e	-0.06847106
201	0x3de444b8	0.111459196
202	0xbdc9601e	-0.09832786
203	0xb8ad0d80	-8.2517974e-05
204	0xbcd88c0c	-0.026433967
205	0xbc20d5f9	-0.00981664
206	0x3d421063	0.04737891
207	0xbd0bbd8b	-0.03411631
208	0xbd887bed	-0.06664262
209	0x3d6da34a	0.058017053
210	0xbc3273d7	-0.010891876
211	0x3d2ce350	0.04220897
212	0x3b28dc18	0.0025765952
213	0xbca56476	-0.020189505
214	0x3cf8f61f	0.030390797
215	0x3bf4ee29	0.00747468
216	0x3ce7e8d2	0.02830926
217	0xba1d0196	-0.0005989311
218	0x3d07f990	0.033196986
219	0x3bc15adc	0.005900724
220	0x3d157c95	0.036495764
221	0x3c332277	0.01093351
222	0x3d2bbaa3	0.041926038
223	0xbc3563d9	-0.011071169
224	0x3ca92827	0.020649029
225	0x3d2efdd8	0.042722553
226	0x3db6538b	0.08902653
227	0xbcebf2d6	-0.028802317
228	0xbd6d8dd8	-0.0579966
229	0x3e06d723	0.13168006
230	0xbb524343	-0.0032083548
231	0x3c3438ed	0.0109999
232	0x3d5c207f	0.05374193
233	0x3beffb47	0.0073236558
234	0xbc7977b6	-0.015226295
235	0xbd5ed6b7	-0.054403987
236	0x3b60d9f7	0.0034309605
237	0x3c71a41c	0.014748599
238	0x3cdc06fb	0.026858797
239	0xbc5d8977	-0.013521544
240	0x3c8aa282	0.016923193
241	0x3c31a6ab	0.010842959
242	0xbcaa0dc0	-0.02075851
243	0xbd2b65a7	-0.04184499
244	0xbcb28529	-0.021792011
245	0x3d2688eb	0.04065792
246	0x3e184ca1	0.14872982
247	0x3e161f9b	0.14660494
248	0xbbdaa23e	-0.006672173
249	0x3bcba631	0.00621488
250	0x3ced980c	0.029003166
251	0x3d1624b5	0.0366561
252	0xbc6af3b2	-0.014340328
253	0x3d1425cc	0.03616886
254	0xbbd3a7ce	-0.006459213
255	0x3c73a5f2	0.014871107

encoder.fc1.weight f4 [3, 70]
0	0xbe17860d	-0.1479723
1	0x3e33e8ee	0.17569324
2	0x3dc149d5	0.094379105
3	0x3e5a0ee2	0.2129474
4	0x3e26a0fa	0.16272345
5	0x3e780bb3	0.24223213
6	0xbc2e085a	-0.010622108
7	0xbe44bec0	-0.1921339
8	0xbd4b84ce	-0.0496872
9	0xbe78bdeb	-0.24291198
10	0xbe92d8eb	-0.2868112
11	0x3e925326	0.28579062
12	0x3e9e24c4	0.30887425
13	0x3cb7154d	0.022349024
14	0x3d3bb239	0.045824263
15	0x3e087bf9	0.13328542
16	0x3e9bd3c6	0.30435008
17	0xbe20ee18	-0.15715826
18	0xbbe37186	-0.0069410233
19	0x3e0100b3	0.12597923
20	0x3e7a944e	0.24470636
21	0xbe19795d	-0.14987703
22	0xbe5255a2	-0.20540479
23	0xbe4b041d	-0.19825788
24	0x3dcd735b	0.10031768
25	0xbd15a5a5	-0.036534924
26	0xbd399412	-0.045307226
27	0xbe5624bb	-0.20912449
28	0x3df06be1	0.11739326
29	0x3d6d5296	0.05794009
30	0xbd8e9894	-0.06962696
31	0x3ca48dcc	0.020087145
32	0x3d6a9e28	0.057279736
33	0xbe99b8d4	-0.30023825
34	0xbd495d32	-0.049161144
35	0x3e816abb	0.2527674
36	0x3e9419dc	0.2892598
37	0xbeaf1966	-0.34199065
38	0xbe299b1b	-0.16563074
39	0xbe8b73fd	-0.2723693
40	0x3dd2aec5	0.10287241
41	0xbe9db3f9	-0.3080137
42	0x3e8f39a8	0.27973676
43	0xbc30031e	-0.010742931
44	0xbe52e6cb	-0.20595853
45	0x3e775430	0.24153209
46	0x3e2a1172	0.16608217
47	0x3ea0bc64	0.3139373
48	0x3e643f6b	0.22289817
49	0x3dcc4373	0.099738024
50	0x3e8fa67b	0.28056702
51	0xbe7c5132	-0.24640349
52	0x3c45ae40	0.01206547
53	0x3e7ce996	0.24698481
54	0xbe693ddb	-0.22777502
55	0x3e8221fe	0.2541656
56	0x3e9b2efa	0.30309278
57	0x3e092b1d	0.13395353
58	0xbe2fc8f6	-0.17166504
59	0x3e83ee53	0.25767764
60	0xbe13f7f9	-0.14450063
61	0xbe1fc8cf	-0.15603946
62	0xbe4d9cc3	-0.20079331
63	0xbe27e55e	-0.1639609
64	0x3d762d6c	0.06010191
65	0xbe19907b	-0.14996521
66	0x3e9f27a7	0.3108494
67	0xbe98b87a	-0.29828244
68	0xbd0c2f17	-0.034224596
69	0x3ddc2937	0.107500486
70	0xbdc6d489	-0.097085066
71	0xbe414410	-0.1887362
72	0x3e809819	0.2511604
73	0x3e5c5488	0.21516621
74	0xbe12fe94	-0.14354926
75	0xbde0da11	-0.10979093
76	0xbe6c4237	-0.23072134
77	0x3e8e7cd0	0.278296
78	0x3e4c86ea	0.1997334
79	0xbbc4809d	-0.005996777
80	0x3dee7bd6	0.116447136
81	0x3d8f935f	0.07010531
82	0xbe80966a	-0.25114757
83	0x3e34d193	0.17658071
84	0x3d44aa82	0.04801417
85	0xbe38e136	-0.18054661
86	0x3e234b91	0.15946795
87	0xbe8e27e1	-0.277648
88	0xbbc496e6	-0.005999434
89	0x3e2faccf	0.17155765
90	0x3e8f50d6	0.2799136
91	0xbe260bc2	-0.16215423
92	0xbd870b16	-0.06593911
93	0xbe78a2df	-0.2428088
94	0x3ce46614	0.027880706
95	0x3e554769	0.20828022
96	0x3e451283	0.19245343
97	0xbe413b6d	-0.18870325
98	0xbe1abc6a	-0.15110937
99	0xbde9784d	-0.11399899
100	0x3d40ae1f	0.047041055
101	0x3e6e0341	0.23243429
102	0x3e928789	0.2861903
103	0xbc2ceecd	-0.010554981
104	0x3e99fbd9	0.30074957
105	0xbe4e014c	-0.20117682
106	0x3eec002c	0.4609388
107	0xbde2d61d	-0.11075995
108	0x3e935d4f	0.28782126
109	0x3e206a89	0.1566564
110	0x3e71ac0f	0.23600791
111	0xbde9368a	-0.113873556
112	0xbe3c8540	-0.18410206
113	0xbdf37913	-0.118883274
114	0x3e8581f3	0.26075706
115	0x3ce34374	0.027742125
116	0x3e7ae636	0.24501881
117	0x3a9bda6e	0.0011890659
118	0x3e1726c6	0.14760885
119	0xbdc7929a	-0.09744759
120	0xbe7a4222	-0.2443929
121	0xbd036482	-0.032078274
122	0xbe343426	-0.17598018
123	0x3ddf307d	0.1089792
124	0x3e8dc954	0.27692664
125	0x3e4f400d	0.20239277
126	0x3e2b421c	0.16724437
127	0xbe908332	-0.28225094
128	0xbe7a10bc	-0.24420446
129	0xbe67a557	-0.22621666
130	0xbd9691e5	-0.07352046
131	0xbd6a6bca	-0.057231702
132	0x3e69bdec	0.22826356
133	0x39d7b280	0.00041140988
134	0x3db50b5f	0.088400595
135	0x3e46c31f	0.1941037
136	0xbe9826b1	-0.2971702
137	0x3e4c8dc2	0.19975951
138	0xbe1b00e2	-0.15137056
139	0xbea4728e	-0.32118648
140	0xbbad99bc	-0.0052978676
141	0x3e5a1219	0.21295966
142	0xbd84f10d	-0.06491289
143	0x3e07b184	0.1325131
144	0x3e6e58bf	0.23276041
145	0xbe06ba7b	-0.13157074
146	0x3d410aed	0.04712956
147	0xbcf68c07	-0.030096067
148	0xbe2b82d4	-0.16749126
149	0x3ea5a108	0.3234942
150	0xbd0f6a23	-0.03501333
151	0x3de2eb64	0.110800534
152	0x3ea0a109	0.3137286
153	0xbe5749e5	-0.21024282
154	0xbda47f57	-0.08032101
155	0x3d41a83a	0.047279574
156	0x3e3fe741	0.1874056
157	0x3d4f6827	0.050636437
158	0xbdd3d0ae	-0.10342537
159	0x3e54cf45	0.20782192
160	0xbe522368	-0.20521319
161	0xbe895d03	-0.26828775
162	0x3d99275d	0.07478211
163	0x3dc08ff6	0.09402458
164	0xbe8b47f3	-0.2720333
165	0x3cade9fd	0.021229738
166	0x3e7ac2fa	0.2448844
167	0x3e8442fa	0.2583235
168	0xbd840864	-0.06446913
169	0xbde4030b	-0.11133393
170	0x3e92106a	0.28528148
171	0x3da8c872	0.08241357
172	0xbe75153d	-0.23933883
173	0xbe85f0bb	-0.26160225
174	0x3e2009ef	0.1562879
175	0x3dbee487	0.09320932
176	0xbe8a4858	-0.2700832
177	0x3c6a007c	0.014282342
178	0x3da88393	0.08228221
179	0x3da88cdc	0.08229992
180	0xbe4f455a	-0.202413
181	0xbe303955	-0.1720937
182	0xbe4c0a22	-0.1992574
183	0x3e9b4fdb	0.30334362
184	0x3d9f25ed	0.07770906
185	0xbd950872	-0.072770014
186	0xbd61217b	-0.05496357
187	0x3e8689b4	0.26276934
188	0x3c6988f5	0.0142538445
189	0x3d723444	0.059131876
190	0xbe192e94	-0.14959174
191	0xbe705b38	-0.23472297
192	0xbe3f1a8f	-0.18662475
193	0x3de31281	0.11087514
194	0xbe7bd02c	-0.2459113
195	0xbd4501fd	-0.0480976
196	0xbe0ceadd	-0.13761468
197	0x3da10ae1	0.07863403
198	0x3e68669b	0.22695391
199	0xbddb72a4	-0.10715225
200	0x3dafcbce	0.085837945
201	0x3e0809ef	0.1328504
202	0xbe6e5f10	-0.23278451
203	0x3ca13c98	0.019682214
204	0x3d268a33	0.04065914
205	0xbec0eb51	-0.37679532
206	0x3e25adf9	0.16179647
207	0xbd7e94a5	-0.062153477
208	0x3e46feda	0.19433156
209	0x3c48fd25	0.012267386

encoder.fc1.bias f4 [3]
0	0x3d154a49	0.036447797
1	0xbd0c9359	-0.03432021
2	0x3d02e32b	0.031954926

decoder.LSTM.weight_ih_l0 f4 [280, 3]
0	0x3df31985	0.11870102
1	0xbd9e5321	-0.07730699
2	0x3d75b0e7	0.05998316
3	0x3d6e15eb	0.05812637
4	0x3e0e1f53	0.13879137
5	0x39a61ac9	0.00031681944
6	0xbcc52353	-0.024064695
7	0xbcce6f12	-0.025199447
8	0x3c0cb8bb	0.008588965
9	0xbdf6d030	-0.12051427
10	0x3b973d96	0.004615496
11	0xbdee8386	-0.1164618
12	0xbdcf2de2	-0.10116173
13	0x3d91bd99	0.07116241
14	0xbd0ed33b	-0.034869414
15	0x3dbc379e	0.09190296
16	0xbc7c86f6	-0.015413037
17	0x3e8aaa1e	0.27082914
18	0xbd831901	-0.064012535
19	0x3da550a9	0.08072025
20	0xbe025bf8	-0.12730396
21	0x3d8d6c95	0.06905476
22	0x3cca7473	0.02471373
23	0x3dce2ac1	0.100667484
24	0x3d0f1388	0.034930736
25	0xbdd5bf84	-0.10436919
26	0x3cfaee4b	0.030631205
27	0x3e19d56f	0.15022825
28	0xbdda91c9	-0.106723376
29	0x3dee4f98	0.11636275
30	0x3de573fb	0.11203762
31	0x3be88288	0.0070956387
32	0x3de485c1	0.11158324
33	0xbcbcb09f	-0.023033438
34	0x3d236902	0.039895065
35	0xbdc0c2b2	-0.09412135
36	0x3c9c5002	0.01908112
37	0x3d8874dd	0.06662915
38	0xbd777d7f	-0.060422417
39	0x3e023bf3	0.12718181
40	0xbe3f4958	-0.18680322
41	0xb9cb9871	-0.00038832755
42	0xbcf93d23	-0.03042466
43	0xbe1c1cf9	-0.15245427
44	0x3d81a45d	0.06330178
45	0x3cfeb9dc	0.031094484
46	0xbd758265	-0.059938807
47	0x3dad738a	0.08469303
48	0x3d2dd1a9	0.042436276
49	0x3de53e85	0.11193565
50	0x3e1350c8	0.14386284
51	0x3dc0c0f6	0.094118044
52	0xbdafc976	-0.085833475
53	0x3e27851e	0.16359374
54	0x3dbcb17a	0.092135385
55	0x3cab346c	0.02089902
56	0x3dd874e6	0.105691716
57	0x3e5ab46d	0.2135789
58	0xbd928938	-0.07155079
59	0x3c632a1a	0.013865018
60	0x3e0d3646	0.13790235
61	0x3daf552d	0.08561168
62	0xbd921804	-0.07133487
63	0x3dfb4c0a	0.12270363
64	0x3df83a11	0.1212045
65	0xbe207680	-0.15670204
66	0x3cd854b0	0.02640757
67	0x3ceebb24	0.02914197
68	0xbda62341	-0.08112193
69	0x3d6cfb44	0.057856813
70	0xbdefd520	-0.11710572
71	0x3da880b4	0.08227673
72	0xbd9e3af9	-0.07726092
73	0x3dc3ec84	0.09566596
74	0xbe06aa7e	-0.13150975
75	0xbdc614d0	-0.096719384
76	0xbc50a844	-0.01273543
77	0x3d883b9a	0.06651993
78	0x3db3e932	0.08784713
79	0xbd3eb942	-0.046563394
80	0xbd31ccd6	-0.043408237
81	0xbd7051b2	-0.05867166
82	0x3c82f838	0.0159875
83	0x3d4c3a2e	0.049860172
84	0x3db4ad61	0.08822132
85	0x3e1769b0	0.1478641
86	0x3e0459a3	0.12924819
87	0x3ec6a473	0.3879734
88	0xbe4f044e	-0.20216486
89	0x3ea8f9f1	0.3300319
90	0xbd17a312	-0.03702075
91	0xbcb71053	-0.022346651
92	0x3cb74896	0.022373479
93	0xbd4d92d1	-0.050188843
94	0x3d8bf08f	0.06832992
95	0xbd99488b	-0.074845396
96	0x3e57df88	0.21081364
97	0xbe2d0f1f	-0.169003
98	0xbc478128	-0.012176789
99	0x3ca750e9	0.020424323
100	0x3d0f0274	0.03491445
101	0xbd25b235	-0.040453155
102	0xbc350ac0	-0.011049926
103	0x3e1ce49b	0.15321581
104	0x3db21f35	0.086973585
105	0x3d08805f	0.03332555
106	0x3d8485ea	0.064708546
107	0x3d02d265	0.03193893
108	0xbe55fb9f	-0.20896767
109	0xbda43673	-0.08018198
110	0xbdbc7232	-0.092014685
111	0x3b0a254c	0.002107936
112	0x3bd104db	0.0063787526
113	0xbe1c2f24	-0.15252358
114	0x3e002da7	0.12517415
115	0x3c0bd5bb	0.008534844
116	0x3b40cc50	0.0029418655
117	0xbddd4aea	-0.10805304
118	0xbdaf4d7f	-0.08559703
119	0xbd767b0a	-0.060175933
120	0x3cd19322	0.025582854
121	0xbc192caf	-0.009349032
122	0xbdfca3a5	-0.123359
123	0xbdf5b663	-0.11997678
124	0xbdc499a1	-0.09599615
125	0x3d07eca8	0.033184677
126	0x3c9aca08	0.018895164
127	0xbe47ee13	-0.19524412
128	0x3dc7b0c0	0.09750509
129	0x3e5a238f	0.21302627
130	0xbe15f12e	-0.14642784
131	0x3e99b9b6	0.300245
132	0x3cb25f80	0.021774054
133	0x3d8ed9ed	0.0697516
134	0xbda71a1f	-0.08159279
135	0x3dada0cc	0.08477935
136	0xbd186fe1	-0.03721607
137	0xbddbe7de	-0.107375845
138	0xbdcbd8bc	-0.09953448
139	0x3d0c9ac9	0.034327302
140	0x3dea34f6	0.11435883
141	0xbc2d4046	-0.010574406
142	0xbddf118f	-0.10892021
143	0xbc478b21	-0.012179167
144	0x3e297f52	0.16552475
145	0x3e08eb7c	0.1337108
146	0x3da406c0	0.080091
147	0xbd84c98e	-0.06483756
148	0x3d704c59	0.05866656
149	0xbbcc2910	-0.006230481
150	0x3e0fa81b	0.14028971
151	0xbd629457	-0.05531725
152	0xbb23b1fa	-0.0024977908
153	0xbdea8b22	-0.11452319
154	0x3e4af01a	0.19818154
155	0x3dedb91d	0.11607573
156	0x3d0a5d5b	0.033780437
157	0xbe23216d	-0.1593072
158	0x3e540fad	0.20709105
159	0xbdb02739	-0.08601231
160	0x3df3aa30	0.11897695
161	0x3e178f1a	0.14800683
162	0x3d837f93	0.06420817
163	0x3dda88f6	0.106706545
164	0x3dd3f1ec	0.10348877
165	0x3cf5ff5e	0.030028995
166	0x3d442103	0.047883045
167	0x3d86fadf	0.065908186
168	0xbe01dd34	-0.12682039
169	0xbe05ef76	-0.13079628
170	0x3d20b73e	0.039237253
171	0x3df9569e	0.12174724
172	0xbdc0835b	-0.09400054
173	0x3d33d5ed	0.043905187
174	0x3e1c51af	0.15265535
175	0xbe0e9a38	-0.13926017
176	0x3dcb806c	0.09936604
177	0x3d820665	0.06348876
178	0xbce56df6	-0.028006535
179	0x3dbc0cd3	0.091821335
180	0xbd614bb8	-0.05500385
181	0xbe613633	-0.21993332
182	0x3d6cc304	0.05780317
183	0xbd388c21	-0.045055512
184	0xbc9b84b3	-0.018984174
185	0x3e1bf5ef	0.15230535
186	0x3deb33f8	0.114845216
187	0x3bfe95af	0.0077693085
188	0x3e0730cb	0.13202207
189	0x3dfb76b1	0.12278498
190	0xbc39010f	-0.011291756
191	0xbd8c378c	-0.06846532
192	0x3cbae2a0	0.022813141
193	0xbdd7291a	-0.105058864
194	0xbdd469d5	-0.10371748
195	0x3e8e74b6	0.27823418
196	0xbe08ac56	-0.13346991
197	0x3d0337bc	0.032035574
198	0x3ddddd2c	0.10833201
199	0x3cab5dbe	0.020918723
200	0x3df7149c	0.12064478
201	0x3df9f4ed	0.12204919
202	0x3d784619	0.060613725
203	0x3d8771bb	0.06613489
204	0xbdc870cf	-0.097871415
205	0x3d8236c6	0.063581035
206	0xbde773e4	-0.11301401
207	0x3d5d2cf9	0.053997967
208	0x3d89fca1	0.06737638
209	0x3c168f32	0.009189414
210	0x3e2b7897	0.1674522
211	0xbe1ed23c	-0.15509886
212	0x3e387266	0.1801239
213	0x3e44762b	0.19185703
214	0xbb4fe5f0	-0.0031722747
215	0xbd2dd636	-0.042440616
216	0xbcd38815	-0.025821725
217	0x3d14b23c	0.03630279
218	0x3e2f8a25	0.17142542
219	0x3c627ce5	0.0138237225
220	0x3c655e2b	0.013999502
221	0xbdcdce7c	-0.100491494
222	0x3e015712	0.12630871
223	0x3cc763ed	0.02433964
224	0xbd9502fc	-0.0727596
225	0xbdd42a2a	-0.10359605
226	0x3e10f9af	0.14157747
227	0xbd505c37	-0.050869193
228	0xbab72bb4	-0.0013974817
229	0x3ddd0eb4	0.1079382
230	0x3e1220e6	0.14270362
231	0x3e3ee1b1	0.18640782
232	0xbdc45847	-0.0958715
233	0x3db0dc44	0.08635762
234	0xbe2149bc	-0.15750784
235	0xbdd0e5d5	-0.10200087
236	0xbdfcd1dc	-0.12344715
237	0xbafad284	-0.0019136225
238	0x3db618fb	0.088914834
239	0xbd03e9a2	-0.03220523
240	0x3cfbcc1a	0.030736972
241	0x3e0c0a66	0.13675842
242	0x3d8beeaf	0.06832635
243	0x3e49f7c3	0.1972342
244	0xbe14bca7	-0.1452509
245	0xbdb4b164	-0.08822897
246	0xbe270c57	-0.16313301
247	0x3df85995	0.121264614
248	0xbde10bed	-0.10988603
249	0xbe3a6049	-0.18200792
250	0x3cf58b01	0.029973509
251	0xbe5eec1b	-0.21769755
252	0x3cbe4220	0.02322489
253	0xbe17bc15	-0.14817841
254	0x3deb180b	0.11479195
255	0xbc0924ef	-0.008370622

decoder.LSTM.weight_hh_l0 f4 [280, 70]
0	0x3d03ea8e	0.03220611
1	0x3d72ffd2	0.059326
2	0xbd3419a2	-0.043969758
3	0xbdcb5c1e	-0.09929679
4	0x3c02e077	0.007988087
5	0x3c39a17b	0.011330004
6	0xbd8f5ca7	-0.07000094
7	0xbd1d110a	-0.038346328
8	0x3d42c8ee	0.047554903
9	0xbdde27f6	-0.10847466
10	0xbd151818	-0.03639993
11	0xbcfe68a8	-0.031055763
12	0x3d03c4ac	0.032169983
13	0xbd861d66	-0.06548576
14	0x3d9589dd	0.07301686
15	0xbdcd81f2	-0.10034551
16	0xbde17427	-0.110084824
17	0xbd10f918	-0.035393804
18	0x3d3d2dfc	0.046186432
19	0xbde29302	-0.11063196
20	0x3d944d77	0.07241338
21	0x3d66bb60	0.05633104
22	0xbdcccd1b	-0.10000058
23	0x3e5bba68	0.21457827
24	0xbdf3d598	-0.11905974
25	0xbdf5a08b	-0.11993512
26	0xbe54cc07	-0.20780955
27	0xbe595d4d	-0.21226998
28	0xbd0a9143	-0.03382994
29	0x3e0d18b7	0.13778959
30	0xbe0af59f	-0.1357026
31	0x3ba7ee13	0.005124816
32	0x3d028479	0.031864617
33	0xbd194d01	-0.037426952
34	0x3d6e42cd	0.058169175
35	0xbd17a866	-0.03702583
36	0xbe0dbe54	-0.13842136
37	0x3db97c9f	0.09056973
38	0x3d1b1ed6	0.037871204
39	0x3d304e4f	0.04304343
40	0xbcab433a	-0.02090608
41	0xbde7d96d	-0.113207676
42	0xbd494c7c	-0.049145207
43	0x3e34065b	0.1758055
44	0xbc17b798	-0.009260081
45	0xbdad2f81	-0.08456326
46	0x3da2eb70	0.079550624
47	0xbe085f1e	-0.13317534
48	0xbd83cb88	-0.06435305
49	0x3d262cd4	0.040570095
50	0x3e1bdaf2	0.1522024
51	0xbd885ef4	-0.06658736
52	0xbadfcde5	-0.0017074911
53	0xbcff0493	-0.03113011
54	0x3d0412d6	0.032244526
55	0x3d57f8b6	0.052727424
56	0x3d95591c	0.07292387
57	0x3da84902	0.0821705
58	0xbdb50353	-0.08838525
59	0xbbf5212a	-0.00748076
60	0x3da37e50	0.079830766
61	0x3d877998	0.06614989
62	0x3d19ea42	0.03757692
63	0xbe238646	-0.1596919
64	0xbde1c915	-0.110246815
65	0xbd9429d2	-0.07234539
66	0x3c7511ca	0.0149578545
67	0xbba66690	-0.0050781444
68	0xbce47e84	-0.027892359
69	0x3d94fe29	0.0727504
70	0x3e17d255	0.14826329
71	0xbebbe3b8	-0.36697173
72	0x3ddb835f	0.107184164
73	0xbda0b9b7	-0.07847922
74	0x3d3a6a5d	0.045511592
75	0x3d21c45d	0.039493907
76	0xbd977b20	-0.07396531
77	0xbc25d4d1	-0.01012154
78	0xbe215a2c	-0.15757054
79	0x3ccf8006	0.025329601
80	0x3ecdd71f	0.40203187
81	0x3c559a32	0.013037251
82	0x3e835e01	0.25657657
83	0xbb9a3e78	-0.004707154
84	0xbe28e4ab	-0.1649348
85	0x3cee5020	0.029090941
86	0x3f0a21ec	0.5395801
87	0x3d084899	0.03327236
88	0xbdc1f0c0	-0.094697475
89	0xbc1b0a98	-0.009462975
90	0x3e54c011	0.20776393
91	0xbd901e26	-0.07037
92	0xbde1d833	-0.11027565
93	0xbd2eaab0	-0.04264325
94	0x3d9c26dc	0.07624599
95	0xbda82101	-0.0820942
96	0x3e419e0d	0.18907948
97	0x3ed57e1f	0.41697785
98	0xbd748d99	-0.05970535
99	0xbdcfb645	-0.10142187
100	0x3d7360ea	0.059418596
101	0xbe020096	-0.12695536
102	0xbe3aa193	-0.18225698
103	0xbdc706f9	-0.09718127
104	0x3e848bae	0.25887817
105	0xbe536efc	-0.20647806
106	0xbdbd8334	-0.09253541
107	0xbda4b0ed	-0.080415584
108	0x3d8ebcd4	0.0696961
109	0xbe8857e3	-0.26629552
110	0x3c8c34e4	0.017115064
111	0x3da516d1	0.080609925
112	0xbda99d29	-0.08281929
113	0xbcba038d	-0.022706771
114	0x3e311818	0.17294347
115	0xbdbfd8f5	-0.09367553
116	0x3d964981	0.073382385
117	0xbd357fb4	-0.04431124
118	0x3ea694bd	0.32535353
119	0xbab11a82	-0.0013511928
120	0xbd8b9de9	-0.06817228
121	0xbce7ead1	-0.028310211
122	0x3daf172c	0.085493416
123	0xbe83ba49	-0.25728062
124	0x3d9c2f99	0.07626266
125	0xbdfe1e99	-0.1240818
126	0xbbbf98c1	-0.005847067
127	0xbd068650	-0.032842934
128	0x3d19aeeb	0.03752033
129	0xbdfaf721	-0.12254167
130	0xbdfa050a	-0.122079924
131	0xbe045688	-0.12923634
132	0xbd958685	-0.07301048
133	0xbe26e77d	-0.16299243
134	0xbec829b1	-0.39094308
135	0x3eca282c	0.39483774
136	0x3d236b7c	0.039897427
137	0x3e6ac8b4	0.22928125
138	0xbd9cbc51	-0.07653106
139	0x3d6666bc	0.05625032
140	0x3d932f6f	0.071867816
141	0xbe5a9ffb	-0.2135009
142	0xbdd640ce	-0.10461579
143	0x3d563edd	0.052306045
144	0x3a38a9a8	0.0007044324
145	0xbdcb8b79	-0.09938712
146	0x3c9ff896	0.019527715
147	0xbb8e0de1	-0.0043351506
148	0xbd36c092	-0.044617243
149	0xbe4b9d70	-0.19884276
150	0x3e20368c	0.15645808
151	0xbde7fc58	-0.113274276
152	0xbd774016	-0.06036385
153	0xbdf0ea17	-0.11763399
154	0xbda5934a	-0.08084734
155	0xbe5eeceb	-0.21770065
156	0x3e25ea60	0.16202688
157	0x3e09b33e	0.13447282
158	0x3d6d9ad2	0.058008976
159	0x3df06720	0.117384195
160	0xbd8134e8	-0.06308919
161	0xbdac0a3d	-0.0840039
162	0x3d0134b9	0.03154442
163	0x3b755b10	0.003743831
164	0xbd0f56e3	-0.03499497
165	0x3dd4a20d	0.10382471
166	0x3db28cf6	0.087182924
167	0x3e1f03c1	0.15528776
168	0xbd849d44	-0.064753085
169	0x3e157989	0.14597143
170	0x3dca704d	0.09884701
171	0x3e310d85	0.17290314
172	0xbc82db5e	-0.015973743
173	0x3db6af8f	0.08920204
174	0xbe1e20f6	-0.15442261
175	0xbd39780e	-0.04528051
176	0xbc266a1d	-0.010157135
177	0xbd07fe7f	-0.03320169
178	0x3daf7d66	0.0856884
179	0xbe080289	-0.13282217
180	0xbcdb40a8	-0.026764229
181	0x3bc2e820	0.0059480816
182	0x3d695201	0.05696297
183	0xbd166a8b	-0.0367227
184	0xbc3fb85c	-0.01170167
185	0x3e09ca02	0.13455966
186	0x3e28a038	0.16467369
187	0xbce3573d	-0.02775156
188	0x3e50cc07	0.2039033
189	0xbdd5d95c	-0.10441849
190	0xbe72bcee	-0.23704883
191	0x3c88a219	0.016678857
192	0xbb2c3477	-0.0026276389
193	0xbe210c0b	-0.1572725
194	0xbc6e20fb	-0.01453423
195	0xbc74f67f	-0.014951347
196	0xbc917b7e	-0.017759081
197	0x3d5aa6c1	0.053381685
198	0x3ddd11af	0.107943885
199	0x3ce21fa5	0.02760298
200	0xbcbfc636	-0.023409944
201	0xbd0a522b	-0.033769768
202	0xbdc7e6f4	-0.09760848
203	0xbdff6eaa	-0.12472279
204	0xbe96ed39	-0.29477862
205	0x3be7edb7	0.0070778984
206	0x3c795d94	0.015220065
207	0x3d7a77af	0.061149295
208	0xbceda653	-0.029009974
209	0xbe28eb18	-0.16495931
210	0xbce5882c	-0.028019033
211	0xbd30e173	-0.043183755
212	0x3bb26b10	0.0054448918
213	0x3d7dba0b	0.061945003
214	0xbdcbca89	-0.0995074
215	0xbc94913a	-0.018135656
216	0x3d6c69d7	0.057718124
217	0x3e3c06fe	0.18362042
218	0xbe0e4a28	-0.13895476
219	0xbda40929	-0.0800956
220	0x3d2a2696	0.041540705
221	0x3cbaddc0	0.022810817
222	0xbd3cf11a	-0.04612837
223	0xbe0bee15	-0.1366504
224	0xbce7af5d	-0.028281862
225	0xbccd88f0	-0.025089711
226	0x3df6d0c9	0.12051541
227	0x3d072bd3	0.03300078
228	0x3d1b9ed7	0.03799328
229	0x3d63a438	0.055576533
230	0x3dd08a11	0.10182584
231	0x3e01805a	0.12646618
232	0x3d637580	0.05553198
233	0xbd89b086	-0.06723122
234	0xbdaf2cc8	-0.08553463
235	0xb9fb1a70	-0.00047894148
236	0x3e0712a5	0.13190706
237	0x3dd530cc	0.10409698
238	0xbdfeb1bd	-0.12436245
239	0xbe06c708	-0.13161862
240	0x3dca8637	0.09888881
241	0xbde16bf4	-0.110069185
242	0xbd9c695c	-0.07637283
243	0x3d0b9bd8	0.03408417
244	0xbcfe52f5	-0.031045416
245	0xbd88ba7d	-0.06676195
246	0x3cac62b7	0.021043165
247	0xbde91e52	-0.11382736
248	0xbdd8576d	-0.1056355
249	0xbd0df255	-0.034654934
250	0xbe0c741d	-0.13716169
251	0x3d17f1cb	0.037095826
252	0x3b2de749	0.0026535562
253	0xbcfe4000	-0.031036377
254	0x3d3d7512	0.046254225
255	0xbd549187	-0.0518966
