Weights/model_best_LSTM_Spatial_Salinity_AC_interpol_(1500-3000)_(7500-8500).pth.tar (torch, 514074 bytes, 33 tensors)

encoder.LSTM.weight_ih_l0 f4 [280, 1]
0	0xbdd4508a	-0.10366924
1	0x3df0f837	0.11766093
2	0xbc466d4e	-0.012111021
3	0x3c8c4580	0.017122984
4	0x3d47c6a7	0.048773434
5	0x3d29c4f9	0.041447613
6	0x3d87e389	0.06635196
7	0xbb1f8993	-0.0024343475
8	0xbd0623b0	-0.032748878
9	0x3dfc1580	0.12308788
10	0x3d87da32	0.06633414
11	0x3e0a4ffe	0.13507077
12	0xbce366c8	-0.02775897
13	0xbd1c3f5d	-0.038146365
14	0xbd80cf72	-0.06289567
15	0x3e097236	0.13422474
16	0x3db44fa4	0.08804253
17	0xbe3201e1	-0.17383529
18	0x3c92c22d	0.017914856
19	0xbd9f495d	-0.07777665
20	0xbdcda903	-0.10042002
21	0xbd6f6a7a	-0.058451153
22	0x3d1c137c	0.03810452
23	0xbb6018ac	-0.0034194393
24	0x3dc6b335	0.0970215
25	0x3d196480	0.03744936
26	0xbcd25b52	-0.02567831
27	0xbb28cde4	-0.0025757486
28	0x3e01a501	0.126606
29	0x3dce1894	0.10063282
30	0x3dc000b3	0.09375133
31	0xbdbd0e50	-0.092312455
32	0xbd4e7e77	-0.050413575
33	0x3cd00c0c	0.02539637
34	0x3d040fd2	0.03224165
35	0x3dcb9e56	0.099423096
36	0x3ddf365c	0.1089904
37	0x3ccb2e14	0.024802245
38	0x3ae1fb67	0.0017241061
39	0xbd802928	-0.0625785
40	0x3b53f821	0.0032343941
41	0xbbf0fec0	-0.0073545873
42	0x3b9a26c6	0.004704329
43	0x3dab8b77	0.0837621
44	0xbdddc68c	-0.108288854
45	0x3cd7c221	0.026337685
46	0xbda56e5b	-0.08077689
47	0x3ddb94bc	0.10721728
48	0xbd15a9f4	-0.036539033
49	0xbdc41438	-0.09574169
50	0xba977970	-0.0011556577
51	0xbe0a5d4a	-0.1351215
52	0x3bdfb488	0.006826941
53	0xbd26a8cf	-0.040688332
54	0x3ca57036	0.020195108
55	0xbd9cb838	-0.076523244
56	0xbd73d41a	-0.059528448
57	0xbd4a0311	-0.04931933
58	0xbe04a1ff	-0.12952422
59	0xbde280ce	-0.11059724
60	0x3e13a35d	0.14417787
61	0x3bbb44b5	0.0057149776
62	0xbd72c668	-0.059271246
63	0xbb3b6087	-0.002859147
64	0xbdbaf5b1	-0.09128893
65	0x3cd8507c	0.026405565
66	0xbd75e9eb	-0.060037535
67	0x3d63e642	0.055639513
68	0x3dc20dd9	0.094752975
69	0x3d726196	0.059175096
70	0xbd9c3ada	-0.076284125
71	0xbd177669	-0.03697816
72	0x3d787b76	0.060664617
73	0x3dbba8a4	0.09163025
74	0xbd41619d	-0.047212232
75	0xbc8640e5	-0.016388366
76	0x3e2299f8	0.15879047
77	0x3dc08ad0	0.094014764
78	0x3df1b6d9	0.118024535
79	0xbc87bf48	-0.016570702
80	0x3d342db1	0.043988887
81	0xbde62a17	-0.11238497
82	0xbc7bad73	-0.015361178
83	0xbda79914	-0.08183494
84	0xbd618ad0	-0.055064023
85	0xbdbf4efd	-0.09341238
86	0xbc7d16a8	-0.015447296
87	0xbe19f131	-0.15033413
88	0xbe3db5b8	-0.18526351
89	0xbcb31f0e	-0.021865394
90	0x3dd468fe	0.10371588
91	0xbdc4c445	-0.09607748
92	0xbdab730f	-0.08371555
93	0x3d852cb8	0.0650267
94	0xbd0997a2	-0.033591874
95	0x3c941c94	0.018080033
96	0x3dc1395e	0.0943477
97	0xbde0f08a	-0.10983379
98	0x3e051e90	0.1299994
99	0xbb953271	-0.004553132
100	0x3d9ab93e	0.075548634
101	0x3cfd5794	0.03092555
102	0xbe2c7727	-0.16842328
103	0x3e117359	0.14204158
104	0x3e24c3ee	0.16090366
105	0x3dfb3d0d	0.12267504
106	0x3e032e0d	0.12810536
107	0x3db076d1	0.086164124
108	0x3b857e4d	0.004073894
109	0x3dc6293a	0.09675832
110	0x3e09ed2f	0.13469385
111	0x3daa4bc0	0.083152294
112	0x3d71f0fe	0.05906772
113	0x3e0e3d8c	0.13890666
114	0xba78cebb	-0.00094912545
115	0x3d646043	0.055755865
116	0x3e03487d	0.12820621
117	0xbd19a89b	-0.03751431
118	0x3dbe402f	0.09289586
119	0x3e3fe0c1	0.1873808
120	0xbcc35078	-0.023842081
121	0xbd89ba4d	-0.06724987
122	0xbd71656f	-0.058934625
123	0x3df51226	0.11966352
124	0x3e1a393a	0.15060893
125	0xbd8bfa78	-0.068348825
126	0x3dca75f5	0.0988578
127	0x3c5cfe59	0.013488376
128	0xbe07838f	-0.1323378
129	0x3e04c894	0.1296714
130	0xbcb166e2	-0.021655504
131	0xbd29f91b	-0.04149733
132	0xbd0cb4b2	-0.034352012
133	0xbd14148c	-0.036152408
134	0x3e05b9ab	0.13059108
135	0xbd73a575	-0.059483964
136	0x3c625120	0.013813287
137	0x3d163d0d	0.036679316
138	0x3e13a4e3	0.14418368
139	0x3e08060b	0.13283555
140	0xbd882cd3	-0.066491745
141	0xbdcca257	-0.09991901
142	0xbe014fe1	-0.12628128
143	0x3eddc136	0.4331147
144	0xbe082e87	-0.13298999
145	0x3e0c9b06	0.13731012
146	0x3db77daa	0.089595154
147	0x3e1556bd	0.1458387
148	0xbd937dbd	-0.07201717
149	0x3d8c296d	0.06843839
150	0xbd25c885	-0.040474433
151	0xbdf85475	-0.12125484
152	0x3c99e993	0.018788135
153	0xbdfd5722	-0.12370135
154	0xbdbd9601	-0.092571266
155	0x3c351926	0.011053359
156	0x3ddf4463	0.109017156
157	0x3e14ada9	0.14519371
158	0x3cc5fa4d	0.024167204
159	0xbda1c04d	-0.078980066
160	0x3dfc4297	0.123173885
161	0xbd70cf7c	-0.058791623
162	0x3dd8b1a5	0.10580758
163	0xbd84b9aa	-0.06480725
164	0xbcf01744	-0.029307969
165	0x3db9ec66	0.090782925
166	0xbd830141	-0.063967235
167	0xbe044ccf	-0.12919925
168	0x3daa3b90	0.08312142
169	0x3d1b9990	0.037988245
170	0x3c6abca6	0.014327204
171	0x3e11df3e	0.14245316
172	0xbdb25996	-0.087084934
173	0x3d848225	0.064701356
174	0x3d4f75d6	0.050649486
175	0xbbbd2bb0	-0.00577303
176	0x3c90ca82	0.017674688
177	0xbbd3f59c	-0.006468488
178	0x3d72695e	0.059182517
179	0xbdc851c7	-0.09781223
180	0xbda86f3b	-0.082243405
181	0xbd00fbd9	-0.03149018
182	0x3e37c9fa	0.17948142
183	0xbe073ef3	-0.13207607
184	0xbdeb033b	-0.114752255
185	0xbe0b4853	-0.13601808
186	0xbd26c644	-0.040716425
187	0x3c1b6baa	0.009486118
188	0xbd4ad8fc	-0.04952334
189	0x3ddafa55	0.10692278
190	0xbd07be2e	-0.033140354
191	0x3dff8393	0.12476268
192	0x3e118766	0.14211807
193	0x3e7bd3ce	0.24592516
194	0x3e2888c1	0.16458417
195	0xbe0ab843	-0.13546853
196	0x3d818cfd	0.063257195
197	0xbda992f0	-0.08279979
198	0x3de4346a	0.1114281
199	0x3d2a9a79	0.041651223
200	0x3db333ea	0.08750136
201	0x3d964312	0.073370114
202	0x3e0a6286	0.13514146
203	0xbe33b993	-0.1755126
204	0x3db119f2	0.08647527
205	0xbe4e731b	-0.20161097
206	0x3c6080a6	0.013702547
207	0x3ce9b2c7	0.02852763
208	0x3ec8c789	0.39214733
209	0xbd134721	-0.035956506
210	0xbc6ac91b	-0.014330174
211	0x3d9e34bb	0.07724901
212	0xbe0f81f6	-0.1401442
213	0x3cc110b3	0.023567533
214	0xbccba567	-0.024859143
215	0xbda24728	-0.07923728
216	0x3e301d0f	0.17198585
217	0x3e703890	0.23459077
218	0x3cca1221	0.024666848
219	0x3da10cf8	0.07863802
220	0x3da1b5fc	0.07896039
221	0x3d0426a3	0.03226341
222	0xbd5c1f73	-0.05374093
223	0xbe1a8c0b	-0.15092485
224	0x3e2b46e1	0.16726257
225	0x3c6d9557	0.014500937
226	0x3de4b41f	0.11167168
227	0xbc134ef6	-0.008990994
228	0xbd9bf749	-0.07615525
229	0x3deb5c83	0.114922546
230	0x3e6df7ab	0.23239009
231	0x3d2bce62	0.04194487
232	0xbe7edb46	-0.24888334
233	0x3da6ba66	0.081410214
234	0xbe66d958	-0.22543848
235	0xbe290bf2	-0.16508463
236	0x3e06bc54	0.13157779
237	0x3e03d701	0.12874986
238	0xbd540d42	-0.051770456
239	0x3c8933f1	0.0167484
240	0x3af60ef2	0.0018772765
241	0x3d3b9399	0.045795057
242	0xbe697ca8	-0.22801459
243	0x3e44b4b5	0.1920956
244	0x3e319295	0.17341073
245	0x3e8abfa7	0.27099344
246	0x3dec25de	0.1153066
247	0x3e3f3b73	0.18675022
248	0x3e1a3492	0.15059116
249	0x3dedb582	0.116068855
250	0xbce9ba30	-0.028531164
251	0xbdaa82c4	-0.08325723
252	0x3e00c41d	0.12574811
253	0x3c031371	0.008000241
254	0x3d1cf48f	0.038319167
255	0xbc86b2e7	-0.01644273

encoder.LSTM.weight_hh_l0 f4 [280, 70]
0	0x3d6d2d7e	0.057904713
1	0xbe06403d	-0.13110442
2	0xbcb9d856	-0.022686165
3	0x3cfaab2e	0.030599203
4	0x3d723c62	0.059139617
5	0xbbf42967	-0.0074512246
6	0x3dcef4a9	0.10105259
7	0x3da97c21	0.08275629
8	0xbd99aba3	-0.0750344
9	0x3de26c96	0.110558674
10	0xbd8dcd54	-0.06923929
11	0xbb3a435d	-0.00284215
12	0x3e097de2	0.13426927
13	0xbdf8b910	-0.12144673
14	0xbc6766ab	-0.014123599
15	0x3d9e71d8	0.07736558
16	0x3e0744aa	0.13209787
17	0x3b3ca6a2	0.0028785844
18	0x3aeb236f	0.0017939637
19	0x3b1bdc78	0.0023782533
20	0x3d4217b6	0.047385894
21	0xbd755daf	-0.059903797
22	0xbb31fbc9	-0.0027158132
23	0x3e164fae	0.14678833
24	0xbd7b8def	-0.061414655
25	0xbc0c26ab	-0.008554141
26	0xbe0ba27f	-0.13636206
27	0x3d69a26d	0.057039667
28	0xbd8d6e7e	-0.0690584
29	0x3cd7d8c6	0.026348483
30	0x3cabd5c0	0.020975947
31	0x3d68648b	0.05673651
32	0xbddea60e	-0.10871516
33	0x3ae0b5bc	0.0017144005
34	0x3dfb59ad	0.12272964
35	0x3d4c4cae	0.049877815
36	0xbd89aac9	-0.06722028
37	0xbdf551df	-0.11978506
38	0x3db0240d	0.08600626
39	0xbd2dadf6	-0.04240223
40	0xbd744f6a	-0.059646048
41	0xbbc2b9d3	-0.005942562
42	0x3b48a224	0.0030614221
43	0x3d499d3b	0.049222212
44	0x3d2533d5	0.040332634
45	0xbdeb7e5d	-0.11498711
46	0x3ced294f	0.028950362
47	0xbd2b74be	-0.04185938
48	0x3d69a95b	0.057046276
49	0xbd59762b	-0.05309121
50	0x3ce55418	0.0279942
51	0xbd63c153	-0.05560429
52	0x3dd1294c	0.10212955
53	0xbd136276	-0.03598257
54	0x3c710101	0.014709712
55	0x3bcafa36	0.0061943782
56	0xbc561ef3	-0.013068902
57	0xbd95adf1	-0.07308567
58	0xbcebc367	-0.028779699
59	0x3ce5651a	0.02800231
60	0x3d6f3e9b	0.058409315
61	0x3c5ca156	0.0134662
62	0x3a8215f2	0.0009924753
63	0x3af0976c	0.0018355674
64	0x3d8b7051	0.06808532
65	0x3cc9b6a4	0.024623223
66	0xbc5e9dbd	-0.013587412
67	0xbadec991	-0.0016997327
68	0xbb5e1415	-0.0033886482
69	0xbc0e7935	-0.00869589
70	0xbd2029c5	-0.039102335
71	0xbdfec642	-0.124401584
72	0x3ce46e9a	0.02788477
73	0x3da973e0	0.082740545
74	0xbd3aa0f6	-0.04556366
75	0x3c362b35	0.0111187
76	0x3d43eb21	0.04783166
77	0x3d275bca	0.04085902
78	0xbdff7b76	-0.1247472
79	0x3dff3af0	0.12462413
80	0x3b83b952	0.0040198946
81	0x3d43f31c	0.04783927
82	0xbd6797b8	-0.056541175
83	0xbda93c48	-0.08263451
84	0x3bbbf9bb	0.0057365573
85	0x3dbd9d99	0.09258575
86	0xbcc62fad	-0.024192655
87	0x3acd51b9	0.0015664614
88	0x3ce13fae	0.027496185
89	0xbc6a490b	-0.014299641
90	0x3d3264fa	0.04355333
91	0x3d0f73a7	0.035022404
92	0xbd511f91	-0.051055495
93	0xbd35318a	-0.044236697
94	0xbd358a30	-0.04432124
95	0xbd0d9029	-0.03456131
96	0xbc68735a	-0.014187658
97	0xbc193de3	-0.009353134
98	0xbd83bba2	-0.064322725
99	0xbdc0a4f4	-0.09406462
100	0x3d94580f	0.07243358
101	0x3dd32802	0.10310365
102	0xbcf0677b	-0.029346218
103	0x3ca992dc	0.02069991
104	0x3c1a826d	0.00943051
105	0x3d6f9aa4	0.058497086
106	0xbd825fe0	-0.06365943
107	0xbdbbfd0e	-0.09179126
108	0xbca36c8b	-0.019949218
109	0x3d17ab31	0.037028495
110	0xbdabc431	-0.0838703
111	0xbdbc8077	-0.0920419
112	0x3dc635e0	0.096782446
113	0xbc0ae1b5	-0.008476664
114	0xbd9d9237	-0.07693904
115	0xbd9a6508	-0.075388014
116	0x3cef300a	0.029197711
117	0xbdef2119	-0.11676235
118	0x3d6ba84c	0.057533547
119	0x3dc58f68	0.09646493
120	0xbdf51dca	-0.119685724
121	0xbd2314e3	-0.03981484
122	0x3d73a97c	0.059487805
123	0xbc95eef3	-0.018302416
124	0x3c85e867	0.01634617
125	0xbd0f1fda	-0.034942485
126	0xbd2b3623	-0.041799676
127	0xbdea1c3a	-0.11431165
128	0x3dc6aa18	0.097004116
129	0xbd626275	-0.055269677
130	0x3ddc4e1e	0.10757087
131	0xbba4cc2a	-0.005029221
132	0x3b22269a	0.0024742247
133	0xbac84726	-0.0015279993
134	0x3bbd7c60	0.005782649
135	0xbbbb2fdf	-0.005712494
136	0xbcbf428d	-0.023347164
137	0xbd38613f	-0.045014616
138	0x3cbf8154	0.023377098
139	0xbdf4084b	-0.11915644
140	0xbd854012	-0.06506361
141	0xbd98f2d5	-0.074681915
142	0xbd3473e1	-0.044055823
143	0xbd8e68db	-0.06953593
144	0xbd1f4c04	-0.038890854
145	0xbb73a347	-0.0037176178
146	0xb8bf77dd	-9.129916e-05
147	0xbc9148fc	-0.017734997
148	0xbdeb08ab	-0.11476263
149	0x3d34db36	0.04415437
150	0xbdb22d56	-0.087000534
151	0x3d1d2a62	0.038370498
152	0x3d880acd	0.06642685
153	0xbd4ea03a	-0.050445773
154	0x3b4bf833	0.003112328
155	0x3bffd55c	0.007807417
156	0x3d9affa2	0.07568289
157	0xbaaa6758	-0.001300077
158	0xbd8da7d3	-0.069167756
159	0x3cd8303f	0.026390193
160	0x3d8789a6	0.06618051
161	0x3c3848d3	0.011247831
162	0xbd208d07	-0.039196994
163	0x3d0b1f2e	0.033965282
164	0xbdc626c2	-0.09675361
165	0x3d65b4c5	0.0560806
166	0xbe029a6f	-0.12754224
167	0xbdc03d9d	-0.09386752
168	0x3d936837	0.07197612
169	0xbd95cfff	-0.07315063
170	0x3ca7b02e	0.020469751
171	0xbbf28288	-0.0074008144
172	0x3bbcc264	0.005760478
173	0xbcc1f912	-0.023678336
174	0x3d8a844f	0.06763517
175	0x3cf1540b	0.02945902
176	0xbbad51c5	-0.0052892887
177	0x3d0122c1	0.031527285
178	0x3df3ba36	0.11900751
179	0xbd8e0521	-0.06934572
180	0xbcb6ab6a	-0.022298533
181	0xbd2f9a73	-0.042871904
182	0x3c86f714	0.016475238
183	0xbce2a88d	-0.027668262
184	0x3d493992	0.04912717
185	0xbd4eea30	-0.050516307
186	0xbc811a62	-0.01575965
187	0xbda846f1	-0.08216656
188	0xbd8c6ea2	-0.06857039
189	0x3df2da5c	0.11858055
190	0x3d82b4f0	0.06382167
191	0x3ccdba89	0.025113361
192	0x3d00cfe6	0.031448267
193	0xbd847246	-0.064671084
194	0x3cc8fd45	0.02453483
195	0x3c50d477	0.012745968
196	0xbae1566f	-0.0017191897
197	0xbd934e15	-0.07192627
198	0x3bf30bf6	0.0074171973
199	0x3cd1a0ce	0.025589373
200	0x3aaed21c	0.0013337764
201	0xbd476d3c	-0.04868816
202	0x3a5bad8f	0.0008380049
203	0xbb8ad632	-0.00423696
204	0x3dc795f2	0.09745397
205	0x3c9033d7	0.017602844
206	0xbb82617c	-0.003978906
207	0xbd0b736e	-0.03404563
208	0x3cb166f3	0.021655535
209	0x3cfa7126	0.030571532
210	0xbcb15ede	-0.021651682
211	0xbd6b3015	-0.0574189
212	0xbc2f0c8f	-0.010684147
213	0x3d45e44f	0.048313435
214	0xbd877386	-0.06613831
215	0xbac8bd91	-0.0015315284
216	0x3e1196dc	0.14217705
217	0x3acf24b8	0.001580379
218	0xbe070aaa	-0.13187662
219	0x3e071e49	0.13195147
220	0xbd9acf9d	-0.0755913
221	0xbe0989e8	-0.13431513
222	0x3ccb2357	0.024797125
223	0xbe103f37	-0.14086615
224	0xbd026ed3	-0.03184397
225	0x3de23201	0.11044694
226	0x3d62e271	0.055391733
227	0x3d08fe5f	0.033445712
228	0xbe15b7da	-0.14620915
229	0xbd9ec1d7	-0.07751816
230	0x3c4cbfd8	0.012496911
231	0xbe1c714b	-0.15277593
232	0x3d832439	0.06403393
233	0xbbbd32ed	-0.005773893
234	0xbe05570a	-0.13021484
235	0x3d0aa52e	0.033848934
236	0xbe03bb4b	-0.12864415
237	0xbdcbe04d	-0.09954891
238	0x3e121b55	0.14268239
239	0xbdadd060	-0.0848701
240	0x3d2ec75b	0.04267059
241	0x3d3ec4c5	0.046574373
242	0xbddfa7cb	-0.10920676
243	0xbc5caecc	-0.013469409
244	0x3ddb4561	0.10706592
245	0x3e118df9	0.14214315
246	0xbc385f03	-0.011253121
247	0xbcb6594b	-0.022259375
248	0x3d27b492	0.04094369
249	0xbd3985f5	-0.045293767
250	0xbd113e7a	-0.035459973
251	0xbd386a7a	-0.04502342
252	0x3dcd9ca3	0.10039642
253	0xbda4c564	-0.08045462
254	0xbcf4e298	-0.029893205
255	0xbe118745	-0.14211757

encoder.LSTM.bias_ih_l0 f4 [280]
0	0x3cdb61f0	0.026780099
1	0x3cf7a5df	0.03023046
2	0x3bec24b9	0.007206526
3	0x3db265e2	0.08710839
4	0x3c8e4447	0.017366542
5	0xbd16dd57	-0.03683218
6	0x3ce8ca51	0.028416784
7	0x3c5c7c03	0.013457301
8	0x3cb141d3	0.021637833
9	0x3d21a9c1	0.03946853
10	0x3ad6f79a	0.0016400695
11	0x3cb284e4	0.021791883
12	0x3d02e810	0.031959593
13	0x3cb67cff	0.0222764
14	0xbc51f352	-0.01281436
15	0x3c0bdff1	0.0085372785
16	0x3c881342	0.016610745
17	0x3b874e4e	0.0041292077
18	0xbd31cef5	-0.04341026
19	0xbc607f54	-0.013702232
20	0x3bcbec5e	0.0062232455
21	0x3c23dbed	0.010001165
22	0x3c3b9adc	0.011450496
23	0x3c44c09d	0.012008813
24	0x3c9a62d5	0.018845955
25	0x3c3ebf3e	0.011642275
26	0xbaf6b77d	-0.0018822994
27	0x3c90c694	0.017672814
28	0x3c7c4378	0.015396945
29	0x3c99d3e3	0.018777793
30	0x3ca266f9	0.019824492
31	0x3c8ef264	0.017449565
32	0x3c52a640	0.01285702
33	0xbd08a39c	-0.033359155
34	0x3c8a105b	0.016853502
35	0x3d6130bd	0.05497812
36	0xbb33bba5	-0.0027425077
37	0x3c3f9ecf	0.011695578
38	0x3cbdf798	0.023189351
39	0xbc2c3fe4	-0.01051328
40	0x3c4756d0	0.012166694
41	0x3c85e153	0.016342795
42	0x3d403dec	0.046934053
43	0x3c3966e9	0.01131604
44	0x3b613faa	0.0034370222
45	0x3c9b6e0d	0.018973375
46	0x3cf962b5	0.030442575
47	0xba94870d	-0.0011331752
48	0x3ccba256	0.024857681
49	0x3d1bf716	0.038077436
50	0x3cb34729	0.021884518
51	0x3c742275	0.014900793
52	0x3d07e40d	0.03317647
53	0x3c6c000e	0.01440431
54	0x3d19cae0	0.037546992
55	0x3c678b0f	0.014132275
56	0xb8c33443	-9.308059e-05
57	0x3c6b6d4f	0.014369323
58	0xbb84eb6e	-0.0040563857
59	0xbac5a5ce	-0.0015079321
60	0x3cc6afc8	0.02425374
61	0x3cbcea07	0.023060812
62	0xbcee7153	-0.029106772
63	0xbb20e297	-0.002454912
64	0x3cc72837	0.024311168
65	0x3cd58c62	0.026067916
66	0xbb87d5aa	-0.004145344
67	0x3c9ed9bb	0.019390931
68	0x3c9cb052	0.019127045
69	0x3c865dcf	0.016402153
70	0x3d1683cb	0.03674678
71	0x3d1848c3	0.037178766
72	0x3cc202bf	0.02368295
73	0x3c43248b	0.011910568
74	0x3cc0a100	0.02351427
75	0xbcbb51ef	-0.022866217
76	0x3d12017c	0.035645947
77	0x3c626c3c	0.01381975
78	0x3d0828ae	0.03324192
79	0x3d229169	0.039689455
80	0x3c9e32ab	0.01931127
81	0x3c95cc4c	0.018285893
82	0x3cc48df1	0.023993464
83	0x3d011f53	0.031524014
84	0x3d20ae2f	0.039228614
85	0x3cd3cdb7	0.025854928
86	0x3cbea0d4	0.023270048
87	0xbca05f4a	-0.019576687
88	0x3bd92e8a	0.0066278623
89	0x3b2c00ef	0.0026245674
90	0x3ca8fa48	0.020627156
91	0x3cefdea4	0.029280968
92	0x3cd1eb1e	0.025624808
93	0x3cfd57c7	0.030925645
94	0x3ce59b11	0.028028043
95	0x3ca72672	0.020404074
96	0x3ca38e62	0.019965354
97	0x3cd4fa82	0.025998358
98	0x3cb2d9d5	0.021832386
99	0x3c98e7a5	0.018665144
100	0x3cdce056	0.02696244
101	0x3cc80cdc	0.024420194
102	0x3c5d1a0d	0.0134949805
103	0xbd0fb3a4	-0.035083428
104	0x3ca01bab	0.019544443
105	0x3d0ee721	0.03488839
106	0x3c6eb2c3	0.014568987
107	0x3c8dc9cb	0.017308136
108	0x3d005cc1	0.031338457
109	0x3c79cdcb	0.015246819
110	0x3c99e521	0.018786015
111	0x3cb2f279	0.021844136
112	0x3d320872	0.043465085
113	0x3c97179d	0.018443877
114	0x3ce7a0a0	0.028274834
115	0x3cdae29e	0.026719388
116	0x3cb9d06b	0.02268239
117	0x3c468b93	0.012118238
118	0x3cf4255f	0.029802976
119	0x3cae912d	0.02130946
120	0x3ce8f601	0.028437616
121	0x3c8cd9fd	0.017193789
122	0x3cd08fcb	0.02545919
123	0x3c3a6a10	0.011377826
124	0x3d2955bd	0.041341532
125	0x3c958367	0.018251134
126	0x3c2b219f	0.010445028
127	0x3cb3cdd4	0.021948732
128	0x3c2b51e3	0.010456535
129	0x3d65a1c7	0.056062486
130	0x3cf9a994	0.030476369
131	0x3d0fb1a7	0.03508153
132	0xbcae3d9e	-0.021269616
133	0xbc0dd653	-0.008657056
134	0x3d006107	0.031342532
135	0x3c624179	0.013809555
136	0x3c3220ca	0.010872075
137	0x3d023b55	0.031794865
138	0x3c3d9561	0.011571259
139	0x3c70add7	0.014689884
140	0xbcb9626c	-0.022629939
141	0xbcd44fa4	-0.025916882
142	0xbbc34f9b	-0.0059604174
143	0x3cb9d25b	0.022683313
144	0xbc253f4f	-0.010085895
145	0xbabe849d	-0.0014535371
146	0x3ce92d5f	0.028464017
147	0x3c194a66	0.009356117
148	0xbcc773af	-0.024347154
149	0x3d1a9ad3	0.037745308
150	0xbc959e82	-0.018264059
151	0xbd0e6a92	-0.034769602
152	0x3d187f47	0.037230756
153	0xbcaf4a89	-0.021397846
154	0xbb4b940d	-0.0031063587
155	0x3c87041a	0.016481448
156	0x3c94ac86	0.018148672
157	0x3c0c81f2	0.008575903
158	0xbc61840e	-0.013764394
159	0x3a542bc1	0.0008093678
160	0x3c583b34	0.013197709
161	0xbbf43e60	-0.0074537247
162	0x3c667846	0.014066761
163	0xbb1c0566	-0.0023806929
164	0xbc8f939e	-0.017526444
165	0x3c7db0c1	0.015484036
166	0xbca19a7b	-0.019726982
167	0xbc76a7f4	-0.015054692
168	0x3c46f52e	0.012143416
169	0xbca89f07	-0.020583643
170	0x3ca00582	0.019533876
171	0x3c97115f	0.0184409
172	0xbcc7f156	-0.02440707
173	0xbcba3d08	-0.02273418
174	0x3caf10b6	0.021370273
175	0x3d178430	0.0369913
176	0xbc2e4912	-0.0106375385
177	0xbc8ff96c	-0.017574988
178	0x3cbfab89	0.023397224
179	0x3b462ada	0.0030237944
180	0xbcb9f4d6	-0.022699755
181	0xbc72b1fb	-0.014812942
182	0x3d4af05c	0.04954563
183	0xbc64330a	-0.013928184
184	0xbc9fe6d3	-0.019519245
185	0xbc64f06d	-0.013973338
186	0xbcf61191	-0.030037673
187	0xbc2eaa8f	-0.0106607815
188	0xbcae19da	-0.021252561
189	0x3cc6c476	0.024263602
190	0xbc949226	-0.018136095
191	0x3ca14e0a	0.019690532
192	0xba5e7f68	-0.0008487613
193	0x3b41abb0	0.0029551797
194	0x3d12bac0	0.03582263
195	0xbc941537	-0.018076522
196	0xbc47448d	-0.01216234
197	0xbca3e1b5	-0.020005086
198	0x3bfaf12a	0.0076581435
199	0x3ca1a54b	0.019732138
200	0x3cb58303	0.022157198
201	0x3ca00cd4	0.019537367
202	0xbc122da3	-0.008922013
203	0x3b805f36	0.0039176
204	0x3ccf6046	0.025314461
205	0xbcf060d2	-0.029343043
206	0xba4ec820	-0.00078880973
207	0x3cb51995	0.022106925
208	0xbadb10e7	-0.0016713411
209	0xbd529d0f	-0.051419314
210	0x3cdcba81	0.0269444
211	0x3d0affa0	0.03393519
212	0x3a42144a	0.0007403536
213	0x3db6a100	0.08917427
214	0x3c6bc050	0.014389113
215	0xbd17e2d1	-0.037081543
216	0x3ce44cd7	0.027868671
217	0x3c04dd7e	0.0081094485
218	0x3cb93a00	0.022610664
219	0x3cf2155c	0.0295512
220	0x3c7e8f21	0.015537054
221	0x3cb0296a	0.021504123
222	0x3cde71aa	0.027153809
223	0x3ce03345	0.027368197
224	0x3cecea33	0.028920269
225	0x3d344aa4	0.044016495
226	0x3c9098ae	0.017650928
227	0x3b3fb4ca	0.0029252046
228	0x3c4f965d	0.012670127
229	0xb7e4446b	-2.7211578e-05
230	0x3b8876ad	0.004164538
231	0x3c9c7c85	0.019102344
232	0x3c2f8265	0.010712241
233	0x3d74df49	0.059783254
234	0x3bbeb29f	0.005819633
235	0x3c3bf7c0	0.011472642
236	0x3c6d3156	0.014477095
237	0x3ca29688	0.01984717
238	0x3c93514b	0.0179831
239	0x3cadc4cc	0.021212004
240	0x3d0bddd5	0.034147102
241	0x3c19de21	0.009391339
242	0x3c2f8085	0.010711794
243	0xbd447d91	-0.047971312
244	0x3c90d3a7	0.017679049
245	0x3ce80d8b	0.02832677
246	0x3a6a73aa	0.0008943627
247	0x3c38a7d3	0.011270481
248	0x3d117c77	0.03551909
249	0xbb15ed98	-0.0022877213
250	0x3c827059	0.015922712
251	0x3cb762b2	0.022385929
252	0x3d20cf4a	0.039260186
253	0x3ca6c8c2	0.0203594
254	0x3c71385d	0.014722911
255	0x3b8e99a3	0.004351811

encoder.LSTM.bias_hh_l0 f4 [280]
0	0x3cdb61f0	0.026780099
1	0x3cf7a5df	0.03023046
2	0x3bec24b9	0.007206526
3	0x3db265e2	0.08710839
4	0x3c8e4447	0.017366542
5	0xbd16dd57	-0.03683218
6	0x3ce8ca51	0.028416784
7	0x3c5c7c03	0.013457301
8	0x3cb141d3	0.021637833
9	0x3d21a9c1	0.03946853
10	0x3ad6f79a	0.0016400695
11	0x3cb284e4	0.021791883
12	0x3d02e810	0.031959593
13	0x3cb67cff	0.0222764
14	0xbc51f352	-0.01281436
15	0x3c0bdff1	0.0085372785
16	0x3c881342	0.016610745
17	0x3b874e4e	0.0041292077
18	0xbd31cef5	-0.04341026
19	0xbc607f54	-0.013702232
20	0x3bcbec5e	0.0062232455
21	0x3c23dbed	0.010001165
22	0x3c3b9adc	0.011450496
23	0x3c44c09d	0.012008813
24	0x3c9a62d5	0.018845955
25	0x3c3ebf3e	0.011642275
26	0xbaf6b77d	-0.0018822994
27	0x3c90c694	0.017672814
28	0x3c7c4378	0.015396945
29	0x3c99d3e3	0.018777793
30	0x3ca266f9	0.019824492
31	0x3c8ef264	0.017449565
32	0x3c52a640	0.01285702
33	0xbd08a39c	-0.033359155
34	0x3c8a105b	0.016853502
35	0x3d6130bd	0.05497812
36	0xbb33bba5	-0.0027425077
37	0x3c3f9ecf	0.011695578
38	0x3cbdf798	0.023189351
39	0xbc2c3fe4	-0.01051328
40	0x3c4756d0	0.012166694
41	0x3c85e153	0.016342795
42	0x3d403dec	0.046934053
43	0x3c3966e9	0.01131604
44	0x3b613faa	0.0034370222
45	0x3c9b6e0d	0.018973375
46	0x3cf962b5	0.030442575
47	0xba94870d	-0.0011331752
48	0x3ccba256	0.024857681
49	0x3d1bf716	0.038077436
50	0x3cb34729	0.021884518
51	0x3c742275	0.014900793
52	0x3d07e40d	0.03317647
53	0x3c6c000e	0.01440431
54	0x3d19cae0	0.037546992
55	0x3c678b0f	0.014132275
56	0xb8c33443	-9.308059e-05
57	0x3c6b6d4f	0.014369323
58	0xbb84eb6e	-0.0040563857
59	0xbac5a5ce	-0.0015079321
60	0x3cc6afc8	0.02425374
61	0x3cbcea07	0.023060812
62	0xbcee7153	-0.029106772
63	0xbb20e297	-0.002454912
64	0x3cc72837	0.024311168
65	0x3cd58c62	0.026067916
66	0xbb87d5aa	-0.004145344
67	0x3c9ed9bb	0.019390931
68	0x3c9cb052	0.019127045
69	0x3c865dcf	0.016402153
70	0x3d1683cb	0.03674678
71	0x3d1848c3	0.037178766
72	0x3cc202bf	0.02368295
73	0x3c43248b	0.011910568
74	0x3cc0a100	0.02351427
75	0xbcbb51ef	-0.022866217
76	0x3d12017c	0.035645947
77	0x3c626c3c	0.01381975
78	0x3d0828ae	0.03324192
79	0x3d229169	0.039689455
80	0x3c9e32ab	0.01931127
81	0x3c95cc4c	0.018285893
82	0x3cc48df1	0.023993464
83	0x3d011f53	0.031524014
84	0x3d20ae2f	0.039228614
85	0x3cd3cdb7	0.025854928
86	0x3cbea0d4	0.023270048
87	0xbca05f4a	-0.019576687
88	0x3bd92e8a	0.0066278623
89	0x3b2c00ef	0.0026245674
90	0x3ca8fa48	0.020627156
91	0x3cefdea4	0.029280968
92	0x3cd1eb1e	0.025624808
93	0x3cfd57c7	0.030925645
94	0x3ce59b11	0.028028043
95	0x3ca72672	0.020404074
96	0x3ca38e62	0.019965354
97	0x3cd4fa82	0.025998358
98	0x3cb2d9d5	0.021832386
99	0x3c98e7a5	0.018665144
100	0x3cdce056	0.02696244
101	0x3cc80cdc	0.024420194
102	0x3c5d1a0d	0.0134949805
103	0xbd0fb3a4	-0.035083428
104	0x3ca01bab	0.019544443
105	0x3d0ee721	0.03488839
106	0x3c6eb2c3	0.014568987
107	0x3c8dc9cb	0.017308136
108	0x3d005cc1	0.031338457
109	0x3c79cdcb	0.015246819
110	0x3c99e521	0.018786015
111	0x3cb2f279	0.021844136
112	0x3d320872	0.043465085
113	0x3c97179d	0.018443877
114	0x3ce7a0a0	0.028274834
115	0x3cdae29e	0.026719388
116	0x3cb9d06b	0.02268239
117	0x3c468b93	0.012118238
118	0x3cf4255f	0.029802976
119	0x3cae912d	0.02130946
120	0x3ce8f601	0.028437616
121	0x3c8cd9fd	0.017193789
122	0x3cd08fcb	0.02545919
123	0x3c3a6a10	0.011377826
124	0x3d2955bd	0.041341532
125	0x3c958367	0.018251134
126	0x3c2b219f	0.010445028
127	0x3cb3cdd4	0.021948732
128	0x3c2b51e3	0.010456535
129	0x3d65a1c7	0.056062486
130	0x3cf9a994	0.030476369
131	0x3d0fb1a7	0.03508153
132	0xbcae3d9e	-0.021269616
133	0xbc0dd653	-0.008657056
134	0x3d006107	0.031342532
135	0x3c624179	0.013809555
136	0x3c3220ca	0.010872075
137	0x3d023b55	0.031794865
138	0x3c3d9561	0.011571259
139	0x3c70add7	0.014689884
140	0xbcb9626c	-0.022629939
141	0xbcd44fa4	-0.025916882
142	0xbbc34f9b	-0.0059604174
143	0x3cb9d25b	0.022683313
144	0xbc253f4f	-0.010085895
145	0xbabe849d	-0.0014535371
146	0x3ce92d5f	0.028464017
147	0x3c194a66	0.009356117
148	0xbcc773af	-0.024347154
149	0x3d1a9ad3	0.037745308
150	0xbc959e82	-0.018264059
151	0xbd0e6a92	-0.034769602
152	0x3d187f47	0.037230756
153	0xbcaf4a89	-0.021397846
154	0xbb4b940d	-0.0031063587
155	0x3c87041a	0.016481448
156	0x3c94ac86	0.018148672
157	0x3c0c81f2	0.008575903
158	0xbc61840e	-0.013764394
159	0x3a542bc1	0.0008093678
160	0x3c583b34	0.013197709
161	0xbbf43e60	-0.0074537247
162	0x3c667846	0.014066761
163	0xbb1c0566	-0.0023806929
164	0xbc8f939e	-0.017526444
165	0x3c7db0c1	0.015484036
166	0xbca19a7b	-0.019726982
167	0xbc76a7f4	-0.015054692
168	0x3c46f52e	0.012143416
169	0xbca89f07	-0.020583643
170	0x3ca00582	0.019533876
171	0x3c97115f	0.0184409
172	0xbcc7f156	-0.02440707
173	0xbcba3d08	-0.02273418
174	0x3caf10b6	0.021370273
175	0x3d178430	0.0369913
176	0xbc2e4912	-0.0106375385
177	0xbc8ff96c	-0.017574988
178	0x3cbfab89	0.023397224
179	0x3b462ada	0.0030237944
180	0xbcb9f4d6	-0.022699755
181	0xbc72b1fb	-0.014812942
182	0x3d4af05c	0.04954563
183	0xbc64330a	-0.013928184
184	0xbc9fe6d3	-0.019519245
185	0xbc64f06d	-0.013973338
186	0xbcf61191	-0.030037673
187	0xbc2eaa8f	-0.0106607815
188	0xbcae19da	-0.021252561
189	0x3cc6c476	0.024263602
190	0xbc949226	-0.018136095
191	0x3ca14e0a	0.019690532
192	0xba5e7f68	-0.0008487613
193	0x3b41abb0	0.0029551797
194	0x3d12bac0	0.03582263
195	0xbc941537	-0.018076522
196	0xbc47448d	-0.01216234
197	0xbca3e1b5	-0.020005086
198	0x3bfaf12a	0.0076581435
199	0x3ca1a54b	0.019732138
200	0x3cb58303	0.022157198
201	0x3ca00cd4	0.019537367
202	0xbc122da3	-0.008922013
203	0x3b805f36	0.0039176
204	0x3ccf6046	0.025314461
205	0xbcf060d2	-0.029343043
206	0xba4ec820	-0.00078880973
207	0x3cb51995	0.022106925
208	0xbadb10e7	-0.0016713411
209	0xbd529d0f	-0.051419314
210	0x3cdcba81	0.0269444
211	0x3d0affa0	0.03393519
212	0x3a42144a	0.0007403536
213	0x3db6a100	0.08917427
214	0x3c6bc050	0.014389113
215	0xbd17e2d1	-0.037081543
216	0x3ce44cd7	0.027868671
217	0x3c04dd7e	0.0081094485
218	0x3cb93a00	0.022610664
219	0x3cf2155c	0.0295512
220	0x3c7e8f21	0.015537054
221	0x3cb0296a	0.021504123
222	0x3cde71aa	0.027153809
223	0x3ce03345	0.027368197
224	0x3cecea33	0.028920269
225	0x3d344aa4	0.044016495
226	0x3c9098ae	0.017650928
227	0x3b3fb4ca	0.0029252046
228	0x3c4f965d	0.012670127
229	0xb7e4446b	-2.7211578e-05
230	0x3b8876ad	0.004164538
231	0x3c9c7c85	0.019102344
232	0x3c2f8265	0.010712241
233	0x3d74df49	0.059783254
234	0x3bbeb29f	0.005819633
235	0x3c3bf7c0	0.011472642
236	0x3c6d3156	0.014477095
237	0x3ca29688	0.01984717
238	0x3c93514b	0.0179831
239	0x3cadc4cc	0.021212004
240	0x3d0bddd5	0.034147102
241	0x3c19de21	0.009391339
242	0x3c2f8085	0.010711794
243	0xbd447d91	-0.047971312
244	0x3c90d3a7	0.017679049
245	0x3ce80d8b	0.02832677
246	0x3a6a73aa	0.0008943627
247	0x3c38a7d3	0.011270481
248	0x3d117c77	0.03551909
249	0xbb15ed98	-0.0022877213
250	0x3c827059	0.015922712
251	0x3cb762b2	0.022385929
252	0x3d20cf4a	0.039260186
253	0x3ca6c8c2	0.0203594
254	0x3c71385d	0.014722911
255	0x3b8e99a3	0.004351811

encoder.fc1.weight f4 [3, 70]
0	0x3def9a2e	0.11699329
1	0x3e6a37ea	0.22872892
2	0x3e4676a8	0.19381201
3	0xbee348e2	-0.44391543
4	0x3e84b02a	0.25915653
5	0xbda65ad2	-0.08122791
6	0xbe26561c	-0.16243786
7	0xbe7d9326	-0.24763164
8	0xbdbb0e67	-0.091336064
9	0xbdd7dbf4	-0.105399996
10	0x3e4721b7	0.19446455
11	0x3e2e0c06	0.16996774
12	0xbe1fc12f	-0.15601037
13	0xbe3ef952	-0.18649796
14	0x3df06f9d	0.117400385
15	0xbdc345c4	-0.09534791
16	0xbe23e1b2	-0.16004065
17	0x3d813d9e	0.06310581
18	0xbd803e28	-0.06261855
19	0xbdabf6ee	-0.083967075
20	0xbe4511bc	-0.19245046
21	0xbd716e0f	-0.05894285
22	0x3e56e28b	0.20984857
23	0x3e0e60f2	0.13904169
24	0x3daba935	0.08381883
25	0x3e24aecb	0.16082303
26	0x3dafaf28	0.0857833
27	0x3e7338b1	0.23752095
28	0x3a37ed13	0.0007016223
29	0x3c91f0ad	0.017814958
30	0xbe9074f4	-0.28214228
31	0xbe8fe2d4	-0.28102744
32	0x3e66d4e0	0.22542143
33	0x3daa8c2d	0.08327518
34	0xbe6ecfa7	-0.233214
35	0xbdf0112e	-0.11722027
36	0x3e29e43b	0.1659097
37	0x3e5a32d7	0.21308456
38	0xbe928c1d	-0.28622523
39	0x3e20cfec	0.15704316
40	0xbe1427d6	-0.14468321
41	0x3e8e5720	0.27800846
42	0xbdec3637	-0.11533778
43	0xbe4a237a	-0.19740096
44	0x3e8808c3	0.26569185
45	0xbe58bcd2	-0.21165779
46	0x3e55dcb2	0.2088497
47	0xbd5bef61	-0.053695086
48	0xbe3c3113	-0.18378095
49	0xbe5068df	-0.20352505
50	0x3da9d834	0.082931906
51	0x3e2b9b9c	0.16758579
52	0xbda3e63a	-0.080028966
53	0xbdc32477	-0.095284395
54	0xbe83fbba	-0.2577799
55	0xbdc7c70f	-0.09754764
56	0xbcbb2c7f	-0.022848366
57	0x3e4ae211	0.198128
58	0x3e080fd6	0.13287291
59	0x3e20cd8b	0.15703408
60	0xbda94ed4	-0.082669884
61	0xbddf139e	-0.108924136
62	0xbb3f66e3	-0.0029205612
63	0x3e04cf8f	0.12969802
64	0xbc271b66	-0.010199403
65	0x3e01cacc	0.12675017
66	0xbe7604ae	-0.24025223
67	0xbea6419a	-0.32471925
68	0xbe940e06	-0.2891695
69	0x3c0dfad9	0.008665764
70	0xbe1c3924	-0.15256172
71	0xbaa6db59	-0.0012730166
72	0xbd1f6a51	-0.03891975
73	0xbd993449	-0.07480676
74	0xbe3a6578	-0.1820277
75	0xbdac8054	-0.08422914
76	0x3d8fd358	0.070227325
77	0xbdab2cbc	-0.08358142
78	0xbc1ac515	-0.009446402
79	0x3e32fbf3	0.17478923
80	0xbe864d95	-0.26231065
81	0xbe83fb7b	-0.25777802
82	0x3d5849bc	0.052804694
83	0xbc9fbd79	-0.019499527
84	0xbe8616e3	-0.26189336
85	0x3eab260d	0.33427468
86	0x3d1483ab	0.03625838
87	0x3bf96faa	0.0076121883
88	0xbe3c306d	-0.18377848
89	0xbdc0408b	-0.093873106
90	0xbd0d34a8	-0.034474045
91	0xbea10eb2	-0.31456524
92	0x3e8d65b9	0.2761667
93	0xbe0ec9db	-0.13944189
94	0xbe4b17fd	-0.1983337
95	0x3e393233	0.18085556
96	0xbdb90762	-0.09034611
97	0xbe958eb4	-0.29210436
98	0x3da0ef79	0.07858176
99	0x3e5b3efe	0.21410748
100	0x3e31b8e1	0.17355682
101	0xbe00490b	-0.12527864
102	0xbe65d300	-0.22443771
103	0xbd035aa1	-0.032068852
104	0x3c7d5874	0.015462983
105	0x3e830597	0.25590202
106	0xbe1a04d1	-0.150409
107	0xbc8cb402	-0.017175678
108	0x3e69200a	0.22766128
109	0xbcff482c	-0.031162344
110	0xbe522eff	-0.2052574
111	0x3dca410c	0.09875688
112	0x3eb3326c	0.34999406
113	0xbcf982a4	-0.030457802
114	0xbe8fbe12	-0.280747
115	0xbda345a0	-0.07972264
116	0x3d4ecc36	0.05048772
117	0xbe37f813	-0.17965727
118	0x3e316322	0.17322972
119	0x3e92cbf7	0.28671238
120	0xbea7b3bf	-0.32754323
121	0x3e7a6231	0.2445152
122	0xbec0659b	-0.3757752
123	0x3de90aa2	0.11378981
124	0x3e90f008	0.2830813
125	0xbe37e1bc	-0.17957205
126	0xbdbdc6ea	-0.092664555
127	0xbe9e8a1f	-0.30964753
128	0x3e483aac	0.19553632
129	0xbe170742	-0.14748862
130	0x3d09cf8f	0.03364521
131	0x3e1b8a60	0.15189505
132	0x35cdbc84	1.5328555e-06
133	0xbe1a4cc8	-0.15068352
134	0x3e0205d5	0.12697537
135	0xbd058624	-0.03259863
136	0xbe4481fe	-0.19190213
137	0xbc64fec3	-0.013976756
138	0xbf055470	-0.52081966
139	0xbe31f286	-0.17377672
140	0xbd110586	-0.03540566
141	0xb9952d68	-0.00028453325
142	0x3e0f5843	0.13998513
143	0xbdfdda11	-0.123951085
144	0x3e0d4ae5	0.13798101
145	0xbd894095	-0.06701771
146	0x3e18ddd6	0.14928374
147	0xbd039c33	-0.032131385
148	0x3e1ff599	0.15621032
149	0x3e2305c6	0.15920171
150	0x3d8d71cf	0.06906473
151	0x3e3663b7	0.17811476
152	0xbe54f14d	-0.20795174
153	0x3db492b2	0.088170424
154	0x3d188994	0.03724058
155	0x3e5b68ef	0.21426748
156	0xbe6c1052	-0.230531
157	0xbde22ea8	-0.11044055
158	0x3e225e8c	0.1585638
159	0xbe09609b	-0.13415758
160	0xbe269c41	-0.16270544
161	0xbdd65473	-0.10465326
162	0xbea75b9f	-0.3268709
163	0x3e0e4caa	0.13896433
164	0xbdb7312d	-0.089449264
165	0xbe8b3909	-0.27191952
166	0x3d6d6108	0.057953864
167	0x3dba2548	0.09089142
168	0x3e0b34eb	0.13594405
169	0xbe1919a5	-0.14951189
170	0xbdf9d572	-0.121989146
171	0xbe9cd207	-0.30628988
172	0xbc9cd21b	-0.019143155
173	0x3b73a5a0	0.0037177578
174	0xbe44ba0c	-0.19211596
175	0x3e39bb68	0.18137896
176	0x3d387845	0.045036573
177	0x3e038aed	0.12845965
178	0x3d2b7296	0.041857325
179	0xbd9823ca	-0.07428701
180	0x3c8d928e	0.017281797
181	0xbdcecab6	-0.10097258
182	0x3daf0f91	0.08547891
183	0xbceebe6f	-0.02914354
184	0xbc3dcfac	-0.011585157
185	0x3db09d26	0.08623724
186	0xbdb5e71a	-0.0888197
187	0x3df7f5ab	0.12107404
188	0x3daa17d5	0.08305327
189	0x3dcfb1b4	0.10141316
190	0xbdee2960	-0.116289854
191	0xbe9d6c85	-0.30746856
192	0xbe0a5969	-0.1351067
193	0x3e61975b	0.22030394
194	0xbe5c3414	-0.21504241
195	0x3e12a355	0.14320119
196	0xbe0b34b1	-0.13594319
197	0x3d8b41d7	0.06799667
198	0xbe184095	-0.14868386
199	0x3e1c2a48	0.15250504
200	0xbdb964eb	-0.09052452
201	0xbc23c9bd	-0.009996829
202	0x3ad9fb7e	0.0016630737
203	0xbe47ab47	-0.19498931
204	0xbcee7ecd	-0.029113198
205	0x3d3a1081	0.045425896
206	0xbdc3e999	-0.095660396
207	0xbe9c4ec5	-0.30528846
208	0x3d9f76dd	0.07786343
209	0xbd951a16	-0.07280366

encoder.fc1.bias f4 [3]
0	0xbce1c17b	-0.027558079
1	0x3d21aa34	0.03946896
2	0xbcd57d8b	-0.02606084

decoder.LSTM.weight_ih_l0 f4 [280, 3]
0	0xbd5eff64	-0.05444278
1	0xbde7b936	-0.11314623
2	0xbdee130e	-0.11624728
3	0x3e1f50c0	0.15558147
4	0x3dc537e3	0.096298
5	0xba1d2bbc	-0.00059955916
6	0xbe45ff13	-0.19335584
7	0x3da01996	0.0781738
8	0xbe72ee3f	-0.23723696
9	0xbe7ec033	-0.24878006
10	0x3d1eb601	0.03874779
11	0xbe5ee003	-0.21765141
12	0x3d84a0cb	0.06475981
13	0x3e38c63f	0.18044375
14	0x3d170cd4	0.03687747
15	0x3d592921	0.05301774
16	0x3c9303a8	0.01794608
17	0xbe276825	-0.16348322
18	0xbd0a366a	-0.0337433
19	0x3ca8b8cd	0.020595932
20	0x3db8f15d	0.090304114
21	0xbcdf81ea	-0.027283628
22	0xbd80225c	-0.062565535
23	0xbe14e4d7	-0.1454042
24	0xbd9ab99c	-0.075549334
25	0x3db7a7a0	0.08967519
26	0xbd88db01	-0.06682397
27	0x3c2b564b	0.010457586
28	0x3dc17ed7	0.09448021
29	0xbe26caeb	-0.16288345
30	0xbd843655	-0.064556755
31	0xbded8429	-0.11597473
32	0x3cc781e8	0.024353936
33	0xbcecd52a	-0.028910238
34	0xbde1bd0b	-0.11022385
35	0x3e087ed9	0.13329639
36	0x3d5df746	0.054190896
37	0xbde17afc	-0.110097855
38	0xbd989591	-0.074504025
39	0x3dbfa605	0.093578376
40	0xbdf62b2f	-0.12019955
41	0xbdc1f948	-0.09471375
42	0x3d45cd21	0.04829133
43	0xbdf145c9	-0.117808886
44	0x3d9b7498	0.07590598
45	0xbd8fbee9	-0.07018835
46	0x3e19ecc1	0.1503172
47	0xbe07da2c	-0.1326682
48	0xbe6330f5	-0.22186644
49	0x3d7a78ab	0.061150234
50	0xbe0c0e06	-0.13677225
51	0xbd89ff7f	-0.06738185
52	0xbc218e1d	-0.009860543
53	0x3e010caf	0.12602495
54	0x3d81b4c5	0.06333307
55	0x3ce0ca3a	0.02744018
56	0x3d2ac52f	0.041691955
57	0xbe83929a	-0.25697786
58	0xbd0a4eca	-0.033766545
59	0x3c57f673	0.013181317
60	0xbc25c996	-0.010118863
61	0x3dceb73c	0.10093543
62	0xbd75a65e	-0.059973113
63	0xbe413ffc	-0.18872064
64	0x3cbe28f3	0.023212885
65	0x3d92a00c	0.07159433
66	0xbc7b574e	-0.015340639
67	0x3dad71c7	0.08468967
68	0xbd3c9c8f	-0.046047743
69	0xbe6286b3	-0.22121696
70	0x3dc55250	0.096348405
71	0xbe5639a9	-0.20920433
72	0xbd80e27b	-0.06293198
73	0xbdd4ba19	-0.10387058
74	0xbe2846e9	-0.164333
75	0x3dcd7da9	0.100337334
76	0xbd30f7d8	-0.043205112
77	0x3dde860b	0.108654104
78	0xbe1566cc	-0.14589995
79	0xbadd22a0	-0.0016871281
80	0xbd69ca1b	-0.05707751
81	0xbd104415	-0.035221178
82	0x3d7831f4	0.060594514
83	0xbd8ded22	-0.06929995
84	0x3c7c9302	0.015415909
85	0xbc635c83	-0.013877037
86	0x3dbfde33	0.09368553
87	0xbe075e98	-0.13219678
88	0xbe172daf	-0.1476352
89	0xbd1c8ead	-0.038222004
90	0xbc9d8323	-0.01922757
91	0xbdb58064	-0.08862379
92	0x3d7c852b	0.061650436
93	0xbdba8d7f	-0.091090195
94	0x3d2dbe1f	0.04241764
95	0x3d72d401	0.059284214
96	0xbd68838b	-0.056766074
97	0x3ddaf5f2	0.106914416
98	0xbdbf7ec5	-0.09350351
99	0xbcdf9580	-0.027292967
100	0x3c6301cb	0.013855408
101	0x3d9e3ae9	0.0772608
102	0x3e066b35	0.13126834
103	0xbe1f4082	-0.15551952
104	0x3d8632df	0.06552672
105	0xbdb9e80c	-0.090774626
106	0x3dfef4ac	0.12449011
107	0xbdcaffb2	-0.09912051
108	0x3b070f8f	0.002060864
109	0xbc5001c6	-0.012695735
110	0xbe176d57	-0.14787804
111	0x3dd1e675	0.10249034
112	0x3d6a8d40	0.057263613
113	0x3d1ce039	0.038299773
114	0x3ce1cee8	0.02756448
115	0xbcd74869	-0.026279645
116	0x3d95a051	0.073059686
117	0x3d0f88c1	0.035042528
118	0x3d0230b8	0.031784743
119	0xbdc8ef14	-0.098112255
120	0x3bfa960b	0.007647281
121	0x3d8c91f2	0.06863774
122	0xbd8c9aad	-0.068654396
123	0x3df51511	0.11966909
124	0x3e0ed903	0.13949971
125	0x3c368866	0.011140918
126	0xbe01a96f	-0.1266229
127	0xbddc9570	-0.107706904
128	0x3b654bf3	0.0034987896
129	0xbe122ff2	-0.14276102
130	0x3e281358	0.16413629
131	0x3dad7136	0.08468859
132	0xbdf2aa65	-0.118489064
133	0x3dad65b5	0.08466665
134	0x3c425152	0.011860209
135	0x3d91e2fc	0.07123372
136	0x3e0dda78	0.1385287
137	0xbcf6941c	-0.03009992
138	0x3e0b1871	0.13583542
139	0xbd4de10a	-0.050263442
140	0xbb89d95b	-0.004206819
141	0x3d59a415	0.053134996
142	0x3d311728	0.043234974
143	0xbb39181c	-0.002824313
144	0xbe35d55b	-0.1775717
145	0x3e1154d8	0.14192522
146	0xbd8a83f8	-0.06763452
147	0x3d4facf2	0.050702043
148	0xbca16179	-0.019699799
149	0xbd44ee83	-0.048079025
150	0x3da6af7a	0.08138938
151	0x3cbf1d5c	0.02332943
152	0xbdf37a3f	-0.11888551
153	0x3d1cbba0	0.03826487
154	0xbdda0e3e	-0.10647248
155	0xbd237d92	-0.039914675
156	0xbdc8f477	-0.09812253
157	0x3e2b4450	0.16725278
158	0xbe318b0c	-0.17338198
159	0xbc4f8719	-0.012666487
160	0x3e23c332	0.1599243
161	0xbe009ef0	-0.1256063
162	0xbd34ab07	-0.044108417
163	0x3cbbf9ce	0.022946265
164	0xbc21f616	-0.009885332
165	0xbe06ee63	-0.13176875
166	0x3e09298e	0.13394758
167	0xbd7566ec	-0.059912607
168	0x3c083e73	0.00831567
169	0x3e0f63b5	0.14002879
170	0x3cbecb20	0.023290217
171	0xbb4b50c6	-0.0031023487
172	0xbd8d4e38	-0.06899685
173	0xbdf0e7fb	-0.11762997
174	0x3dbbbe9f	0.091672175
175	0x3d8f01cf	0.06982767
176	0x3dcb07fa	0.09913631
177	0xbde94f37	-0.11392062
178	0x3b255bbe	0.0025231685
179	0xbe0e7683	-0.13912396
180	0x3d687c4f	0.056759175
181	0xbdafab58	-0.08577603
182	0x3d11aa78	0.035562962
183	0xbca539e6	-0.02016921
184	0x3d93819a	0.07202454
185	0xbd15a2b3	-0.036532115
186	0x3da3c89b	0.07997247
187	0xbd40a1ce	-0.04702931
188	0xbe00a633	-0.125634
189	0xbc62573c	-0.013814744
190	0xba945222	-0.0011315981
191	0x3d46c1c2	0.048524626
192	0xbe461fd2	-0.19348076
193	0x3ca525fc	0.020159714
194	0xbe4fe193	-0.20300893
195	0xbdf37de6	-0.118892476
196	0x3bd4578b	0.0064801625
197	0xbda99b82	-0.08281614
198	0xbdfdd5db	-0.12394305
199	0x3cc44179	0.023957001
200	0xbd8a3f9f	-0.06750416
201	0xbdc81476	-0.097695276
202	0x3d3939d8	0.04522118
203	0xbe3ebe92	-0.18627384
204	0xbd78ff3d	-0.06079029
205	0x3d821fd0	0.06353724
206	0xbe848092	-0.2587934
207	0xbdda9209	-0.10672385
208	0x3e062bf7	0.13102709
209	0x3cab5a61	0.02091712
210	0x3e16ce9f	0.14727257
211	0xbcae35e3	-0.02126593
212	0x3deb4469	0.114876576
213	0x3cef4110	0.029205829
214	0x3df797ee	0.12089525
215	0xbe29da25	-0.16587122
216	0xbc9c2855	-0.0190622
217	0x3e6a74e7	0.22896157
218	0xbe258eab	-0.16167705
219	0x3cf89882	0.030346159
220	0xbe68aa3d	-0.22721191
221	0x3e1adb88	0.15122807
222	0x3e235b2c	0.15952748
223	0xbd84004c	-0.06445369
224	0xbd0b0c41	-0.033947233
225	0xbdb536f8	-0.08848375
226	0xbd419ca4	-0.047268525
227	0x3df906d2	0.12159504
228	0xbdd1eb77	-0.102499895
229	0x3e2d096a	0.16898122
230	0x3df06343	0.11737683
231	0xbc5a3ca4	-0.013320122
232	0x3dc5612f	0.09637677
233	0xbcbce8c4	-0.02306021
234	0xbcffe52f	-0.031237213
235	0x3c44f48e	0.012021197
236	0xbe16f5e4	-0.14742237
237	0xbdbe6446	-0.092964694
238	0xbb56b6bc	-0.0032762727
239	0xbdd1861f	-0.1023066
240	0xbce56094	-0.028000154
241	0xbe01d0fb	-0.12677376
242	0xbd852d50	-0.06502783
243	0x3d946a30	0.07246816
244	0x3ddc7fb7	0.10766547
245	0xbdaeb7cf	-0.085311525
246	0xbcfd7007	-0.030937208
247	0x3da18ff1	0.07888783
248	0xbe100f6e	-0.14068386
249	0x3d53bc7d	0.05169343
250	0xbd95e39f	-0.07318806
251	0xbd99d9ae	-0.07512222
252	0xbda49d7b	-0.080378495
253	0x3bb9ee53	0.0056741624
254	0x3e033390	0.12812638
255	0xbc8953be	-0.016763564

decoder.LSTM.weight_hh_l0 f4 [280, 70]
0	0xbc4e3ea8	-0.012588181
1	0x3d2538a7	0.04033723
2	0x3c39523f	0.011311113
3	0xbe170251	-0.14746977
4	0x3da256e0	0.07926726
5	0xbc4754fb	-0.012166257
6	0x3d4b8be3	0.049693953
7	0x3ddcaffd	0.107757546
8	0x3e2ba195	0.16760857
9	0x3bf6152e	0.007509849
10	0x3d8be6e4	0.06831148
11	0x3d8e1f1e	0.06939529
12	0x3db40e05	0.087917365
13	0x3d60b415	0.05485924
14	0x3d944191	0.07239068
15	0xbe125d7d	-0.14293475
16	0xbdbffd8c	-0.09374532
17	0x3cc916b2	0.024546955
18	0x3e0f491c	0.13992733
19	0xbca2b80e	-0.019863155
20	0x3e0a3cf5	0.13499816
21	0x3d14bf34	0.036315158
22	0xbdc33fae	-0.0953363
23	0xbe385dc0	-0.18004513
24	0xbce8078e	-0.028323915
25	0x3d8d829e	0.06909679
26	0xbd46623b	-0.048433524
27	0xbcc60fd2	-0.024177466
28	0xbdfbf309	-0.12302215
29	0xbd00e899	-0.031471822
30	0x3cfa28ca	0.030537028
31	0x3d684c6c	0.056713507
32	0x3cbb4f0e	0.022864845
33	0xbe35bf5d	-0.1774878
34	0xbd0cbfff	-0.03436279
35	0x3dfba777	0.12287801
36	0xbdc1e45c	-0.09467384
37	0x3d1c9ee8	0.038237482
38	0x3cd34bc6	0.025792968
39	0x3e012f71	0.12615754
40	0x3d4eae39	0.05045912
41	0xbd18ccd7	-0.037304725
42	0xbdae1176	-0.08499424
43	0xbdfc305f	-0.123139136
44	0x3caab130	0.020836443
45	0x3a2d2f99	0.0006606519
46	0x3c431b33	0.01190834
47	0xbd167a69	-0.036737833
48	0x3ca6b298	0.020348832
49	0xbd9a42bc	-0.0753226
50	0x3ce23f20	0.027617991
51	0xbdb6ca6f	-0.0892533
52	0x3d3e5aa2	0.046473153
53	0x3e483fd3	0.19555597
54	0x3ce627c9	0.028095143
55	0xbd8526e9	-0.06501562
56	0xbdcf9fa8	-0.10137874
57	0x3d119a1a	0.035547353
58	0xbd0a4539	-0.033757422
59	0xbdf5ab7e	-0.119956
60	0x3d21f251	0.03953773
61	0xbd08f01b	-0.033432107
62	0x3d6a6209	0.0572224
63	0xbd42aca8	-0.04752794
64	0x3dab1573	0.083537005
65	0x3d91fbf9	0.07128138
66	0xbcc86940	-0.02446425
67	0x3c73ea89	0.0148874605
68	0xbe0e35a4	-0.1388765
69	0xbd69e506	-0.05710318
70	0x3d81fa42	0.06346561
71	0xbe0b784b	-0.13620107
72	0xbdf96ca5	-0.121789254
73	0x3db2ce1e	0.0873072
74	0x3dbe188e	0.09282027
75	0xbdbd0b06	-0.09230618
76	0x3d841f8a	0.06451328
77	0xbd89b991	-0.06724847
78	0xbc90e9ac	-0.017689548
79	0x3d7bc4e9	0.061467085
80	0xbd31c954	-0.043404892
81	0x3d31049e	0.043217294
82	0xbd54bb03	-0.05193616
83	0x3d30c90c	0.043160483
84	0x3d609926	0.054833554
85	0x3bd149f9	0.006386992
86	0xbd72bd44	-0.05926253
87	0xbb3d9632	-0.0028928635
88	0xbdb66dfc	-0.089076966
89	0xbdbb7824	-0.091537744
90	0xbd0857bd	-0.0332868
91	0x3df78158	0.12085217
92	0xbd273711	-0.040824
93	0xbd4c2964	-0.04984416
94	0x3db323b1	0.08747042
95	0x3d8e5851	0.06950439
96	0x3d12389e	0.035698526
97	0x3cd508ed	0.026005233
98	0x3de30e05	0.110866584
99	0x3d9d0360	0.07666659
100	0xbb216960	-0.0024629459
101	0xbca58bae	-0.020208206
102	0xbdde5148	-0.10855347
103	0xbd16fbc9	-0.036861215
104	0xbd3f9d89	-0.046781097
105	0x3c886f83	0.016654735
106	0xbca5981b	-0.020214131
107	0xbc476ab6	-0.012171438
108	0xbe18f6d4	-0.14937907
109	0xbdb5b1e7	-0.08871823
110	0xbcbd8b96	-0.023137849
111	0xbd5d71d9	-0.05406365
112	0xbc972785	-0.018451462
113	0x3c11234c	0.008858513
114	0x3d8b501a	0.068023875
115	0xbcb5d5e8	-0.022196725
116	0xbb18a25c	-0.0023290133
117	0x3a12bfe2	0.0005598051
118	0xbc957b0b	-0.018247148
119	0x3b9f7e28	0.004867334
120	0x3d3888c0	0.04505229
121	0x3d851091	0.064973004
122	0xbe208bfe	-0.15678403
123	0xbde02f23	-0.109464906
124	0xbddd0b80	-0.10793209
125	0xbc02464f	-0.007951333
126	0xbc9c7d39	-0.01910268
127	0xbda511d2	-0.080600396
128	0x3d46f29b	0.04857121
129	0x3d326618	0.043554395
130	0xbdb66fc9	-0.0890804
131	0xbc77889b	-0.015108253
132	0xbd8e7568	-0.06955987
133	0x3e14d4a7	0.14534245
134	0x3e04a566	0.1295372
135	0xbc12739e	-0.008938698
136	0x3d93d45c	0.07218239
137	0xbbeb365d	-0.0071781115
138	0xbc657e10	-0.014007106
139	0xbdd0772f	-0.101789825
140	0x3bf93f4a	0.0076064216
141	0xbca18af0	-0.01971957
142	0x3de61aaa	0.112355545
143	0x3e1faded	0.15593691
144	0x3dfe02ff	0.12402915
145	0x3d939e4d	0.07207928
146	0x3d0f1b7c	0.03493832
147	0x3dae36fb	0.085065804
148	0xbe3721ec	-0.17884034
149	0x3dc33fbc	0.09533641
150	0xbce75e73	-0.02824328
151	0xbd97f948	-0.074205935
152	0xbd8257ee	-0.063644275
153	0xbcbcece7	-0.023062183
154	0xbdb4f786	-0.08836274
155	0x3e1a1fd2	0.15051201
156	0x3db10f46	0.08645491
157	0xbe2ea07a	-0.17053404
158	0xbd81a15a	-0.063296035
159	0x3d9adcdb	0.07561656
160	0xbda5ca9a	-0.08095284
161	0x3d5be9fe	0.05368995
162	0x3d8d07a8	0.06886226
163	0x3df62bbb	0.1202006
164	0x3e08f516	0.13374743
165	0xbe5778d9	-0.21042193
166	0xbe43ed20	-0.19133425
167	0xbe1f9778	-0.15585124
168	0xbc83bace	-0.016080286
169	0xbde59a47	-0.11211067
170	0xbdcf1481	-0.10111333
171	0xbdbc368d	-0.09190092
172	0x3e494346	0.19654569
173	0x3e342dff	0.17595671
174	0xbd9b1f69	-0.075743504
175	0xbcf23b97	-0.02956943
176	0x3e00a78b	0.12563913
177	0x3df8bd8e	0.1214553
178	0xbda2fa12	-0.079578534
179	0xbd72e9e9	-0.059305105
180	0xbcf1102e	-0.02942666
181	0x3d971814	0.073776394
182	0xbe4f1640	-0.20223331
183	0x3dc360fa	0.09539981
184	0xbd53f7a8	-0.051749855
185	0xbdf15ae5	-0.11784915
186	0x3d840717	0.06446665
187	0xbc3bb1fa	-0.011456007
188	0x3d9c157b	0.076212846
189	0x3e2050a3	0.1565576
190	0x3bcc5f48	0.0062369443
191	0xb8a67ac7	-7.938366e-05
192	0xbdba7a71	-0.09105385
193	0x3cc9d75d	0.024638826
194	0xbe27d000	-0.1638794
195	0x3d9ccc74	0.07656184
196	0xbe369b01	-0.17832567
197	0xbe1312e4	-0.14362675
198	0xbdb92d93	-0.09041896
199	0x3d7fd5db	0.062459808
200	0xbdcdb905	-0.10045055
201	0x3c6cbdac	0.014449518
202	0x3d9f789f	0.077866785
203	0x3dacb9ea	0.08433898
204	0xba65cc01	-0.00087660557
205	0x3dc2c2ba	0.095097974
206	0xbdba0af6	-0.09084122
207	0x3e31117d	0.17291827
208	0x3dbfcb6c	0.093649715
209	0x3d55e3ec	0.052219316
210	0x3cc6e555	0.024279276
211	0x3d7a8ce1	0.06116951
212	0xbd8f3e5f	-0.06994318
213	0xbdc5c1aa	-0.09656079
214	0xbd3c1a31	-0.045923416
215	0xbcee7a17	-0.029110951
216	0x3d1387b9	0.036018107
217	0xbdab44bc	-0.083627194
218	0x3d013322	0.031542905
219	0xbe0cab70	-0.13737273
220	0x3c95867b	0.018252602
221	0xbd2ba568	-0.04190579
222	0x3e1d8b59	0.15385188
223	0x3de78524	0.113046914
224	0xbcd832f2	-0.02639148
225	0xbe075974	-0.13217717
226	0x3cfe407e	0.031036612
227	0x3e156d38	0.14592445
228	0xbd52a10b	-0.051423114
229	0xbdb09b3c	-0.086233586
230	0x3d89a49d	0.067208506
231	0xbcfd0488	-0.03088595
232	0xbd1df0c3	-0.038559686
233	0xbdccfd19	-0.10009212
234	0x3c14b638	0.009076647
235	0x3dd0534b	0.10172137
236	0x3e0d1fef	0.13781713
237	0xbde2383b	-0.11045881
238	0x3d89d7f4	0.06730643
239	0xbda2303d	-0.07919357
240	0x3d010b42	0.031504877
241	0x3d0d6bd4	0.03452666
242	0xbd8bba43	-0.06822636
243	0xbc588194	-0.013214488
244	0xbd7e3683	-0.062063705
245	0x3dd9bcc1	0.10631705
246	0xbc54812e	-0.012970252
247	0xbdc4e716	-0.09614389
248	0x3e05b642	0.13057807
249	0x3d0b9136	0.03407403
250	0xbd3c2d5c	-0.045941696
251	0x3e227c67	0.15867768
252	0x3db4f6ee	0.088361606
253	0xbd92476b	-0.07142528
254	0xbd4af8ee	-0.049553804
255	0x3cfd13f3	0.030893302
